=======================================================================================================================================
Layer (type (var_name):depth-idx)                       Input Shape          Kernel Shape         Output Shape         Param %
=======================================================================================================================================
Segformer (Segformer)                                   [1, 3, 512, 512]     --                   [1, 5, 512, 512]          --
├─DenseNetSAEncoder (encoder): 1-1                      [1, 3, 512, 512]     --                   [1, 1, 512, 512]          --
│    └─Sequential (features): 2-9                       --                   --                   --                   (recursive)
│    │    └─Conv2d (conv0): 3-1                         [1, 1, 512, 512]     [7, 7]               [1, 64, 256, 256]      0.01%
│    │    └─BatchNorm2d (norm0): 3-2                    [1, 64, 256, 256]    --                   [1, 64, 256, 256]      0.00%
│    │    └─ReLU (relu0): 3-3                           [1, 64, 256, 256]    --                   [1, 64, 256, 256]         --
│    │    └─Conv2d (conv0): 3-4                         [1, 1, 512, 512]     [7, 7]               [1, 64, 256, 256]    (recursive)
│    │    └─BatchNorm2d (norm0): 3-5                    [1, 64, 256, 256]    --                   [1, 64, 256, 256]    (recursive)
│    │    └─ReLU (relu0): 3-6                           [1, 64, 256, 256]    --                   [1, 64, 256, 256]    (recursive)
│    │    └─Conv2d (conv0): 3-7                         [1, 1, 512, 512]     [7, 7]               [1, 64, 256, 256]    (recursive)
│    │    └─BatchNorm2d (norm0): 3-8                    [1, 64, 256, 256]    --                   [1, 64, 256, 256]    (recursive)
│    │    └─ReLU (relu0): 3-9                           [1, 64, 256, 256]    --                   [1, 64, 256, 256]    (recursive)
│    │    └─MaxPool2d (pool0): 3-10                     [1, 64, 256, 256]    3                    [1, 64, 128, 128]         --
│    │    └─_DenseBlock (denseblock1): 3-11             [1, 64, 128, 128]    --                   [1, 256, 128, 128]        --
│    │    │    └─_DenseLayer (denselayer1): 4-1         [1, 64, 128, 128]    --                   [1, 32, 128, 128]         --
│    │    │    │    └─BatchNorm2d (norm1): 5-1          [1, 64, 128, 128]    --                   [1, 64, 128, 128]      0.00%
│    │    │    │    └─ReLU (relu1): 5-2                 [1, 64, 128, 128]    --                   [1, 64, 128, 128]         --
│    │    │    │    └─Conv2d (conv1): 5-3               [1, 64, 128, 128]    [1, 1]               [1, 128, 128, 128]     0.03%
│    │    │    │    └─BatchNorm2d (norm2): 5-4          [1, 128, 128, 128]   --                   [1, 128, 128, 128]     0.00%
│    │    │    │    └─ReLU (relu2): 5-5                 [1, 128, 128, 128]   --                   [1, 128, 128, 128]        --
│    │    │    │    └─Conv2d (conv2): 5-6               [1, 128, 128, 128]   [3, 3]               [1, 32, 128, 128]      0.15%
│    │    │    └─_DenseLayer (denselayer2): 4-2         [1, 64, 128, 128]    --                   [1, 32, 128, 128]         --
│    │    │    │    └─BatchNorm2d (norm1): 5-7          [1, 96, 128, 128]    --                   [1, 96, 128, 128]      0.00%
│    │    │    │    └─ReLU (relu1): 5-8                 [1, 96, 128, 128]    --                   [1, 96, 128, 128]         --
│    │    │    │    └─Conv2d (conv1): 5-9               [1, 96, 128, 128]    [1, 1]               [1, 128, 128, 128]     0.05%
│    │    │    │    └─BatchNorm2d (norm2): 5-10         [1, 128, 128, 128]   --                   [1, 128, 128, 128]     0.00%
│    │    │    │    └─ReLU (relu2): 5-11                [1, 128, 128, 128]   --                   [1, 128, 128, 128]        --
│    │    │    │    └─Conv2d (conv2): 5-12              [1, 128, 128, 128]   [3, 3]               [1, 32, 128, 128]      0.15%
│    │    │    └─_DenseLayer (denselayer3): 4-3         [1, 64, 128, 128]    --                   [1, 32, 128, 128]         --
│    │    │    │    └─BatchNorm2d (norm1): 5-13         [1, 128, 128, 128]   --                   [1, 128, 128, 128]     0.00%
│    │    │    │    └─ReLU (relu1): 5-14                [1, 128, 128, 128]   --                   [1, 128, 128, 128]        --
│    │    │    │    └─Conv2d (conv1): 5-15              [1, 128, 128, 128]   [1, 1]               [1, 128, 128, 128]     0.07%
│    │    │    │    └─BatchNorm2d (norm2): 5-16         [1, 128, 128, 128]   --                   [1, 128, 128, 128]     0.00%
│    │    │    │    └─ReLU (relu2): 5-17                [1, 128, 128, 128]   --                   [1, 128, 128, 128]        --
│    │    │    │    └─Conv2d (conv2): 5-18              [1, 128, 128, 128]   [3, 3]               [1, 32, 128, 128]      0.15%
│    │    │    └─_DenseLayer (denselayer4): 4-4         [1, 64, 128, 128]    --                   [1, 32, 128, 128]         --
│    │    │    │    └─BatchNorm2d (norm1): 5-19         [1, 160, 128, 128]   --                   [1, 160, 128, 128]     0.00%
│    │    │    │    └─ReLU (relu1): 5-20                [1, 160, 128, 128]   --                   [1, 160, 128, 128]        --
│    │    │    │    └─Conv2d (conv1): 5-21              [1, 160, 128, 128]   [1, 1]               [1, 128, 128, 128]     0.08%
│    │    │    │    └─BatchNorm2d (norm2): 5-22         [1, 128, 128, 128]   --                   [1, 128, 128, 128]     0.00%
│    │    │    │    └─ReLU (relu2): 5-23                [1, 128, 128, 128]   --                   [1, 128, 128, 128]        --
│    │    │    │    └─Conv2d (conv2): 5-24              [1, 128, 128, 128]   [3, 3]               [1, 32, 128, 128]      0.15%
│    │    │    └─_DenseLayer (denselayer5): 4-5         [1, 64, 128, 128]    --                   [1, 32, 128, 128]         --
│    │    │    │    └─BatchNorm2d (norm1): 5-25         [1, 192, 128, 128]   --                   [1, 192, 128, 128]     0.00%
│    │    │    │    └─ReLU (relu1): 5-26                [1, 192, 128, 128]   --                   [1, 192, 128, 128]        --
│    │    │    │    └─Conv2d (conv1): 5-27              [1, 192, 128, 128]   [1, 1]               [1, 128, 128, 128]     0.10%
│    │    │    │    └─BatchNorm2d (norm2): 5-28         [1, 128, 128, 128]   --                   [1, 128, 128, 128]     0.00%
│    │    │    │    └─ReLU (relu2): 5-29                [1, 128, 128, 128]   --                   [1, 128, 128, 128]        --
│    │    │    │    └─Conv2d (conv2): 5-30              [1, 128, 128, 128]   [3, 3]               [1, 32, 128, 128]      0.15%
│    │    │    └─_DenseLayer (denselayer6): 4-6         [1, 64, 128, 128]    --                   [1, 32, 128, 128]         --
│    │    │    │    └─BatchNorm2d (norm1): 5-31         [1, 224, 128, 128]   --                   [1, 224, 128, 128]     0.00%
│    │    │    │    └─ReLU (relu1): 5-32                [1, 224, 128, 128]   --                   [1, 224, 128, 128]        --
│    │    │    │    └─Conv2d (conv1): 5-33              [1, 224, 128, 128]   [1, 1]               [1, 128, 128, 128]     0.12%
│    │    │    │    └─BatchNorm2d (norm2): 5-34         [1, 128, 128, 128]   --                   [1, 128, 128, 128]     0.00%
│    │    │    │    └─ReLU (relu2): 5-35                [1, 128, 128, 128]   --                   [1, 128, 128, 128]        --
│    │    │    │    └─Conv2d (conv2): 5-36              [1, 128, 128, 128]   [3, 3]               [1, 32, 128, 128]      0.15%
│    │    └─_Transition (transition1): 3-18             --                   --                   --                   (recursive)
│    │    │    └─BatchNorm2d (norm): 4-7                [1, 256, 128, 128]   --                   [1, 256, 128, 128]     0.00%
│    │    │    └─ReLU (relu): 4-8                       [1, 256, 128, 128]   --                   [1, 256, 128, 128]        --
│    │    │    └─Conv2d (conv): 4-9                     [1, 256, 128, 128]   [1, 1]               [1, 128, 128, 128]     0.14%
│    │    │    └─AvgPool2d (pool): 4-10                 [1, 128, 128, 128]   2                    [1, 128, 64, 64]          --
│    │    └─MaxPool2d (pool0): 3-13                     [1, 64, 256, 256]    3                    [1, 64, 128, 128]    (recursive)
│    │    └─_DenseBlock (denseblock1): 3-14             [1, 64, 128, 128]    --                   [1, 256, 128, 128]   (recursive)
│    │    │    └─_DenseLayer (denselayer1): 4-11        [1, 64, 128, 128]    --                   [1, 32, 128, 128]    (recursive)
│    │    │    │    └─BatchNorm2d (norm1): 5-37         [1, 64, 128, 128]    --                   [1, 64, 128, 128]    (recursive)
│    │    │    │    └─ReLU (relu1): 5-38                [1, 64, 128, 128]    --                   [1, 64, 128, 128]    (recursive)
│    │    │    │    └─Conv2d (conv1): 5-39              [1, 64, 128, 128]    [1, 1]               [1, 128, 128, 128]   (recursive)
│    │    │    │    └─BatchNorm2d (norm2): 5-40         [1, 128, 128, 128]   --                   [1, 128, 128, 128]   (recursive)
│    │    │    │    └─ReLU (relu2): 5-41                [1, 128, 128, 128]   --                   [1, 128, 128, 128]   (recursive)
│    │    │    │    └─Conv2d (conv2): 5-42              [1, 128, 128, 128]   [3, 3]               [1, 32, 128, 128]    (recursive)
│    │    │    └─_DenseLayer (denselayer2): 4-12        [1, 64, 128, 128]    --                   [1, 32, 128, 128]    (recursive)
│    │    │    │    └─BatchNorm2d (norm1): 5-43         [1, 96, 128, 128]    --                   [1, 96, 128, 128]    (recursive)
│    │    │    │    └─ReLU (relu1): 5-44                [1, 96, 128, 128]    --                   [1, 96, 128, 128]    (recursive)
│    │    │    │    └─Conv2d (conv1): 5-45              [1, 96, 128, 128]    [1, 1]               [1, 128, 128, 128]   (recursive)
│    │    │    │    └─BatchNorm2d (norm2): 5-46         [1, 128, 128, 128]   --                   [1, 128, 128, 128]   (recursive)
│    │    │    │    └─ReLU (relu2): 5-47                [1, 128, 128, 128]   --                   [1, 128, 128, 128]   (recursive)
│    │    │    │    └─Conv2d (conv2): 5-48              [1, 128, 128, 128]   [3, 3]               [1, 32, 128, 128]    (recursive)
│    │    │    └─_DenseLayer (denselayer3): 4-13        [1, 64, 128, 128]    --                   [1, 32, 128, 128]    (recursive)
│    │    │    │    └─BatchNorm2d (norm1): 5-49         [1, 128, 128, 128]   --                   [1, 128, 128, 128]   (recursive)
│    │    │    │    └─ReLU (relu1): 5-50                [1, 128, 128, 128]   --                   [1, 128, 128, 128]   (recursive)
│    │    │    │    └─Conv2d (conv1): 5-51              [1, 128, 128, 128]   [1, 1]               [1, 128, 128, 128]   (recursive)
│    │    │    │    └─BatchNorm2d (norm2): 5-52         [1, 128, 128, 128]   --                   [1, 128, 128, 128]   (recursive)
│    │    │    │    └─ReLU (relu2): 5-53                [1, 128, 128, 128]   --                   [1, 128, 128, 128]   (recursive)
│    │    │    │    └─Conv2d (conv2): 5-54              [1, 128, 128, 128]   [3, 3]               [1, 32, 128, 128]    (recursive)
│    │    │    └─_DenseLayer (denselayer4): 4-14        [1, 64, 128, 128]    --                   [1, 32, 128, 128]    (recursive)
│    │    │    │    └─BatchNorm2d (norm1): 5-55         [1, 160, 128, 128]   --                   [1, 160, 128, 128]   (recursive)
│    │    │    │    └─ReLU (relu1): 5-56                [1, 160, 128, 128]   --                   [1, 160, 128, 128]   (recursive)
│    │    │    │    └─Conv2d (conv1): 5-57              [1, 160, 128, 128]   [1, 1]               [1, 128, 128, 128]   (recursive)
│    │    │    │    └─BatchNorm2d (norm2): 5-58         [1, 128, 128, 128]   --                   [1, 128, 128, 128]   (recursive)
│    │    │    │    └─ReLU (relu2): 5-59                [1, 128, 128, 128]   --                   [1, 128, 128, 128]   (recursive)
│    │    │    │    └─Conv2d (conv2): 5-60              [1, 128, 128, 128]   [3, 3]               [1, 32, 128, 128]    (recursive)
│    │    │    └─_DenseLayer (denselayer5): 4-15        [1, 64, 128, 128]    --                   [1, 32, 128, 128]    (recursive)
│    │    │    │    └─BatchNorm2d (norm1): 5-61         [1, 192, 128, 128]   --                   [1, 192, 128, 128]   (recursive)
│    │    │    │    └─ReLU (relu1): 5-62                [1, 192, 128, 128]   --                   [1, 192, 128, 128]   (recursive)
│    │    │    │    └─Conv2d (conv1): 5-63              [1, 192, 128, 128]   [1, 1]               [1, 128, 128, 128]   (recursive)
│    │    │    │    └─BatchNorm2d (norm2): 5-64         [1, 128, 128, 128]   --                   [1, 128, 128, 128]   (recursive)
│    │    │    │    └─ReLU (relu2): 5-65                [1, 128, 128, 128]   --                   [1, 128, 128, 128]   (recursive)
│    │    │    │    └─Conv2d (conv2): 5-66              [1, 128, 128, 128]   [3, 3]               [1, 32, 128, 128]    (recursive)
│    │    │    └─_DenseLayer (denselayer6): 4-16        [1, 64, 128, 128]    --                   [1, 32, 128, 128]    (recursive)
│    │    │    │    └─BatchNorm2d (norm1): 5-67         [1, 224, 128, 128]   --                   [1, 224, 128, 128]   (recursive)
│    │    │    │    └─ReLU (relu1): 5-68                [1, 224, 128, 128]   --                   [1, 224, 128, 128]   (recursive)
│    │    │    │    └─Conv2d (conv1): 5-69              [1, 224, 128, 128]   [1, 1]               [1, 128, 128, 128]   (recursive)
│    │    │    │    └─BatchNorm2d (norm2): 5-70         [1, 128, 128, 128]   --                   [1, 128, 128, 128]   (recursive)
│    │    │    │    └─ReLU (relu2): 5-71                [1, 128, 128, 128]   --                   [1, 128, 128, 128]   (recursive)
│    │    │    │    └─Conv2d (conv2): 5-72              [1, 128, 128, 128]   [3, 3]               [1, 32, 128, 128]    (recursive)
│    │    └─_Transition (transition1): 3-18             --                   --                   --                   (recursive)
│    │    │    └─BatchNorm2d (norm): 4-17               [1, 256, 128, 128]   --                   [1, 256, 128, 128]   (recursive)
│    │    │    └─ReLU (relu): 4-18                      [1, 256, 128, 128]   --                   [1, 256, 128, 128]   (recursive)
│    │    │    └─Conv2d (conv): 4-19                    [1, 256, 128, 128]   [1, 1]               [1, 128, 128, 128]   (recursive)
│    │    │    └─AvgPool2d (pool): 4-20                 [1, 128, 128, 128]   2                    [1, 128, 64, 64]     (recursive)
│    │    └─MaxPool2d (pool0): 3-16                     [1, 64, 256, 256]    3                    [1, 64, 128, 128]    (recursive)
│    │    └─_DenseBlock (denseblock1): 3-17             [1, 64, 128, 128]    --                   [1, 256, 128, 128]   (recursive)
│    │    │    └─_DenseLayer (denselayer1): 4-21        [1, 64, 128, 128]    --                   [1, 32, 128, 128]    (recursive)
│    │    │    │    └─BatchNorm2d (norm1): 5-73         [1, 64, 128, 128]    --                   [1, 64, 128, 128]    (recursive)
│    │    │    │    └─ReLU (relu1): 5-74                [1, 64, 128, 128]    --                   [1, 64, 128, 128]    (recursive)
│    │    │    │    └─Conv2d (conv1): 5-75              [1, 64, 128, 128]    [1, 1]               [1, 128, 128, 128]   (recursive)
│    │    │    │    └─BatchNorm2d (norm2): 5-76         [1, 128, 128, 128]   --                   [1, 128, 128, 128]   (recursive)
│    │    │    │    └─ReLU (relu2): 5-77                [1, 128, 128, 128]   --                   [1, 128, 128, 128]   (recursive)
│    │    │    │    └─Conv2d (conv2): 5-78              [1, 128, 128, 128]   [3, 3]               [1, 32, 128, 128]    (recursive)
│    │    │    └─_DenseLayer (denselayer2): 4-22        [1, 64, 128, 128]    --                   [1, 32, 128, 128]    (recursive)
│    │    │    │    └─BatchNorm2d (norm1): 5-79         [1, 96, 128, 128]    --                   [1, 96, 128, 128]    (recursive)
│    │    │    │    └─ReLU (relu1): 5-80                [1, 96, 128, 128]    --                   [1, 96, 128, 128]    (recursive)
│    │    │    │    └─Conv2d (conv1): 5-81              [1, 96, 128, 128]    [1, 1]               [1, 128, 128, 128]   (recursive)
│    │    │    │    └─BatchNorm2d (norm2): 5-82         [1, 128, 128, 128]   --                   [1, 128, 128, 128]   (recursive)
│    │    │    │    └─ReLU (relu2): 5-83                [1, 128, 128, 128]   --                   [1, 128, 128, 128]   (recursive)
│    │    │    │    └─Conv2d (conv2): 5-84              [1, 128, 128, 128]   [3, 3]               [1, 32, 128, 128]    (recursive)
│    │    │    └─_DenseLayer (denselayer3): 4-23        [1, 64, 128, 128]    --                   [1, 32, 128, 128]    (recursive)
│    │    │    │    └─BatchNorm2d (norm1): 5-85         [1, 128, 128, 128]   --                   [1, 128, 128, 128]   (recursive)
│    │    │    │    └─ReLU (relu1): 5-86                [1, 128, 128, 128]   --                   [1, 128, 128, 128]   (recursive)
│    │    │    │    └─Conv2d (conv1): 5-87              [1, 128, 128, 128]   [1, 1]               [1, 128, 128, 128]   (recursive)
│    │    │    │    └─BatchNorm2d (norm2): 5-88         [1, 128, 128, 128]   --                   [1, 128, 128, 128]   (recursive)
│    │    │    │    └─ReLU (relu2): 5-89                [1, 128, 128, 128]   --                   [1, 128, 128, 128]   (recursive)
│    │    │    │    └─Conv2d (conv2): 5-90              [1, 128, 128, 128]   [3, 3]               [1, 32, 128, 128]    (recursive)
│    │    │    └─_DenseLayer (denselayer4): 4-24        [1, 64, 128, 128]    --                   [1, 32, 128, 128]    (recursive)
│    │    │    │    └─BatchNorm2d (norm1): 5-91         [1, 160, 128, 128]   --                   [1, 160, 128, 128]   (recursive)
│    │    │    │    └─ReLU (relu1): 5-92                [1, 160, 128, 128]   --                   [1, 160, 128, 128]   (recursive)
│    │    │    │    └─Conv2d (conv1): 5-93              [1, 160, 128, 128]   [1, 1]               [1, 128, 128, 128]   (recursive)
│    │    │    │    └─BatchNorm2d (norm2): 5-94         [1, 128, 128, 128]   --                   [1, 128, 128, 128]   (recursive)
│    │    │    │    └─ReLU (relu2): 5-95                [1, 128, 128, 128]   --                   [1, 128, 128, 128]   (recursive)
│    │    │    │    └─Conv2d (conv2): 5-96              [1, 128, 128, 128]   [3, 3]               [1, 32, 128, 128]    (recursive)
│    │    │    └─_DenseLayer (denselayer5): 4-25        [1, 64, 128, 128]    --                   [1, 32, 128, 128]    (recursive)
│    │    │    │    └─BatchNorm2d (norm1): 5-97         [1, 192, 128, 128]   --                   [1, 192, 128, 128]   (recursive)
│    │    │    │    └─ReLU (relu1): 5-98                [1, 192, 128, 128]   --                   [1, 192, 128, 128]   (recursive)
│    │    │    │    └─Conv2d (conv1): 5-99              [1, 192, 128, 128]   [1, 1]               [1, 128, 128, 128]   (recursive)
│    │    │    │    └─BatchNorm2d (norm2): 5-100        [1, 128, 128, 128]   --                   [1, 128, 128, 128]   (recursive)
│    │    │    │    └─ReLU (relu2): 5-101               [1, 128, 128, 128]   --                   [1, 128, 128, 128]   (recursive)
│    │    │    │    └─Conv2d (conv2): 5-102             [1, 128, 128, 128]   [3, 3]               [1, 32, 128, 128]    (recursive)
│    │    │    └─_DenseLayer (denselayer6): 4-26        [1, 64, 128, 128]    --                   [1, 32, 128, 128]    (recursive)
│    │    │    │    └─BatchNorm2d (norm1): 5-103        [1, 224, 128, 128]   --                   [1, 224, 128, 128]   (recursive)
│    │    │    │    └─ReLU (relu1): 5-104               [1, 224, 128, 128]   --                   [1, 224, 128, 128]   (recursive)
│    │    │    │    └─Conv2d (conv1): 5-105             [1, 224, 128, 128]   [1, 1]               [1, 128, 128, 128]   (recursive)
│    │    │    │    └─BatchNorm2d (norm2): 5-106        [1, 128, 128, 128]   --                   [1, 128, 128, 128]   (recursive)
│    │    │    │    └─ReLU (relu2): 5-107               [1, 128, 128, 128]   --                   [1, 128, 128, 128]   (recursive)
│    │    │    │    └─Conv2d (conv2): 5-108             [1, 128, 128, 128]   [3, 3]               [1, 32, 128, 128]    (recursive)
│    │    └─_Transition (transition1): 3-18             --                   --                   --                   (recursive)
│    │    │    └─BatchNorm2d (norm): 4-27               [1, 256, 128, 128]   --                   [1, 256, 128, 128]   (recursive)
│    │    │    └─ReLU (relu): 4-28                      [1, 256, 128, 128]   --                   [1, 256, 128, 128]   (recursive)
│    │    │    └─Conv2d (conv): 4-29                    [1, 256, 128, 128]   [1, 1]               [1, 128, 128, 128]   (recursive)
│    │    │    └─AvgPool2d (pool): 4-30                 [1, 128, 128, 128]   2                    [1, 128, 64, 64]     (recursive)
│    │    └─_DenseBlock (denseblock2): 3-19             [1, 128, 64, 64]     --                   [1, 512, 64, 64]          --
│    │    │    └─_DenseLayer (denselayer1): 4-31        [1, 128, 64, 64]     --                   [1, 32, 64, 64]           --
│    │    │    │    └─BatchNorm2d (norm1): 5-109        [1, 128, 64, 64]     --                   [1, 128, 64, 64]       0.00%
│    │    │    │    └─ReLU (relu1): 5-110               [1, 128, 64, 64]     --                   [1, 128, 64, 64]          --
│    │    │    │    └─Conv2d (conv1): 5-111             [1, 128, 64, 64]     [1, 1]               [1, 128, 64, 64]       0.07%
│    │    │    │    └─BatchNorm2d (norm2): 5-112        [1, 128, 64, 64]     --                   [1, 128, 64, 64]       0.00%
│    │    │    │    └─ReLU (relu2): 5-113               [1, 128, 64, 64]     --                   [1, 128, 64, 64]          --
│    │    │    │    └─Conv2d (conv2): 5-114             [1, 128, 64, 64]     [3, 3]               [1, 32, 64, 64]        0.15%
│    │    │    └─_DenseLayer (denselayer2): 4-32        [1, 128, 64, 64]     --                   [1, 32, 64, 64]           --
│    │    │    │    └─BatchNorm2d (norm1): 5-115        [1, 160, 64, 64]     --                   [1, 160, 64, 64]       0.00%
│    │    │    │    └─ReLU (relu1): 5-116               [1, 160, 64, 64]     --                   [1, 160, 64, 64]          --
│    │    │    │    └─Conv2d (conv1): 5-117             [1, 160, 64, 64]     [1, 1]               [1, 128, 64, 64]       0.08%
│    │    │    │    └─BatchNorm2d (norm2): 5-118        [1, 128, 64, 64]     --                   [1, 128, 64, 64]       0.00%
│    │    │    │    └─ReLU (relu2): 5-119               [1, 128, 64, 64]     --                   [1, 128, 64, 64]          --
│    │    │    │    └─Conv2d (conv2): 5-120             [1, 128, 64, 64]     [3, 3]               [1, 32, 64, 64]        0.15%
│    │    │    └─_DenseLayer (denselayer3): 4-33        [1, 128, 64, 64]     --                   [1, 32, 64, 64]           --
│    │    │    │    └─BatchNorm2d (norm1): 5-121        [1, 192, 64, 64]     --                   [1, 192, 64, 64]       0.00%
│    │    │    │    └─ReLU (relu1): 5-122               [1, 192, 64, 64]     --                   [1, 192, 64, 64]          --
│    │    │    │    └─Conv2d (conv1): 5-123             [1, 192, 64, 64]     [1, 1]               [1, 128, 64, 64]       0.10%
│    │    │    │    └─BatchNorm2d (norm2): 5-124        [1, 128, 64, 64]     --                   [1, 128, 64, 64]       0.00%
│    │    │    │    └─ReLU (relu2): 5-125               [1, 128, 64, 64]     --                   [1, 128, 64, 64]          --
│    │    │    │    └─Conv2d (conv2): 5-126             [1, 128, 64, 64]     [3, 3]               [1, 32, 64, 64]        0.15%
│    │    │    └─_DenseLayer (denselayer4): 4-34        [1, 128, 64, 64]     --                   [1, 32, 64, 64]           --
│    │    │    │    └─BatchNorm2d (norm1): 5-127        [1, 224, 64, 64]     --                   [1, 224, 64, 64]       0.00%
│    │    │    │    └─ReLU (relu1): 5-128               [1, 224, 64, 64]     --                   [1, 224, 64, 64]          --
│    │    │    │    └─Conv2d (conv1): 5-129             [1, 224, 64, 64]     [1, 1]               [1, 128, 64, 64]       0.12%
│    │    │    │    └─BatchNorm2d (norm2): 5-130        [1, 128, 64, 64]     --                   [1, 128, 64, 64]       0.00%
│    │    │    │    └─ReLU (relu2): 5-131               [1, 128, 64, 64]     --                   [1, 128, 64, 64]          --
│    │    │    │    └─Conv2d (conv2): 5-132             [1, 128, 64, 64]     [3, 3]               [1, 32, 64, 64]        0.15%
│    │    │    └─_DenseLayer (denselayer5): 4-35        [1, 128, 64, 64]     --                   [1, 32, 64, 64]           --
│    │    │    │    └─BatchNorm2d (norm1): 5-133        [1, 256, 64, 64]     --                   [1, 256, 64, 64]       0.00%
│    │    │    │    └─ReLU (relu1): 5-134               [1, 256, 64, 64]     --                   [1, 256, 64, 64]          --
│    │    │    │    └─Conv2d (conv1): 5-135             [1, 256, 64, 64]     [1, 1]               [1, 128, 64, 64]       0.14%
│    │    │    │    └─BatchNorm2d (norm2): 5-136        [1, 128, 64, 64]     --                   [1, 128, 64, 64]       0.00%
│    │    │    │    └─ReLU (relu2): 5-137               [1, 128, 64, 64]     --                   [1, 128, 64, 64]          --
│    │    │    │    └─Conv2d (conv2): 5-138             [1, 128, 64, 64]     [3, 3]               [1, 32, 64, 64]        0.15%
│    │    │    └─_DenseLayer (denselayer6): 4-36        [1, 128, 64, 64]     --                   [1, 32, 64, 64]           --
│    │    │    │    └─BatchNorm2d (norm1): 5-139        [1, 288, 64, 64]     --                   [1, 288, 64, 64]       0.00%
│    │    │    │    └─ReLU (relu1): 5-140               [1, 288, 64, 64]     --                   [1, 288, 64, 64]          --
│    │    │    │    └─Conv2d (conv1): 5-141             [1, 288, 64, 64]     [1, 1]               [1, 128, 64, 64]       0.15%
│    │    │    │    └─BatchNorm2d (norm2): 5-142        [1, 128, 64, 64]     --                   [1, 128, 64, 64]       0.00%
│    │    │    │    └─ReLU (relu2): 5-143               [1, 128, 64, 64]     --                   [1, 128, 64, 64]          --
│    │    │    │    └─Conv2d (conv2): 5-144             [1, 128, 64, 64]     [3, 3]               [1, 32, 64, 64]        0.15%
│    │    │    └─_DenseLayer (denselayer7): 4-37        [1, 128, 64, 64]     --                   [1, 32, 64, 64]           --
│    │    │    │    └─BatchNorm2d (norm1): 5-145        [1, 320, 64, 64]     --                   [1, 320, 64, 64]       0.00%
│    │    │    │    └─ReLU (relu1): 5-146               [1, 320, 64, 64]     --                   [1, 320, 64, 64]          --
│    │    │    │    └─Conv2d (conv1): 5-147             [1, 320, 64, 64]     [1, 1]               [1, 128, 64, 64]       0.17%
│    │    │    │    └─BatchNorm2d (norm2): 5-148        [1, 128, 64, 64]     --                   [1, 128, 64, 64]       0.00%
│    │    │    │    └─ReLU (relu2): 5-149               [1, 128, 64, 64]     --                   [1, 128, 64, 64]          --
│    │    │    │    └─Conv2d (conv2): 5-150             [1, 128, 64, 64]     [3, 3]               [1, 32, 64, 64]        0.15%
│    │    │    └─_DenseLayer (denselayer8): 4-38        [1, 128, 64, 64]     --                   [1, 32, 64, 64]           --
│    │    │    │    └─BatchNorm2d (norm1): 5-151        [1, 352, 64, 64]     --                   [1, 352, 64, 64]       0.00%
│    │    │    │    └─ReLU (relu1): 5-152               [1, 352, 64, 64]     --                   [1, 352, 64, 64]          --
│    │    │    │    └─Conv2d (conv1): 5-153             [1, 352, 64, 64]     [1, 1]               [1, 128, 64, 64]       0.19%
│    │    │    │    └─BatchNorm2d (norm2): 5-154        [1, 128, 64, 64]     --                   [1, 128, 64, 64]       0.00%
│    │    │    │    └─ReLU (relu2): 5-155               [1, 128, 64, 64]     --                   [1, 128, 64, 64]          --
│    │    │    │    └─Conv2d (conv2): 5-156             [1, 128, 64, 64]     [3, 3]               [1, 32, 64, 64]        0.15%
│    │    │    └─_DenseLayer (denselayer9): 4-39        [1, 128, 64, 64]     --                   [1, 32, 64, 64]           --
│    │    │    │    └─BatchNorm2d (norm1): 5-157        [1, 384, 64, 64]     --                   [1, 384, 64, 64]       0.00%
│    │    │    │    └─ReLU (relu1): 5-158               [1, 384, 64, 64]     --                   [1, 384, 64, 64]          --
│    │    │    │    └─Conv2d (conv1): 5-159             [1, 384, 64, 64]     [1, 1]               [1, 128, 64, 64]       0.20%
│    │    │    │    └─BatchNorm2d (norm2): 5-160        [1, 128, 64, 64]     --                   [1, 128, 64, 64]       0.00%
│    │    │    │    └─ReLU (relu2): 5-161               [1, 128, 64, 64]     --                   [1, 128, 64, 64]          --
│    │    │    │    └─Conv2d (conv2): 5-162             [1, 128, 64, 64]     [3, 3]               [1, 32, 64, 64]        0.15%
│    │    │    └─_DenseLayer (denselayer10): 4-40       [1, 128, 64, 64]     --                   [1, 32, 64, 64]           --
│    │    │    │    └─BatchNorm2d (norm1): 5-163        [1, 416, 64, 64]     --                   [1, 416, 64, 64]       0.00%
│    │    │    │    └─ReLU (relu1): 5-164               [1, 416, 64, 64]     --                   [1, 416, 64, 64]          --
│    │    │    │    └─Conv2d (conv1): 5-165             [1, 416, 64, 64]     [1, 1]               [1, 128, 64, 64]       0.22%
│    │    │    │    └─BatchNorm2d (norm2): 5-166        [1, 128, 64, 64]     --                   [1, 128, 64, 64]       0.00%
│    │    │    │    └─ReLU (relu2): 5-167               [1, 128, 64, 64]     --                   [1, 128, 64, 64]          --
│    │    │    │    └─Conv2d (conv2): 5-168             [1, 128, 64, 64]     [3, 3]               [1, 32, 64, 64]        0.15%
│    │    │    └─_DenseLayer (denselayer11): 4-41       [1, 128, 64, 64]     --                   [1, 32, 64, 64]           --
│    │    │    │    └─BatchNorm2d (norm1): 5-169        [1, 448, 64, 64]     --                   [1, 448, 64, 64]       0.00%
│    │    │    │    └─ReLU (relu1): 5-170               [1, 448, 64, 64]     --                   [1, 448, 64, 64]          --
│    │    │    │    └─Conv2d (conv1): 5-171             [1, 448, 64, 64]     [1, 1]               [1, 128, 64, 64]       0.24%
│    │    │    │    └─BatchNorm2d (norm2): 5-172        [1, 128, 64, 64]     --                   [1, 128, 64, 64]       0.00%
│    │    │    │    └─ReLU (relu2): 5-173               [1, 128, 64, 64]     --                   [1, 128, 64, 64]          --
│    │    │    │    └─Conv2d (conv2): 5-174             [1, 128, 64, 64]     [3, 3]               [1, 32, 64, 64]        0.15%
│    │    │    └─_DenseLayer (denselayer12): 4-42       [1, 128, 64, 64]     --                   [1, 32, 64, 64]           --
│    │    │    │    └─BatchNorm2d (norm1): 5-175        [1, 480, 64, 64]     --                   [1, 480, 64, 64]       0.00%
│    │    │    │    └─ReLU (relu1): 5-176               [1, 480, 64, 64]     --                   [1, 480, 64, 64]          --
│    │    │    │    └─Conv2d (conv1): 5-177             [1, 480, 64, 64]     [1, 1]               [1, 128, 64, 64]       0.25%
│    │    │    │    └─BatchNorm2d (norm2): 5-178        [1, 128, 64, 64]     --                   [1, 128, 64, 64]       0.00%
│    │    │    │    └─ReLU (relu2): 5-179               [1, 128, 64, 64]     --                   [1, 128, 64, 64]          --
│    │    │    │    └─Conv2d (conv2): 5-180             [1, 128, 64, 64]     [3, 3]               [1, 32, 64, 64]        0.15%
│    │    └─_Transition (transition2): 3-24             --                   --                   --                   (recursive)
│    │    │    └─BatchNorm2d (norm): 4-43               [1, 512, 64, 64]     --                   [1, 512, 64, 64]       0.00%
│    │    │    └─ReLU (relu): 4-44                      [1, 512, 64, 64]     --                   [1, 512, 64, 64]          --
│    │    │    └─Conv2d (conv): 4-45                    [1, 512, 64, 64]     [1, 1]               [1, 256, 64, 64]       0.54%
│    │    │    └─AvgPool2d (pool): 4-46                 [1, 256, 64, 64]     2                    [1, 256, 32, 32]          --
│    │    └─_DenseBlock (denseblock2): 3-21             [1, 128, 64, 64]     --                   [1, 512, 64, 64]     (recursive)
│    │    │    └─_DenseLayer (denselayer1): 4-47        [1, 128, 64, 64]     --                   [1, 32, 64, 64]      (recursive)
│    │    │    │    └─BatchNorm2d (norm1): 5-181        [1, 128, 64, 64]     --                   [1, 128, 64, 64]     (recursive)
│    │    │    │    └─ReLU (relu1): 5-182               [1, 128, 64, 64]     --                   [1, 128, 64, 64]     (recursive)
│    │    │    │    └─Conv2d (conv1): 5-183             [1, 128, 64, 64]     [1, 1]               [1, 128, 64, 64]     (recursive)
│    │    │    │    └─BatchNorm2d (norm2): 5-184        [1, 128, 64, 64]     --                   [1, 128, 64, 64]     (recursive)
│    │    │    │    └─ReLU (relu2): 5-185               [1, 128, 64, 64]     --                   [1, 128, 64, 64]     (recursive)
│    │    │    │    └─Conv2d (conv2): 5-186             [1, 128, 64, 64]     [3, 3]               [1, 32, 64, 64]      (recursive)
│    │    │    └─_DenseLayer (denselayer2): 4-48        [1, 128, 64, 64]     --                   [1, 32, 64, 64]      (recursive)
│    │    │    │    └─BatchNorm2d (norm1): 5-187        [1, 160, 64, 64]     --                   [1, 160, 64, 64]     (recursive)
│    │    │    │    └─ReLU (relu1): 5-188               [1, 160, 64, 64]     --                   [1, 160, 64, 64]     (recursive)
│    │    │    │    └─Conv2d (conv1): 5-189             [1, 160, 64, 64]     [1, 1]               [1, 128, 64, 64]     (recursive)
│    │    │    │    └─BatchNorm2d (norm2): 5-190        [1, 128, 64, 64]     --                   [1, 128, 64, 64]     (recursive)
│    │    │    │    └─ReLU (relu2): 5-191               [1, 128, 64, 64]     --                   [1, 128, 64, 64]     (recursive)
│    │    │    │    └─Conv2d (conv2): 5-192             [1, 128, 64, 64]     [3, 3]               [1, 32, 64, 64]      (recursive)
│    │    │    └─_DenseLayer (denselayer3): 4-49        [1, 128, 64, 64]     --                   [1, 32, 64, 64]      (recursive)
│    │    │    │    └─BatchNorm2d (norm1): 5-193        [1, 192, 64, 64]     --                   [1, 192, 64, 64]     (recursive)
│    │    │    │    └─ReLU (relu1): 5-194               [1, 192, 64, 64]     --                   [1, 192, 64, 64]     (recursive)
│    │    │    │    └─Conv2d (conv1): 5-195             [1, 192, 64, 64]     [1, 1]               [1, 128, 64, 64]     (recursive)
│    │    │    │    └─BatchNorm2d (norm2): 5-196        [1, 128, 64, 64]     --                   [1, 128, 64, 64]     (recursive)
│    │    │    │    └─ReLU (relu2): 5-197               [1, 128, 64, 64]     --                   [1, 128, 64, 64]     (recursive)
│    │    │    │    └─Conv2d (conv2): 5-198             [1, 128, 64, 64]     [3, 3]               [1, 32, 64, 64]      (recursive)
│    │    │    └─_DenseLayer (denselayer4): 4-50        [1, 128, 64, 64]     --                   [1, 32, 64, 64]      (recursive)
│    │    │    │    └─BatchNorm2d (norm1): 5-199        [1, 224, 64, 64]     --                   [1, 224, 64, 64]     (recursive)
│    │    │    │    └─ReLU (relu1): 5-200               [1, 224, 64, 64]     --                   [1, 224, 64, 64]     (recursive)
│    │    │    │    └─Conv2d (conv1): 5-201             [1, 224, 64, 64]     [1, 1]               [1, 128, 64, 64]     (recursive)
│    │    │    │    └─BatchNorm2d (norm2): 5-202        [1, 128, 64, 64]     --                   [1, 128, 64, 64]     (recursive)
│    │    │    │    └─ReLU (relu2): 5-203               [1, 128, 64, 64]     --                   [1, 128, 64, 64]     (recursive)
│    │    │    │    └─Conv2d (conv2): 5-204             [1, 128, 64, 64]     [3, 3]               [1, 32, 64, 64]      (recursive)
│    │    │    └─_DenseLayer (denselayer5): 4-51        [1, 128, 64, 64]     --                   [1, 32, 64, 64]      (recursive)
│    │    │    │    └─BatchNorm2d (norm1): 5-205        [1, 256, 64, 64]     --                   [1, 256, 64, 64]     (recursive)
│    │    │    │    └─ReLU (relu1): 5-206               [1, 256, 64, 64]     --                   [1, 256, 64, 64]     (recursive)
│    │    │    │    └─Conv2d (conv1): 5-207             [1, 256, 64, 64]     [1, 1]               [1, 128, 64, 64]     (recursive)
│    │    │    │    └─BatchNorm2d (norm2): 5-208        [1, 128, 64, 64]     --                   [1, 128, 64, 64]     (recursive)
│    │    │    │    └─ReLU (relu2): 5-209               [1, 128, 64, 64]     --                   [1, 128, 64, 64]     (recursive)
│    │    │    │    └─Conv2d (conv2): 5-210             [1, 128, 64, 64]     [3, 3]               [1, 32, 64, 64]      (recursive)
│    │    │    └─_DenseLayer (denselayer6): 4-52        [1, 128, 64, 64]     --                   [1, 32, 64, 64]      (recursive)
│    │    │    │    └─BatchNorm2d (norm1): 5-211        [1, 288, 64, 64]     --                   [1, 288, 64, 64]     (recursive)
│    │    │    │    └─ReLU (relu1): 5-212               [1, 288, 64, 64]     --                   [1, 288, 64, 64]     (recursive)
│    │    │    │    └─Conv2d (conv1): 5-213             [1, 288, 64, 64]     [1, 1]               [1, 128, 64, 64]     (recursive)
│    │    │    │    └─BatchNorm2d (norm2): 5-214        [1, 128, 64, 64]     --                   [1, 128, 64, 64]     (recursive)
│    │    │    │    └─ReLU (relu2): 5-215               [1, 128, 64, 64]     --                   [1, 128, 64, 64]     (recursive)
│    │    │    │    └─Conv2d (conv2): 5-216             [1, 128, 64, 64]     [3, 3]               [1, 32, 64, 64]      (recursive)
│    │    │    └─_DenseLayer (denselayer7): 4-53        [1, 128, 64, 64]     --                   [1, 32, 64, 64]      (recursive)
│    │    │    │    └─BatchNorm2d (norm1): 5-217        [1, 320, 64, 64]     --                   [1, 320, 64, 64]     (recursive)
│    │    │    │    └─ReLU (relu1): 5-218               [1, 320, 64, 64]     --                   [1, 320, 64, 64]     (recursive)
│    │    │    │    └─Conv2d (conv1): 5-219             [1, 320, 64, 64]     [1, 1]               [1, 128, 64, 64]     (recursive)
│    │    │    │    └─BatchNorm2d (norm2): 5-220        [1, 128, 64, 64]     --                   [1, 128, 64, 64]     (recursive)
│    │    │    │    └─ReLU (relu2): 5-221               [1, 128, 64, 64]     --                   [1, 128, 64, 64]     (recursive)
│    │    │    │    └─Conv2d (conv2): 5-222             [1, 128, 64, 64]     [3, 3]               [1, 32, 64, 64]      (recursive)
│    │    │    └─_DenseLayer (denselayer8): 4-54        [1, 128, 64, 64]     --                   [1, 32, 64, 64]      (recursive)
│    │    │    │    └─BatchNorm2d (norm1): 5-223        [1, 352, 64, 64]     --                   [1, 352, 64, 64]     (recursive)
│    │    │    │    └─ReLU (relu1): 5-224               [1, 352, 64, 64]     --                   [1, 352, 64, 64]     (recursive)
│    │    │    │    └─Conv2d (conv1): 5-225             [1, 352, 64, 64]     [1, 1]               [1, 128, 64, 64]     (recursive)
│    │    │    │    └─BatchNorm2d (norm2): 5-226        [1, 128, 64, 64]     --                   [1, 128, 64, 64]     (recursive)
│    │    │    │    └─ReLU (relu2): 5-227               [1, 128, 64, 64]     --                   [1, 128, 64, 64]     (recursive)
│    │    │    │    └─Conv2d (conv2): 5-228             [1, 128, 64, 64]     [3, 3]               [1, 32, 64, 64]      (recursive)
│    │    │    └─_DenseLayer (denselayer9): 4-55        [1, 128, 64, 64]     --                   [1, 32, 64, 64]      (recursive)
│    │    │    │    └─BatchNorm2d (norm1): 5-229        [1, 384, 64, 64]     --                   [1, 384, 64, 64]     (recursive)
│    │    │    │    └─ReLU (relu1): 5-230               [1, 384, 64, 64]     --                   [1, 384, 64, 64]     (recursive)
│    │    │    │    └─Conv2d (conv1): 5-231             [1, 384, 64, 64]     [1, 1]               [1, 128, 64, 64]     (recursive)
│    │    │    │    └─BatchNorm2d (norm2): 5-232        [1, 128, 64, 64]     --                   [1, 128, 64, 64]     (recursive)
│    │    │    │    └─ReLU (relu2): 5-233               [1, 128, 64, 64]     --                   [1, 128, 64, 64]     (recursive)
│    │    │    │    └─Conv2d (conv2): 5-234             [1, 128, 64, 64]     [3, 3]               [1, 32, 64, 64]      (recursive)
│    │    │    └─_DenseLayer (denselayer10): 4-56       [1, 128, 64, 64]     --                   [1, 32, 64, 64]      (recursive)
│    │    │    │    └─BatchNorm2d (norm1): 5-235        [1, 416, 64, 64]     --                   [1, 416, 64, 64]     (recursive)
│    │    │    │    └─ReLU (relu1): 5-236               [1, 416, 64, 64]     --                   [1, 416, 64, 64]     (recursive)
│    │    │    │    └─Conv2d (conv1): 5-237             [1, 416, 64, 64]     [1, 1]               [1, 128, 64, 64]     (recursive)
│    │    │    │    └─BatchNorm2d (norm2): 5-238        [1, 128, 64, 64]     --                   [1, 128, 64, 64]     (recursive)
│    │    │    │    └─ReLU (relu2): 5-239               [1, 128, 64, 64]     --                   [1, 128, 64, 64]     (recursive)
│    │    │    │    └─Conv2d (conv2): 5-240             [1, 128, 64, 64]     [3, 3]               [1, 32, 64, 64]      (recursive)
│    │    │    └─_DenseLayer (denselayer11): 4-57       [1, 128, 64, 64]     --                   [1, 32, 64, 64]      (recursive)
│    │    │    │    └─BatchNorm2d (norm1): 5-241        [1, 448, 64, 64]     --                   [1, 448, 64, 64]     (recursive)
│    │    │    │    └─ReLU (relu1): 5-242               [1, 448, 64, 64]     --                   [1, 448, 64, 64]     (recursive)
│    │    │    │    └─Conv2d (conv1): 5-243             [1, 448, 64, 64]     [1, 1]               [1, 128, 64, 64]     (recursive)
│    │    │    │    └─BatchNorm2d (norm2): 5-244        [1, 128, 64, 64]     --                   [1, 128, 64, 64]     (recursive)
│    │    │    │    └─ReLU (relu2): 5-245               [1, 128, 64, 64]     --                   [1, 128, 64, 64]     (recursive)
│    │    │    │    └─Conv2d (conv2): 5-246             [1, 128, 64, 64]     [3, 3]               [1, 32, 64, 64]      (recursive)
│    │    │    └─_DenseLayer (denselayer12): 4-58       [1, 128, 64, 64]     --                   [1, 32, 64, 64]      (recursive)
│    │    │    │    └─BatchNorm2d (norm1): 5-247        [1, 480, 64, 64]     --                   [1, 480, 64, 64]     (recursive)
│    │    │    │    └─ReLU (relu1): 5-248               [1, 480, 64, 64]     --                   [1, 480, 64, 64]     (recursive)
│    │    │    │    └─Conv2d (conv1): 5-249             [1, 480, 64, 64]     [1, 1]               [1, 128, 64, 64]     (recursive)
│    │    │    │    └─BatchNorm2d (norm2): 5-250        [1, 128, 64, 64]     --                   [1, 128, 64, 64]     (recursive)
│    │    │    │    └─ReLU (relu2): 5-251               [1, 128, 64, 64]     --                   [1, 128, 64, 64]     (recursive)
│    │    │    │    └─Conv2d (conv2): 5-252             [1, 128, 64, 64]     [3, 3]               [1, 32, 64, 64]      (recursive)
│    │    └─_Transition (transition2): 3-24             --                   --                   --                   (recursive)
│    │    │    └─BatchNorm2d (norm): 4-59               [1, 512, 64, 64]     --                   [1, 512, 64, 64]     (recursive)
│    │    │    └─ReLU (relu): 4-60                      [1, 512, 64, 64]     --                   [1, 512, 64, 64]     (recursive)
│    │    │    └─Conv2d (conv): 4-61                    [1, 512, 64, 64]     [1, 1]               [1, 256, 64, 64]     (recursive)
│    │    │    └─AvgPool2d (pool): 4-62                 [1, 256, 64, 64]     2                    [1, 256, 32, 32]     (recursive)
│    │    └─_DenseBlock (denseblock2): 3-23             [1, 128, 64, 64]     --                   [1, 512, 64, 64]     (recursive)
│    │    │    └─_DenseLayer (denselayer1): 4-63        [1, 128, 64, 64]     --                   [1, 32, 64, 64]      (recursive)
│    │    │    │    └─BatchNorm2d (norm1): 5-253        [1, 128, 64, 64]     --                   [1, 128, 64, 64]     (recursive)
│    │    │    │    └─ReLU (relu1): 5-254               [1, 128, 64, 64]     --                   [1, 128, 64, 64]     (recursive)
│    │    │    │    └─Conv2d (conv1): 5-255             [1, 128, 64, 64]     [1, 1]               [1, 128, 64, 64]     (recursive)
│    │    │    │    └─BatchNorm2d (norm2): 5-256        [1, 128, 64, 64]     --                   [1, 128, 64, 64]     (recursive)
│    │    │    │    └─ReLU (relu2): 5-257               [1, 128, 64, 64]     --                   [1, 128, 64, 64]     (recursive)
│    │    │    │    └─Conv2d (conv2): 5-258             [1, 128, 64, 64]     [3, 3]               [1, 32, 64, 64]      (recursive)
│    │    │    └─_DenseLayer (denselayer2): 4-64        [1, 128, 64, 64]     --                   [1, 32, 64, 64]      (recursive)
│    │    │    │    └─BatchNorm2d (norm1): 5-259        [1, 160, 64, 64]     --                   [1, 160, 64, 64]     (recursive)
│    │    │    │    └─ReLU (relu1): 5-260               [1, 160, 64, 64]     --                   [1, 160, 64, 64]     (recursive)
│    │    │    │    └─Conv2d (conv1): 5-261             [1, 160, 64, 64]     [1, 1]               [1, 128, 64, 64]     (recursive)
│    │    │    │    └─BatchNorm2d (norm2): 5-262        [1, 128, 64, 64]     --                   [1, 128, 64, 64]     (recursive)
│    │    │    │    └─ReLU (relu2): 5-263               [1, 128, 64, 64]     --                   [1, 128, 64, 64]     (recursive)
│    │    │    │    └─Conv2d (conv2): 5-264             [1, 128, 64, 64]     [3, 3]               [1, 32, 64, 64]      (recursive)
│    │    │    └─_DenseLayer (denselayer3): 4-65        [1, 128, 64, 64]     --                   [1, 32, 64, 64]      (recursive)
│    │    │    │    └─BatchNorm2d (norm1): 5-265        [1, 192, 64, 64]     --                   [1, 192, 64, 64]     (recursive)
│    │    │    │    └─ReLU (relu1): 5-266               [1, 192, 64, 64]     --                   [1, 192, 64, 64]     (recursive)
│    │    │    │    └─Conv2d (conv1): 5-267             [1, 192, 64, 64]     [1, 1]               [1, 128, 64, 64]     (recursive)
│    │    │    │    └─BatchNorm2d (norm2): 5-268        [1, 128, 64, 64]     --                   [1, 128, 64, 64]     (recursive)
│    │    │    │    └─ReLU (relu2): 5-269               [1, 128, 64, 64]     --                   [1, 128, 64, 64]     (recursive)
│    │    │    │    └─Conv2d (conv2): 5-270             [1, 128, 64, 64]     [3, 3]               [1, 32, 64, 64]      (recursive)
│    │    │    └─_DenseLayer (denselayer4): 4-66        [1, 128, 64, 64]     --                   [1, 32, 64, 64]      (recursive)
│    │    │    │    └─BatchNorm2d (norm1): 5-271        [1, 224, 64, 64]     --                   [1, 224, 64, 64]     (recursive)
│    │    │    │    └─ReLU (relu1): 5-272               [1, 224, 64, 64]     --                   [1, 224, 64, 64]     (recursive)
│    │    │    │    └─Conv2d (conv1): 5-273             [1, 224, 64, 64]     [1, 1]               [1, 128, 64, 64]     (recursive)
│    │    │    │    └─BatchNorm2d (norm2): 5-274        [1, 128, 64, 64]     --                   [1, 128, 64, 64]     (recursive)
│    │    │    │    └─ReLU (relu2): 5-275               [1, 128, 64, 64]     --                   [1, 128, 64, 64]     (recursive)
│    │    │    │    └─Conv2d (conv2): 5-276             [1, 128, 64, 64]     [3, 3]               [1, 32, 64, 64]      (recursive)
│    │    │    └─_DenseLayer (denselayer5): 4-67        [1, 128, 64, 64]     --                   [1, 32, 64, 64]      (recursive)
│    │    │    │    └─BatchNorm2d (norm1): 5-277        [1, 256, 64, 64]     --                   [1, 256, 64, 64]     (recursive)
│    │    │    │    └─ReLU (relu1): 5-278               [1, 256, 64, 64]     --                   [1, 256, 64, 64]     (recursive)
│    │    │    │    └─Conv2d (conv1): 5-279             [1, 256, 64, 64]     [1, 1]               [1, 128, 64, 64]     (recursive)
│    │    │    │    └─BatchNorm2d (norm2): 5-280        [1, 128, 64, 64]     --                   [1, 128, 64, 64]     (recursive)
│    │    │    │    └─ReLU (relu2): 5-281               [1, 128, 64, 64]     --                   [1, 128, 64, 64]     (recursive)
│    │    │    │    └─Conv2d (conv2): 5-282             [1, 128, 64, 64]     [3, 3]               [1, 32, 64, 64]      (recursive)
│    │    │    └─_DenseLayer (denselayer6): 4-68        [1, 128, 64, 64]     --                   [1, 32, 64, 64]      (recursive)
│    │    │    │    └─BatchNorm2d (norm1): 5-283        [1, 288, 64, 64]     --                   [1, 288, 64, 64]     (recursive)
│    │    │    │    └─ReLU (relu1): 5-284               [1, 288, 64, 64]     --                   [1, 288, 64, 64]     (recursive)
│    │    │    │    └─Conv2d (conv1): 5-285             [1, 288, 64, 64]     [1, 1]               [1, 128, 64, 64]     (recursive)
│    │    │    │    └─BatchNorm2d (norm2): 5-286        [1, 128, 64, 64]     --                   [1, 128, 64, 64]     (recursive)
│    │    │    │    └─ReLU (relu2): 5-287               [1, 128, 64, 64]     --                   [1, 128, 64, 64]     (recursive)
│    │    │    │    └─Conv2d (conv2): 5-288             [1, 128, 64, 64]     [3, 3]               [1, 32, 64, 64]      (recursive)
│    │    │    └─_DenseLayer (denselayer7): 4-69        [1, 128, 64, 64]     --                   [1, 32, 64, 64]      (recursive)
│    │    │    │    └─BatchNorm2d (norm1): 5-289        [1, 320, 64, 64]     --                   [1, 320, 64, 64]     (recursive)
│    │    │    │    └─ReLU (relu1): 5-290               [1, 320, 64, 64]     --                   [1, 320, 64, 64]     (recursive)
│    │    │    │    └─Conv2d (conv1): 5-291             [1, 320, 64, 64]     [1, 1]               [1, 128, 64, 64]     (recursive)
│    │    │    │    └─BatchNorm2d (norm2): 5-292        [1, 128, 64, 64]     --                   [1, 128, 64, 64]     (recursive)
│    │    │    │    └─ReLU (relu2): 5-293               [1, 128, 64, 64]     --                   [1, 128, 64, 64]     (recursive)
│    │    │    │    └─Conv2d (conv2): 5-294             [1, 128, 64, 64]     [3, 3]               [1, 32, 64, 64]      (recursive)
│    │    │    └─_DenseLayer (denselayer8): 4-70        [1, 128, 64, 64]     --                   [1, 32, 64, 64]      (recursive)
│    │    │    │    └─BatchNorm2d (norm1): 5-295        [1, 352, 64, 64]     --                   [1, 352, 64, 64]     (recursive)
│    │    │    │    └─ReLU (relu1): 5-296               [1, 352, 64, 64]     --                   [1, 352, 64, 64]     (recursive)
│    │    │    │    └─Conv2d (conv1): 5-297             [1, 352, 64, 64]     [1, 1]               [1, 128, 64, 64]     (recursive)
│    │    │    │    └─BatchNorm2d (norm2): 5-298        [1, 128, 64, 64]     --                   [1, 128, 64, 64]     (recursive)
│    │    │    │    └─ReLU (relu2): 5-299               [1, 128, 64, 64]     --                   [1, 128, 64, 64]     (recursive)
│    │    │    │    └─Conv2d (conv2): 5-300             [1, 128, 64, 64]     [3, 3]               [1, 32, 64, 64]      (recursive)
│    │    │    └─_DenseLayer (denselayer9): 4-71        [1, 128, 64, 64]     --                   [1, 32, 64, 64]      (recursive)
│    │    │    │    └─BatchNorm2d (norm1): 5-301        [1, 384, 64, 64]     --                   [1, 384, 64, 64]     (recursive)
│    │    │    │    └─ReLU (relu1): 5-302               [1, 384, 64, 64]     --                   [1, 384, 64, 64]     (recursive)
│    │    │    │    └─Conv2d (conv1): 5-303             [1, 384, 64, 64]     [1, 1]               [1, 128, 64, 64]     (recursive)
│    │    │    │    └─BatchNorm2d (norm2): 5-304        [1, 128, 64, 64]     --                   [1, 128, 64, 64]     (recursive)
│    │    │    │    └─ReLU (relu2): 5-305               [1, 128, 64, 64]     --                   [1, 128, 64, 64]     (recursive)
│    │    │    │    └─Conv2d (conv2): 5-306             [1, 128, 64, 64]     [3, 3]               [1, 32, 64, 64]      (recursive)
│    │    │    └─_DenseLayer (denselayer10): 4-72       [1, 128, 64, 64]     --                   [1, 32, 64, 64]      (recursive)
│    │    │    │    └─BatchNorm2d (norm1): 5-307        [1, 416, 64, 64]     --                   [1, 416, 64, 64]     (recursive)
│    │    │    │    └─ReLU (relu1): 5-308               [1, 416, 64, 64]     --                   [1, 416, 64, 64]     (recursive)
│    │    │    │    └─Conv2d (conv1): 5-309             [1, 416, 64, 64]     [1, 1]               [1, 128, 64, 64]     (recursive)
│    │    │    │    └─BatchNorm2d (norm2): 5-310        [1, 128, 64, 64]     --                   [1, 128, 64, 64]     (recursive)
│    │    │    │    └─ReLU (relu2): 5-311               [1, 128, 64, 64]     --                   [1, 128, 64, 64]     (recursive)
│    │    │    │    └─Conv2d (conv2): 5-312             [1, 128, 64, 64]     [3, 3]               [1, 32, 64, 64]      (recursive)
│    │    │    └─_DenseLayer (denselayer11): 4-73       [1, 128, 64, 64]     --                   [1, 32, 64, 64]      (recursive)
│    │    │    │    └─BatchNorm2d (norm1): 5-313        [1, 448, 64, 64]     --                   [1, 448, 64, 64]     (recursive)
│    │    │    │    └─ReLU (relu1): 5-314               [1, 448, 64, 64]     --                   [1, 448, 64, 64]     (recursive)
│    │    │    │    └─Conv2d (conv1): 5-315             [1, 448, 64, 64]     [1, 1]               [1, 128, 64, 64]     (recursive)
│    │    │    │    └─BatchNorm2d (norm2): 5-316        [1, 128, 64, 64]     --                   [1, 128, 64, 64]     (recursive)
│    │    │    │    └─ReLU (relu2): 5-317               [1, 128, 64, 64]     --                   [1, 128, 64, 64]     (recursive)
│    │    │    │    └─Conv2d (conv2): 5-318             [1, 128, 64, 64]     [3, 3]               [1, 32, 64, 64]      (recursive)
│    │    │    └─_DenseLayer (denselayer12): 4-74       [1, 128, 64, 64]     --                   [1, 32, 64, 64]      (recursive)
│    │    │    │    └─BatchNorm2d (norm1): 5-319        [1, 480, 64, 64]     --                   [1, 480, 64, 64]     (recursive)
│    │    │    │    └─ReLU (relu1): 5-320               [1, 480, 64, 64]     --                   [1, 480, 64, 64]     (recursive)
│    │    │    │    └─Conv2d (conv1): 5-321             [1, 480, 64, 64]     [1, 1]               [1, 128, 64, 64]     (recursive)
│    │    │    │    └─BatchNorm2d (norm2): 5-322        [1, 128, 64, 64]     --                   [1, 128, 64, 64]     (recursive)
│    │    │    │    └─ReLU (relu2): 5-323               [1, 128, 64, 64]     --                   [1, 128, 64, 64]     (recursive)
│    │    │    │    └─Conv2d (conv2): 5-324             [1, 128, 64, 64]     [3, 3]               [1, 32, 64, 64]      (recursive)
│    │    └─_Transition (transition2): 3-24             --                   --                   --                   (recursive)
│    │    │    └─BatchNorm2d (norm): 4-75               [1, 512, 64, 64]     --                   [1, 512, 64, 64]     (recursive)
│    │    │    └─ReLU (relu): 4-76                      [1, 512, 64, 64]     --                   [1, 512, 64, 64]     (recursive)
│    │    │    └─Conv2d (conv): 4-77                    [1, 512, 64, 64]     [1, 1]               [1, 256, 64, 64]     (recursive)
│    │    │    └─AvgPool2d (pool): 4-78                 [1, 256, 64, 64]     2                    [1, 256, 32, 32]     (recursive)
│    │    └─_DenseBlock (denseblock3): 3-25             [1, 256, 32, 32]     --                   [1, 1792, 32, 32]         --
│    │    │    └─_DenseLayer (denselayer1): 4-79        [1, 256, 32, 32]     --                   [1, 32, 32, 32]           --
│    │    │    │    └─BatchNorm2d (norm1): 5-325        [1, 256, 32, 32]     --                   [1, 256, 32, 32]       0.00%
│    │    │    │    └─ReLU (relu1): 5-326               [1, 256, 32, 32]     --                   [1, 256, 32, 32]          --
│    │    │    │    └─Conv2d (conv1): 5-327             [1, 256, 32, 32]     [1, 1]               [1, 128, 32, 32]       0.14%
│    │    │    │    └─BatchNorm2d (norm2): 5-328        [1, 128, 32, 32]     --                   [1, 128, 32, 32]       0.00%
│    │    │    │    └─ReLU (relu2): 5-329               [1, 128, 32, 32]     --                   [1, 128, 32, 32]          --
│    │    │    │    └─Conv2d (conv2): 5-330             [1, 128, 32, 32]     [3, 3]               [1, 32, 32, 32]        0.15%
│    │    │    └─_DenseLayer (denselayer2): 4-80        [1, 256, 32, 32]     --                   [1, 32, 32, 32]           --
│    │    │    │    └─BatchNorm2d (norm1): 5-331        [1, 288, 32, 32]     --                   [1, 288, 32, 32]       0.00%
│    │    │    │    └─ReLU (relu1): 5-332               [1, 288, 32, 32]     --                   [1, 288, 32, 32]          --
│    │    │    │    └─Conv2d (conv1): 5-333             [1, 288, 32, 32]     [1, 1]               [1, 128, 32, 32]       0.15%
│    │    │    │    └─BatchNorm2d (norm2): 5-334        [1, 128, 32, 32]     --                   [1, 128, 32, 32]       0.00%
│    │    │    │    └─ReLU (relu2): 5-335               [1, 128, 32, 32]     --                   [1, 128, 32, 32]          --
│    │    │    │    └─Conv2d (conv2): 5-336             [1, 128, 32, 32]     [3, 3]               [1, 32, 32, 32]        0.15%
│    │    │    └─_DenseLayer (denselayer3): 4-81        [1, 256, 32, 32]     --                   [1, 32, 32, 32]           --
│    │    │    │    └─BatchNorm2d (norm1): 5-337        [1, 320, 32, 32]     --                   [1, 320, 32, 32]       0.00%
│    │    │    │    └─ReLU (relu1): 5-338               [1, 320, 32, 32]     --                   [1, 320, 32, 32]          --
│    │    │    │    └─Conv2d (conv1): 5-339             [1, 320, 32, 32]     [1, 1]               [1, 128, 32, 32]       0.17%
│    │    │    │    └─BatchNorm2d (norm2): 5-340        [1, 128, 32, 32]     --                   [1, 128, 32, 32]       0.00%
│    │    │    │    └─ReLU (relu2): 5-341               [1, 128, 32, 32]     --                   [1, 128, 32, 32]          --
│    │    │    │    └─Conv2d (conv2): 5-342             [1, 128, 32, 32]     [3, 3]               [1, 32, 32, 32]        0.15%
│    │    │    └─_DenseLayer (denselayer4): 4-82        [1, 256, 32, 32]     --                   [1, 32, 32, 32]           --
│    │    │    │    └─BatchNorm2d (norm1): 5-343        [1, 352, 32, 32]     --                   [1, 352, 32, 32]       0.00%
│    │    │    │    └─ReLU (relu1): 5-344               [1, 352, 32, 32]     --                   [1, 352, 32, 32]          --
│    │    │    │    └─Conv2d (conv1): 5-345             [1, 352, 32, 32]     [1, 1]               [1, 128, 32, 32]       0.19%
│    │    │    │    └─BatchNorm2d (norm2): 5-346        [1, 128, 32, 32]     --                   [1, 128, 32, 32]       0.00%
│    │    │    │    └─ReLU (relu2): 5-347               [1, 128, 32, 32]     --                   [1, 128, 32, 32]          --
│    │    │    │    └─Conv2d (conv2): 5-348             [1, 128, 32, 32]     [3, 3]               [1, 32, 32, 32]        0.15%
│    │    │    └─_DenseLayer (denselayer5): 4-83        [1, 256, 32, 32]     --                   [1, 32, 32, 32]           --
│    │    │    │    └─BatchNorm2d (norm1): 5-349        [1, 384, 32, 32]     --                   [1, 384, 32, 32]       0.00%
│    │    │    │    └─ReLU (relu1): 5-350               [1, 384, 32, 32]     --                   [1, 384, 32, 32]          --
│    │    │    │    └─Conv2d (conv1): 5-351             [1, 384, 32, 32]     [1, 1]               [1, 128, 32, 32]       0.20%
│    │    │    │    └─BatchNorm2d (norm2): 5-352        [1, 128, 32, 32]     --                   [1, 128, 32, 32]       0.00%
│    │    │    │    └─ReLU (relu2): 5-353               [1, 128, 32, 32]     --                   [1, 128, 32, 32]          --
│    │    │    │    └─Conv2d (conv2): 5-354             [1, 128, 32, 32]     [3, 3]               [1, 32, 32, 32]        0.15%
│    │    │    └─_DenseLayer (denselayer6): 4-84        [1, 256, 32, 32]     --                   [1, 32, 32, 32]           --
│    │    │    │    └─BatchNorm2d (norm1): 5-355        [1, 416, 32, 32]     --                   [1, 416, 32, 32]       0.00%
│    │    │    │    └─ReLU (relu1): 5-356               [1, 416, 32, 32]     --                   [1, 416, 32, 32]          --
│    │    │    │    └─Conv2d (conv1): 5-357             [1, 416, 32, 32]     [1, 1]               [1, 128, 32, 32]       0.22%
│    │    │    │    └─BatchNorm2d (norm2): 5-358        [1, 128, 32, 32]     --                   [1, 128, 32, 32]       0.00%
│    │    │    │    └─ReLU (relu2): 5-359               [1, 128, 32, 32]     --                   [1, 128, 32, 32]          --
│    │    │    │    └─Conv2d (conv2): 5-360             [1, 128, 32, 32]     [3, 3]               [1, 32, 32, 32]        0.15%
│    │    │    └─_DenseLayer (denselayer7): 4-85        [1, 256, 32, 32]     --                   [1, 32, 32, 32]           --
│    │    │    │    └─BatchNorm2d (norm1): 5-361        [1, 448, 32, 32]     --                   [1, 448, 32, 32]       0.00%
│    │    │    │    └─ReLU (relu1): 5-362               [1, 448, 32, 32]     --                   [1, 448, 32, 32]          --
│    │    │    │    └─Conv2d (conv1): 5-363             [1, 448, 32, 32]     [1, 1]               [1, 128, 32, 32]       0.24%
│    │    │    │    └─BatchNorm2d (norm2): 5-364        [1, 128, 32, 32]     --                   [1, 128, 32, 32]       0.00%
│    │    │    │    └─ReLU (relu2): 5-365               [1, 128, 32, 32]     --                   [1, 128, 32, 32]          --
│    │    │    │    └─Conv2d (conv2): 5-366             [1, 128, 32, 32]     [3, 3]               [1, 32, 32, 32]        0.15%
│    │    │    └─_DenseLayer (denselayer8): 4-86        [1, 256, 32, 32]     --                   [1, 32, 32, 32]           --
│    │    │    │    └─BatchNorm2d (norm1): 5-367        [1, 480, 32, 32]     --                   [1, 480, 32, 32]       0.00%
│    │    │    │    └─ReLU (relu1): 5-368               [1, 480, 32, 32]     --                   [1, 480, 32, 32]          --
│    │    │    │    └─Conv2d (conv1): 5-369             [1, 480, 32, 32]     [1, 1]               [1, 128, 32, 32]       0.25%
│    │    │    │    └─BatchNorm2d (norm2): 5-370        [1, 128, 32, 32]     --                   [1, 128, 32, 32]       0.00%
│    │    │    │    └─ReLU (relu2): 5-371               [1, 128, 32, 32]     --                   [1, 128, 32, 32]          --
│    │    │    │    └─Conv2d (conv2): 5-372             [1, 128, 32, 32]     [3, 3]               [1, 32, 32, 32]        0.15%
│    │    │    └─_DenseLayer (denselayer9): 4-87        [1, 256, 32, 32]     --                   [1, 32, 32, 32]           --
│    │    │    │    └─BatchNorm2d (norm1): 5-373        [1, 512, 32, 32]     --                   [1, 512, 32, 32]       0.00%
│    │    │    │    └─ReLU (relu1): 5-374               [1, 512, 32, 32]     --                   [1, 512, 32, 32]          --
│    │    │    │    └─Conv2d (conv1): 5-375             [1, 512, 32, 32]     [1, 1]               [1, 128, 32, 32]       0.27%
│    │    │    │    └─BatchNorm2d (norm2): 5-376        [1, 128, 32, 32]     --                   [1, 128, 32, 32]       0.00%
│    │    │    │    └─ReLU (relu2): 5-377               [1, 128, 32, 32]     --                   [1, 128, 32, 32]          --
│    │    │    │    └─Conv2d (conv2): 5-378             [1, 128, 32, 32]     [3, 3]               [1, 32, 32, 32]        0.15%
│    │    │    └─_DenseLayer (denselayer10): 4-88       [1, 256, 32, 32]     --                   [1, 32, 32, 32]           --
│    │    │    │    └─BatchNorm2d (norm1): 5-379        [1, 544, 32, 32]     --                   [1, 544, 32, 32]       0.00%
│    │    │    │    └─ReLU (relu1): 5-380               [1, 544, 32, 32]     --                   [1, 544, 32, 32]          --
│    │    │    │    └─Conv2d (conv1): 5-381             [1, 544, 32, 32]     [1, 1]               [1, 128, 32, 32]       0.29%
│    │    │    │    └─BatchNorm2d (norm2): 5-382        [1, 128, 32, 32]     --                   [1, 128, 32, 32]       0.00%
│    │    │    │    └─ReLU (relu2): 5-383               [1, 128, 32, 32]     --                   [1, 128, 32, 32]          --
│    │    │    │    └─Conv2d (conv2): 5-384             [1, 128, 32, 32]     [3, 3]               [1, 32, 32, 32]        0.15%
│    │    │    └─_DenseLayer (denselayer11): 4-89       [1, 256, 32, 32]     --                   [1, 32, 32, 32]           --
│    │    │    │    └─BatchNorm2d (norm1): 5-385        [1, 576, 32, 32]     --                   [1, 576, 32, 32]       0.00%
│    │    │    │    └─ReLU (relu1): 5-386               [1, 576, 32, 32]     --                   [1, 576, 32, 32]          --
│    │    │    │    └─Conv2d (conv1): 5-387             [1, 576, 32, 32]     [1, 1]               [1, 128, 32, 32]       0.30%
│    │    │    │    └─BatchNorm2d (norm2): 5-388        [1, 128, 32, 32]     --                   [1, 128, 32, 32]       0.00%
│    │    │    │    └─ReLU (relu2): 5-389               [1, 128, 32, 32]     --                   [1, 128, 32, 32]          --
│    │    │    │    └─Conv2d (conv2): 5-390             [1, 128, 32, 32]     [3, 3]               [1, 32, 32, 32]        0.15%
│    │    │    └─_DenseLayer (denselayer12): 4-90       [1, 256, 32, 32]     --                   [1, 32, 32, 32]           --
│    │    │    │    └─BatchNorm2d (norm1): 5-391        [1, 608, 32, 32]     --                   [1, 608, 32, 32]       0.01%
│    │    │    │    └─ReLU (relu1): 5-392               [1, 608, 32, 32]     --                   [1, 608, 32, 32]          --
│    │    │    │    └─Conv2d (conv1): 5-393             [1, 608, 32, 32]     [1, 1]               [1, 128, 32, 32]       0.32%
│    │    │    │    └─BatchNorm2d (norm2): 5-394        [1, 128, 32, 32]     --                   [1, 128, 32, 32]       0.00%
│    │    │    │    └─ReLU (relu2): 5-395               [1, 128, 32, 32]     --                   [1, 128, 32, 32]          --
│    │    │    │    └─Conv2d (conv2): 5-396             [1, 128, 32, 32]     [3, 3]               [1, 32, 32, 32]        0.15%
│    │    │    └─_DenseLayer (denselayer13): 4-91       [1, 256, 32, 32]     --                   [1, 32, 32, 32]           --
│    │    │    │    └─BatchNorm2d (norm1): 5-397        [1, 640, 32, 32]     --                   [1, 640, 32, 32]       0.01%
│    │    │    │    └─ReLU (relu1): 5-398               [1, 640, 32, 32]     --                   [1, 640, 32, 32]          --
│    │    │    │    └─Conv2d (conv1): 5-399             [1, 640, 32, 32]     [1, 1]               [1, 128, 32, 32]       0.34%
│    │    │    │    └─BatchNorm2d (norm2): 5-400        [1, 128, 32, 32]     --                   [1, 128, 32, 32]       0.00%
│    │    │    │    └─ReLU (relu2): 5-401               [1, 128, 32, 32]     --                   [1, 128, 32, 32]          --
│    │    │    │    └─Conv2d (conv2): 5-402             [1, 128, 32, 32]     [3, 3]               [1, 32, 32, 32]        0.15%
│    │    │    └─_DenseLayer (denselayer14): 4-92       [1, 256, 32, 32]     --                   [1, 32, 32, 32]           --
│    │    │    │    └─BatchNorm2d (norm1): 5-403        [1, 672, 32, 32]     --                   [1, 672, 32, 32]       0.01%
│    │    │    │    └─ReLU (relu1): 5-404               [1, 672, 32, 32]     --                   [1, 672, 32, 32]          --
│    │    │    │    └─Conv2d (conv1): 5-405             [1, 672, 32, 32]     [1, 1]               [1, 128, 32, 32]       0.36%
│    │    │    │    └─BatchNorm2d (norm2): 5-406        [1, 128, 32, 32]     --                   [1, 128, 32, 32]       0.00%
│    │    │    │    └─ReLU (relu2): 5-407               [1, 128, 32, 32]     --                   [1, 128, 32, 32]          --
│    │    │    │    └─Conv2d (conv2): 5-408             [1, 128, 32, 32]     [3, 3]               [1, 32, 32, 32]        0.15%
│    │    │    └─_DenseLayer (denselayer15): 4-93       [1, 256, 32, 32]     --                   [1, 32, 32, 32]           --
│    │    │    │    └─BatchNorm2d (norm1): 5-409        [1, 704, 32, 32]     --                   [1, 704, 32, 32]       0.01%
│    │    │    │    └─ReLU (relu1): 5-410               [1, 704, 32, 32]     --                   [1, 704, 32, 32]          --
│    │    │    │    └─Conv2d (conv1): 5-411             [1, 704, 32, 32]     [1, 1]               [1, 128, 32, 32]       0.37%
│    │    │    │    └─BatchNorm2d (norm2): 5-412        [1, 128, 32, 32]     --                   [1, 128, 32, 32]       0.00%
│    │    │    │    └─ReLU (relu2): 5-413               [1, 128, 32, 32]     --                   [1, 128, 32, 32]          --
│    │    │    │    └─Conv2d (conv2): 5-414             [1, 128, 32, 32]     [3, 3]               [1, 32, 32, 32]        0.15%
│    │    │    └─_DenseLayer (denselayer16): 4-94       [1, 256, 32, 32]     --                   [1, 32, 32, 32]           --
│    │    │    │    └─BatchNorm2d (norm1): 5-415        [1, 736, 32, 32]     --                   [1, 736, 32, 32]       0.01%
│    │    │    │    └─ReLU (relu1): 5-416               [1, 736, 32, 32]     --                   [1, 736, 32, 32]          --
│    │    │    │    └─Conv2d (conv1): 5-417             [1, 736, 32, 32]     [1, 1]               [1, 128, 32, 32]       0.39%
│    │    │    │    └─BatchNorm2d (norm2): 5-418        [1, 128, 32, 32]     --                   [1, 128, 32, 32]       0.00%
│    │    │    │    └─ReLU (relu2): 5-419               [1, 128, 32, 32]     --                   [1, 128, 32, 32]          --
│    │    │    │    └─Conv2d (conv2): 5-420             [1, 128, 32, 32]     [3, 3]               [1, 32, 32, 32]        0.15%
│    │    │    └─_DenseLayer (denselayer17): 4-95       [1, 256, 32, 32]     --                   [1, 32, 32, 32]           --
│    │    │    │    └─BatchNorm2d (norm1): 5-421        [1, 768, 32, 32]     --                   [1, 768, 32, 32]       0.01%
│    │    │    │    └─ReLU (relu1): 5-422               [1, 768, 32, 32]     --                   [1, 768, 32, 32]          --
│    │    │    │    └─Conv2d (conv1): 5-423             [1, 768, 32, 32]     [1, 1]               [1, 128, 32, 32]       0.41%
│    │    │    │    └─BatchNorm2d (norm2): 5-424        [1, 128, 32, 32]     --                   [1, 128, 32, 32]       0.00%
│    │    │    │    └─ReLU (relu2): 5-425               [1, 128, 32, 32]     --                   [1, 128, 32, 32]          --
│    │    │    │    └─Conv2d (conv2): 5-426             [1, 128, 32, 32]     [3, 3]               [1, 32, 32, 32]        0.15%
│    │    │    └─_DenseLayer (denselayer18): 4-96       [1, 256, 32, 32]     --                   [1, 32, 32, 32]           --
│    │    │    │    └─BatchNorm2d (norm1): 5-427        [1, 800, 32, 32]     --                   [1, 800, 32, 32]       0.01%
│    │    │    │    └─ReLU (relu1): 5-428               [1, 800, 32, 32]     --                   [1, 800, 32, 32]          --
│    │    │    │    └─Conv2d (conv1): 5-429             [1, 800, 32, 32]     [1, 1]               [1, 128, 32, 32]       0.42%
│    │    │    │    └─BatchNorm2d (norm2): 5-430        [1, 128, 32, 32]     --                   [1, 128, 32, 32]       0.00%
│    │    │    │    └─ReLU (relu2): 5-431               [1, 128, 32, 32]     --                   [1, 128, 32, 32]          --
│    │    │    │    └─Conv2d (conv2): 5-432             [1, 128, 32, 32]     [3, 3]               [1, 32, 32, 32]        0.15%
│    │    │    └─_DenseLayer (denselayer19): 4-97       [1, 256, 32, 32]     --                   [1, 32, 32, 32]           --
│    │    │    │    └─BatchNorm2d (norm1): 5-433        [1, 832, 32, 32]     --                   [1, 832, 32, 32]       0.01%
│    │    │    │    └─ReLU (relu1): 5-434               [1, 832, 32, 32]     --                   [1, 832, 32, 32]          --
│    │    │    │    └─Conv2d (conv1): 5-435             [1, 832, 32, 32]     [1, 1]               [1, 128, 32, 32]       0.44%
│    │    │    │    └─BatchNorm2d (norm2): 5-436        [1, 128, 32, 32]     --                   [1, 128, 32, 32]       0.00%
│    │    │    │    └─ReLU (relu2): 5-437               [1, 128, 32, 32]     --                   [1, 128, 32, 32]          --
│    │    │    │    └─Conv2d (conv2): 5-438             [1, 128, 32, 32]     [3, 3]               [1, 32, 32, 32]        0.15%
│    │    │    └─_DenseLayer (denselayer20): 4-98       [1, 256, 32, 32]     --                   [1, 32, 32, 32]           --
│    │    │    │    └─BatchNorm2d (norm1): 5-439        [1, 864, 32, 32]     --                   [1, 864, 32, 32]       0.01%
│    │    │    │    └─ReLU (relu1): 5-440               [1, 864, 32, 32]     --                   [1, 864, 32, 32]          --
│    │    │    │    └─Conv2d (conv1): 5-441             [1, 864, 32, 32]     [1, 1]               [1, 128, 32, 32]       0.46%
│    │    │    │    └─BatchNorm2d (norm2): 5-442        [1, 128, 32, 32]     --                   [1, 128, 32, 32]       0.00%
│    │    │    │    └─ReLU (relu2): 5-443               [1, 128, 32, 32]     --                   [1, 128, 32, 32]          --
│    │    │    │    └─Conv2d (conv2): 5-444             [1, 128, 32, 32]     [3, 3]               [1, 32, 32, 32]        0.15%
│    │    │    └─_DenseLayer (denselayer21): 4-99       [1, 256, 32, 32]     --                   [1, 32, 32, 32]           --
│    │    │    │    └─BatchNorm2d (norm1): 5-445        [1, 896, 32, 32]     --                   [1, 896, 32, 32]       0.01%
│    │    │    │    └─ReLU (relu1): 5-446               [1, 896, 32, 32]     --                   [1, 896, 32, 32]          --
│    │    │    │    └─Conv2d (conv1): 5-447             [1, 896, 32, 32]     [1, 1]               [1, 128, 32, 32]       0.47%
│    │    │    │    └─BatchNorm2d (norm2): 5-448        [1, 128, 32, 32]     --                   [1, 128, 32, 32]       0.00%
│    │    │    │    └─ReLU (relu2): 5-449               [1, 128, 32, 32]     --                   [1, 128, 32, 32]          --
│    │    │    │    └─Conv2d (conv2): 5-450             [1, 128, 32, 32]     [3, 3]               [1, 32, 32, 32]        0.15%
│    │    │    └─_DenseLayer (denselayer22): 4-100      [1, 256, 32, 32]     --                   [1, 32, 32, 32]           --
│    │    │    │    └─BatchNorm2d (norm1): 5-451        [1, 928, 32, 32]     --                   [1, 928, 32, 32]       0.01%
│    │    │    │    └─ReLU (relu1): 5-452               [1, 928, 32, 32]     --                   [1, 928, 32, 32]          --
│    │    │    │    └─Conv2d (conv1): 5-453             [1, 928, 32, 32]     [1, 1]               [1, 128, 32, 32]       0.49%
│    │    │    │    └─BatchNorm2d (norm2): 5-454        [1, 128, 32, 32]     --                   [1, 128, 32, 32]       0.00%
│    │    │    │    └─ReLU (relu2): 5-455               [1, 128, 32, 32]     --                   [1, 128, 32, 32]          --
│    │    │    │    └─Conv2d (conv2): 5-456             [1, 128, 32, 32]     [3, 3]               [1, 32, 32, 32]        0.15%
│    │    │    └─_DenseLayer (denselayer23): 4-101      [1, 256, 32, 32]     --                   [1, 32, 32, 32]           --
│    │    │    │    └─BatchNorm2d (norm1): 5-457        [1, 960, 32, 32]     --                   [1, 960, 32, 32]       0.01%
│    │    │    │    └─ReLU (relu1): 5-458               [1, 960, 32, 32]     --                   [1, 960, 32, 32]          --
│    │    │    │    └─Conv2d (conv1): 5-459             [1, 960, 32, 32]     [1, 1]               [1, 128, 32, 32]       0.51%
│    │    │    │    └─BatchNorm2d (norm2): 5-460        [1, 128, 32, 32]     --                   [1, 128, 32, 32]       0.00%
│    │    │    │    └─ReLU (relu2): 5-461               [1, 128, 32, 32]     --                   [1, 128, 32, 32]          --
│    │    │    │    └─Conv2d (conv2): 5-462             [1, 128, 32, 32]     [3, 3]               [1, 32, 32, 32]        0.15%
│    │    │    └─_DenseLayer (denselayer24): 4-102      [1, 256, 32, 32]     --                   [1, 32, 32, 32]           --
│    │    │    │    └─BatchNorm2d (norm1): 5-463        [1, 992, 32, 32]     --                   [1, 992, 32, 32]       0.01%
│    │    │    │    └─ReLU (relu1): 5-464               [1, 992, 32, 32]     --                   [1, 992, 32, 32]          --
│    │    │    │    └─Conv2d (conv1): 5-465             [1, 992, 32, 32]     [1, 1]               [1, 128, 32, 32]       0.53%
│    │    │    │    └─BatchNorm2d (norm2): 5-466        [1, 128, 32, 32]     --                   [1, 128, 32, 32]       0.00%
│    │    │    │    └─ReLU (relu2): 5-467               [1, 128, 32, 32]     --                   [1, 128, 32, 32]          --
│    │    │    │    └─Conv2d (conv2): 5-468             [1, 128, 32, 32]     [3, 3]               [1, 32, 32, 32]        0.15%
│    │    │    └─_DenseLayer (denselayer25): 4-103      [1, 256, 32, 32]     --                   [1, 32, 32, 32]           --
│    │    │    │    └─BatchNorm2d (norm1): 5-469        [1, 1024, 32, 32]    --                   [1, 1024, 32, 32]      0.01%
│    │    │    │    └─ReLU (relu1): 5-470               [1, 1024, 32, 32]    --                   [1, 1024, 32, 32]         --
│    │    │    │    └─Conv2d (conv1): 5-471             [1, 1024, 32, 32]    [1, 1]               [1, 128, 32, 32]       0.54%
│    │    │    │    └─BatchNorm2d (norm2): 5-472        [1, 128, 32, 32]     --                   [1, 128, 32, 32]       0.00%
│    │    │    │    └─ReLU (relu2): 5-473               [1, 128, 32, 32]     --                   [1, 128, 32, 32]          --
│    │    │    │    └─Conv2d (conv2): 5-474             [1, 128, 32, 32]     [3, 3]               [1, 32, 32, 32]        0.15%
│    │    │    └─_DenseLayer (denselayer26): 4-104      [1, 256, 32, 32]     --                   [1, 32, 32, 32]           --
│    │    │    │    └─BatchNorm2d (norm1): 5-475        [1, 1056, 32, 32]    --                   [1, 1056, 32, 32]      0.01%
│    │    │    │    └─ReLU (relu1): 5-476               [1, 1056, 32, 32]    --                   [1, 1056, 32, 32]         --
│    │    │    │    └─Conv2d (conv1): 5-477             [1, 1056, 32, 32]    [1, 1]               [1, 128, 32, 32]       0.56%
│    │    │    │    └─BatchNorm2d (norm2): 5-478        [1, 128, 32, 32]     --                   [1, 128, 32, 32]       0.00%
│    │    │    │    └─ReLU (relu2): 5-479               [1, 128, 32, 32]     --                   [1, 128, 32, 32]          --
│    │    │    │    └─Conv2d (conv2): 5-480             [1, 128, 32, 32]     [3, 3]               [1, 32, 32, 32]        0.15%
│    │    │    └─_DenseLayer (denselayer27): 4-105      [1, 256, 32, 32]     --                   [1, 32, 32, 32]           --
│    │    │    │    └─BatchNorm2d (norm1): 5-481        [1, 1088, 32, 32]    --                   [1, 1088, 32, 32]      0.01%
│    │    │    │    └─ReLU (relu1): 5-482               [1, 1088, 32, 32]    --                   [1, 1088, 32, 32]         --
│    │    │    │    └─Conv2d (conv1): 5-483             [1, 1088, 32, 32]    [1, 1]               [1, 128, 32, 32]       0.58%
│    │    │    │    └─BatchNorm2d (norm2): 5-484        [1, 128, 32, 32]     --                   [1, 128, 32, 32]       0.00%
│    │    │    │    └─ReLU (relu2): 5-485               [1, 128, 32, 32]     --                   [1, 128, 32, 32]          --
│    │    │    │    └─Conv2d (conv2): 5-486             [1, 128, 32, 32]     [3, 3]               [1, 32, 32, 32]        0.15%
│    │    │    └─_DenseLayer (denselayer28): 4-106      [1, 256, 32, 32]     --                   [1, 32, 32, 32]           --
│    │    │    │    └─BatchNorm2d (norm1): 5-487        [1, 1120, 32, 32]    --                   [1, 1120, 32, 32]      0.01%
│    │    │    │    └─ReLU (relu1): 5-488               [1, 1120, 32, 32]    --                   [1, 1120, 32, 32]         --
│    │    │    │    └─Conv2d (conv1): 5-489             [1, 1120, 32, 32]    [1, 1]               [1, 128, 32, 32]       0.59%
│    │    │    │    └─BatchNorm2d (norm2): 5-490        [1, 128, 32, 32]     --                   [1, 128, 32, 32]       0.00%
│    │    │    │    └─ReLU (relu2): 5-491               [1, 128, 32, 32]     --                   [1, 128, 32, 32]          --
│    │    │    │    └─Conv2d (conv2): 5-492             [1, 128, 32, 32]     [3, 3]               [1, 32, 32, 32]        0.15%
│    │    │    └─_DenseLayer (denselayer29): 4-107      [1, 256, 32, 32]     --                   [1, 32, 32, 32]           --
│    │    │    │    └─BatchNorm2d (norm1): 5-493        [1, 1152, 32, 32]    --                   [1, 1152, 32, 32]      0.01%
│    │    │    │    └─ReLU (relu1): 5-494               [1, 1152, 32, 32]    --                   [1, 1152, 32, 32]         --
│    │    │    │    └─Conv2d (conv1): 5-495             [1, 1152, 32, 32]    [1, 1]               [1, 128, 32, 32]       0.61%
│    │    │    │    └─BatchNorm2d (norm2): 5-496        [1, 128, 32, 32]     --                   [1, 128, 32, 32]       0.00%
│    │    │    │    └─ReLU (relu2): 5-497               [1, 128, 32, 32]     --                   [1, 128, 32, 32]          --
│    │    │    │    └─Conv2d (conv2): 5-498             [1, 128, 32, 32]     [3, 3]               [1, 32, 32, 32]        0.15%
│    │    │    └─_DenseLayer (denselayer30): 4-108      [1, 256, 32, 32]     --                   [1, 32, 32, 32]           --
│    │    │    │    └─BatchNorm2d (norm1): 5-499        [1, 1184, 32, 32]    --                   [1, 1184, 32, 32]      0.01%
│    │    │    │    └─ReLU (relu1): 5-500               [1, 1184, 32, 32]    --                   [1, 1184, 32, 32]         --
│    │    │    │    └─Conv2d (conv1): 5-501             [1, 1184, 32, 32]    [1, 1]               [1, 128, 32, 32]       0.63%
│    │    │    │    └─BatchNorm2d (norm2): 5-502        [1, 128, 32, 32]     --                   [1, 128, 32, 32]       0.00%
│    │    │    │    └─ReLU (relu2): 5-503               [1, 128, 32, 32]     --                   [1, 128, 32, 32]          --
│    │    │    │    └─Conv2d (conv2): 5-504             [1, 128, 32, 32]     [3, 3]               [1, 32, 32, 32]        0.15%
│    │    │    └─_DenseLayer (denselayer31): 4-109      [1, 256, 32, 32]     --                   [1, 32, 32, 32]           --
│    │    │    │    └─BatchNorm2d (norm1): 5-505        [1, 1216, 32, 32]    --                   [1, 1216, 32, 32]      0.01%
│    │    │    │    └─ReLU (relu1): 5-506               [1, 1216, 32, 32]    --                   [1, 1216, 32, 32]         --
│    │    │    │    └─Conv2d (conv1): 5-507             [1, 1216, 32, 32]    [1, 1]               [1, 128, 32, 32]       0.64%
│    │    │    │    └─BatchNorm2d (norm2): 5-508        [1, 128, 32, 32]     --                   [1, 128, 32, 32]       0.00%
│    │    │    │    └─ReLU (relu2): 5-509               [1, 128, 32, 32]     --                   [1, 128, 32, 32]          --
│    │    │    │    └─Conv2d (conv2): 5-510             [1, 128, 32, 32]     [3, 3]               [1, 32, 32, 32]        0.15%
│    │    │    └─_DenseLayer (denselayer32): 4-110      [1, 256, 32, 32]     --                   [1, 32, 32, 32]           --
│    │    │    │    └─BatchNorm2d (norm1): 5-511        [1, 1248, 32, 32]    --                   [1, 1248, 32, 32]      0.01%
│    │    │    │    └─ReLU (relu1): 5-512               [1, 1248, 32, 32]    --                   [1, 1248, 32, 32]         --
│    │    │    │    └─Conv2d (conv1): 5-513             [1, 1248, 32, 32]    [1, 1]               [1, 128, 32, 32]       0.66%
│    │    │    │    └─BatchNorm2d (norm2): 5-514        [1, 128, 32, 32]     --                   [1, 128, 32, 32]       0.00%
│    │    │    │    └─ReLU (relu2): 5-515               [1, 128, 32, 32]     --                   [1, 128, 32, 32]          --
│    │    │    │    └─Conv2d (conv2): 5-516             [1, 128, 32, 32]     [3, 3]               [1, 32, 32, 32]        0.15%
│    │    │    └─_DenseLayer (denselayer33): 4-111      [1, 256, 32, 32]     --                   [1, 32, 32, 32]           --
│    │    │    │    └─BatchNorm2d (norm1): 5-517        [1, 1280, 32, 32]    --                   [1, 1280, 32, 32]      0.01%
│    │    │    │    └─ReLU (relu1): 5-518               [1, 1280, 32, 32]    --                   [1, 1280, 32, 32]         --
│    │    │    │    └─Conv2d (conv1): 5-519             [1, 1280, 32, 32]    [1, 1]               [1, 128, 32, 32]       0.68%
│    │    │    │    └─BatchNorm2d (norm2): 5-520        [1, 128, 32, 32]     --                   [1, 128, 32, 32]       0.00%
│    │    │    │    └─ReLU (relu2): 5-521               [1, 128, 32, 32]     --                   [1, 128, 32, 32]          --
│    │    │    │    └─Conv2d (conv2): 5-522             [1, 128, 32, 32]     [3, 3]               [1, 32, 32, 32]        0.15%
│    │    │    └─_DenseLayer (denselayer34): 4-112      [1, 256, 32, 32]     --                   [1, 32, 32, 32]           --
│    │    │    │    └─BatchNorm2d (norm1): 5-523        [1, 1312, 32, 32]    --                   [1, 1312, 32, 32]      0.01%
│    │    │    │    └─ReLU (relu1): 5-524               [1, 1312, 32, 32]    --                   [1, 1312, 32, 32]         --
│    │    │    │    └─Conv2d (conv1): 5-525             [1, 1312, 32, 32]    [1, 1]               [1, 128, 32, 32]       0.69%
│    │    │    │    └─BatchNorm2d (norm2): 5-526        [1, 128, 32, 32]     --                   [1, 128, 32, 32]       0.00%
│    │    │    │    └─ReLU (relu2): 5-527               [1, 128, 32, 32]     --                   [1, 128, 32, 32]          --
│    │    │    │    └─Conv2d (conv2): 5-528             [1, 128, 32, 32]     [3, 3]               [1, 32, 32, 32]        0.15%
│    │    │    └─_DenseLayer (denselayer35): 4-113      [1, 256, 32, 32]     --                   [1, 32, 32, 32]           --
│    │    │    │    └─BatchNorm2d (norm1): 5-529        [1, 1344, 32, 32]    --                   [1, 1344, 32, 32]      0.01%
│    │    │    │    └─ReLU (relu1): 5-530               [1, 1344, 32, 32]    --                   [1, 1344, 32, 32]         --
│    │    │    │    └─Conv2d (conv1): 5-531             [1, 1344, 32, 32]    [1, 1]               [1, 128, 32, 32]       0.71%
│    │    │    │    └─BatchNorm2d (norm2): 5-532        [1, 128, 32, 32]     --                   [1, 128, 32, 32]       0.00%
│    │    │    │    └─ReLU (relu2): 5-533               [1, 128, 32, 32]     --                   [1, 128, 32, 32]          --
│    │    │    │    └─Conv2d (conv2): 5-534             [1, 128, 32, 32]     [3, 3]               [1, 32, 32, 32]        0.15%
│    │    │    └─_DenseLayer (denselayer36): 4-114      [1, 256, 32, 32]     --                   [1, 32, 32, 32]           --
│    │    │    │    └─BatchNorm2d (norm1): 5-535        [1, 1376, 32, 32]    --                   [1, 1376, 32, 32]      0.01%
│    │    │    │    └─ReLU (relu1): 5-536               [1, 1376, 32, 32]    --                   [1, 1376, 32, 32]         --
│    │    │    │    └─Conv2d (conv1): 5-537             [1, 1376, 32, 32]    [1, 1]               [1, 128, 32, 32]       0.73%
│    │    │    │    └─BatchNorm2d (norm2): 5-538        [1, 128, 32, 32]     --                   [1, 128, 32, 32]       0.00%
│    │    │    │    └─ReLU (relu2): 5-539               [1, 128, 32, 32]     --                   [1, 128, 32, 32]          --
│    │    │    │    └─Conv2d (conv2): 5-540             [1, 128, 32, 32]     [3, 3]               [1, 32, 32, 32]        0.15%
│    │    │    └─_DenseLayer (denselayer37): 4-115      [1, 256, 32, 32]     --                   [1, 32, 32, 32]           --
│    │    │    │    └─BatchNorm2d (norm1): 5-541        [1, 1408, 32, 32]    --                   [1, 1408, 32, 32]      0.01%
│    │    │    │    └─ReLU (relu1): 5-542               [1, 1408, 32, 32]    --                   [1, 1408, 32, 32]         --
│    │    │    │    └─Conv2d (conv1): 5-543             [1, 1408, 32, 32]    [1, 1]               [1, 128, 32, 32]       0.75%
│    │    │    │    └─BatchNorm2d (norm2): 5-544        [1, 128, 32, 32]     --                   [1, 128, 32, 32]       0.00%
│    │    │    │    └─ReLU (relu2): 5-545               [1, 128, 32, 32]     --                   [1, 128, 32, 32]          --
│    │    │    │    └─Conv2d (conv2): 5-546             [1, 128, 32, 32]     [3, 3]               [1, 32, 32, 32]        0.15%
│    │    │    └─_DenseLayer (denselayer38): 4-116      [1, 256, 32, 32]     --                   [1, 32, 32, 32]           --
│    │    │    │    └─BatchNorm2d (norm1): 5-547        [1, 1440, 32, 32]    --                   [1, 1440, 32, 32]      0.01%
│    │    │    │    └─ReLU (relu1): 5-548               [1, 1440, 32, 32]    --                   [1, 1440, 32, 32]         --
│    │    │    │    └─Conv2d (conv1): 5-549             [1, 1440, 32, 32]    [1, 1]               [1, 128, 32, 32]       0.76%
│    │    │    │    └─BatchNorm2d (norm2): 5-550        [1, 128, 32, 32]     --                   [1, 128, 32, 32]       0.00%
│    │    │    │    └─ReLU (relu2): 5-551               [1, 128, 32, 32]     --                   [1, 128, 32, 32]          --
│    │    │    │    └─Conv2d (conv2): 5-552             [1, 128, 32, 32]     [3, 3]               [1, 32, 32, 32]        0.15%
│    │    │    └─_DenseLayer (denselayer39): 4-117      [1, 256, 32, 32]     --                   [1, 32, 32, 32]           --
│    │    │    │    └─BatchNorm2d (norm1): 5-553        [1, 1472, 32, 32]    --                   [1, 1472, 32, 32]      0.01%
│    │    │    │    └─ReLU (relu1): 5-554               [1, 1472, 32, 32]    --                   [1, 1472, 32, 32]         --
│    │    │    │    └─Conv2d (conv1): 5-555             [1, 1472, 32, 32]    [1, 1]               [1, 128, 32, 32]       0.78%
│    │    │    │    └─BatchNorm2d (norm2): 5-556        [1, 128, 32, 32]     --                   [1, 128, 32, 32]       0.00%
│    │    │    │    └─ReLU (relu2): 5-557               [1, 128, 32, 32]     --                   [1, 128, 32, 32]          --
│    │    │    │    └─Conv2d (conv2): 5-558             [1, 128, 32, 32]     [3, 3]               [1, 32, 32, 32]        0.15%
│    │    │    └─_DenseLayer (denselayer40): 4-118      [1, 256, 32, 32]     --                   [1, 32, 32, 32]           --
│    │    │    │    └─BatchNorm2d (norm1): 5-559        [1, 1504, 32, 32]    --                   [1, 1504, 32, 32]      0.01%
│    │    │    │    └─ReLU (relu1): 5-560               [1, 1504, 32, 32]    --                   [1, 1504, 32, 32]         --
│    │    │    │    └─Conv2d (conv1): 5-561             [1, 1504, 32, 32]    [1, 1]               [1, 128, 32, 32]       0.80%
│    │    │    │    └─BatchNorm2d (norm2): 5-562        [1, 128, 32, 32]     --                   [1, 128, 32, 32]       0.00%
│    │    │    │    └─ReLU (relu2): 5-563               [1, 128, 32, 32]     --                   [1, 128, 32, 32]          --
│    │    │    │    └─Conv2d (conv2): 5-564             [1, 128, 32, 32]     [3, 3]               [1, 32, 32, 32]        0.15%
│    │    │    └─_DenseLayer (denselayer41): 4-119      [1, 256, 32, 32]     --                   [1, 32, 32, 32]           --
│    │    │    │    └─BatchNorm2d (norm1): 5-565        [1, 1536, 32, 32]    --                   [1, 1536, 32, 32]      0.01%
│    │    │    │    └─ReLU (relu1): 5-566               [1, 1536, 32, 32]    --                   [1, 1536, 32, 32]         --
│    │    │    │    └─Conv2d (conv1): 5-567             [1, 1536, 32, 32]    [1, 1]               [1, 128, 32, 32]       0.81%
│    │    │    │    └─BatchNorm2d (norm2): 5-568        [1, 128, 32, 32]     --                   [1, 128, 32, 32]       0.00%
│    │    │    │    └─ReLU (relu2): 5-569               [1, 128, 32, 32]     --                   [1, 128, 32, 32]          --
│    │    │    │    └─Conv2d (conv2): 5-570             [1, 128, 32, 32]     [3, 3]               [1, 32, 32, 32]        0.15%
│    │    │    └─_DenseLayer (denselayer42): 4-120      [1, 256, 32, 32]     --                   [1, 32, 32, 32]           --
│    │    │    │    └─BatchNorm2d (norm1): 5-571        [1, 1568, 32, 32]    --                   [1, 1568, 32, 32]      0.01%
│    │    │    │    └─ReLU (relu1): 5-572               [1, 1568, 32, 32]    --                   [1, 1568, 32, 32]         --
│    │    │    │    └─Conv2d (conv1): 5-573             [1, 1568, 32, 32]    [1, 1]               [1, 128, 32, 32]       0.83%
│    │    │    │    └─BatchNorm2d (norm2): 5-574        [1, 128, 32, 32]     --                   [1, 128, 32, 32]       0.00%
│    │    │    │    └─ReLU (relu2): 5-575               [1, 128, 32, 32]     --                   [1, 128, 32, 32]          --
│    │    │    │    └─Conv2d (conv2): 5-576             [1, 128, 32, 32]     [3, 3]               [1, 32, 32, 32]        0.15%
│    │    │    └─_DenseLayer (denselayer43): 4-121      [1, 256, 32, 32]     --                   [1, 32, 32, 32]           --
│    │    │    │    └─BatchNorm2d (norm1): 5-577        [1, 1600, 32, 32]    --                   [1, 1600, 32, 32]      0.01%
│    │    │    │    └─ReLU (relu1): 5-578               [1, 1600, 32, 32]    --                   [1, 1600, 32, 32]         --
│    │    │    │    └─Conv2d (conv1): 5-579             [1, 1600, 32, 32]    [1, 1]               [1, 128, 32, 32]       0.85%
│    │    │    │    └─BatchNorm2d (norm2): 5-580        [1, 128, 32, 32]     --                   [1, 128, 32, 32]       0.00%
│    │    │    │    └─ReLU (relu2): 5-581               [1, 128, 32, 32]     --                   [1, 128, 32, 32]          --
│    │    │    │    └─Conv2d (conv2): 5-582             [1, 128, 32, 32]     [3, 3]               [1, 32, 32, 32]        0.15%
│    │    │    └─_DenseLayer (denselayer44): 4-122      [1, 256, 32, 32]     --                   [1, 32, 32, 32]           --
│    │    │    │    └─BatchNorm2d (norm1): 5-583        [1, 1632, 32, 32]    --                   [1, 1632, 32, 32]      0.01%
│    │    │    │    └─ReLU (relu1): 5-584               [1, 1632, 32, 32]    --                   [1, 1632, 32, 32]         --
│    │    │    │    └─Conv2d (conv1): 5-585             [1, 1632, 32, 32]    [1, 1]               [1, 128, 32, 32]       0.86%
│    │    │    │    └─BatchNorm2d (norm2): 5-586        [1, 128, 32, 32]     --                   [1, 128, 32, 32]       0.00%
│    │    │    │    └─ReLU (relu2): 5-587               [1, 128, 32, 32]     --                   [1, 128, 32, 32]          --
│    │    │    │    └─Conv2d (conv2): 5-588             [1, 128, 32, 32]     [3, 3]               [1, 32, 32, 32]        0.15%
│    │    │    └─_DenseLayer (denselayer45): 4-123      [1, 256, 32, 32]     --                   [1, 32, 32, 32]           --
│    │    │    │    └─BatchNorm2d (norm1): 5-589        [1, 1664, 32, 32]    --                   [1, 1664, 32, 32]      0.01%
│    │    │    │    └─ReLU (relu1): 5-590               [1, 1664, 32, 32]    --                   [1, 1664, 32, 32]         --
│    │    │    │    └─Conv2d (conv1): 5-591             [1, 1664, 32, 32]    [1, 1]               [1, 128, 32, 32]       0.88%
│    │    │    │    └─BatchNorm2d (norm2): 5-592        [1, 128, 32, 32]     --                   [1, 128, 32, 32]       0.00%
│    │    │    │    └─ReLU (relu2): 5-593               [1, 128, 32, 32]     --                   [1, 128, 32, 32]          --
│    │    │    │    └─Conv2d (conv2): 5-594             [1, 128, 32, 32]     [3, 3]               [1, 32, 32, 32]        0.15%
│    │    │    └─_DenseLayer (denselayer46): 4-124      [1, 256, 32, 32]     --                   [1, 32, 32, 32]           --
│    │    │    │    └─BatchNorm2d (norm1): 5-595        [1, 1696, 32, 32]    --                   [1, 1696, 32, 32]      0.01%
│    │    │    │    └─ReLU (relu1): 5-596               [1, 1696, 32, 32]    --                   [1, 1696, 32, 32]         --
│    │    │    │    └─Conv2d (conv1): 5-597             [1, 1696, 32, 32]    [1, 1]               [1, 128, 32, 32]       0.90%
│    │    │    │    └─BatchNorm2d (norm2): 5-598        [1, 128, 32, 32]     --                   [1, 128, 32, 32]       0.00%
│    │    │    │    └─ReLU (relu2): 5-599               [1, 128, 32, 32]     --                   [1, 128, 32, 32]          --
│    │    │    │    └─Conv2d (conv2): 5-600             [1, 128, 32, 32]     [3, 3]               [1, 32, 32, 32]        0.15%
│    │    │    └─_DenseLayer (denselayer47): 4-125      [1, 256, 32, 32]     --                   [1, 32, 32, 32]           --
│    │    │    │    └─BatchNorm2d (norm1): 5-601        [1, 1728, 32, 32]    --                   [1, 1728, 32, 32]      0.01%
│    │    │    │    └─ReLU (relu1): 5-602               [1, 1728, 32, 32]    --                   [1, 1728, 32, 32]         --
│    │    │    │    └─Conv2d (conv1): 5-603             [1, 1728, 32, 32]    [1, 1]               [1, 128, 32, 32]       0.91%
│    │    │    │    └─BatchNorm2d (norm2): 5-604        [1, 128, 32, 32]     --                   [1, 128, 32, 32]       0.00%
│    │    │    │    └─ReLU (relu2): 5-605               [1, 128, 32, 32]     --                   [1, 128, 32, 32]          --
│    │    │    │    └─Conv2d (conv2): 5-606             [1, 128, 32, 32]     [3, 3]               [1, 32, 32, 32]        0.15%
│    │    │    └─_DenseLayer (denselayer48): 4-126      [1, 256, 32, 32]     --                   [1, 32, 32, 32]           --
│    │    │    │    └─BatchNorm2d (norm1): 5-607        [1, 1760, 32, 32]    --                   [1, 1760, 32, 32]      0.01%
│    │    │    │    └─ReLU (relu1): 5-608               [1, 1760, 32, 32]    --                   [1, 1760, 32, 32]         --
│    │    │    │    └─Conv2d (conv1): 5-609             [1, 1760, 32, 32]    [1, 1]               [1, 128, 32, 32]       0.93%
│    │    │    │    └─BatchNorm2d (norm2): 5-610        [1, 128, 32, 32]     --                   [1, 128, 32, 32]       0.00%
│    │    │    │    └─ReLU (relu2): 5-611               [1, 128, 32, 32]     --                   [1, 128, 32, 32]          --
│    │    │    │    └─Conv2d (conv2): 5-612             [1, 128, 32, 32]     [3, 3]               [1, 32, 32, 32]        0.15%
│    │    └─_DenseBlock (denseblock3): 3-26             [1, 256, 32, 32]     --                   [1, 1792, 32, 32]    (recursive)
│    │    │    └─_DenseLayer (denselayer1): 4-127       [1, 256, 32, 32]     --                   [1, 32, 32, 32]      (recursive)
│    │    │    │    └─BatchNorm2d (norm1): 5-613        [1, 256, 32, 32]     --                   [1, 256, 32, 32]     (recursive)
│    │    │    │    └─ReLU (relu1): 5-614               [1, 256, 32, 32]     --                   [1, 256, 32, 32]     (recursive)
│    │    │    │    └─Conv2d (conv1): 5-615             [1, 256, 32, 32]     [1, 1]               [1, 128, 32, 32]     (recursive)
│    │    │    │    └─BatchNorm2d (norm2): 5-616        [1, 128, 32, 32]     --                   [1, 128, 32, 32]     (recursive)
│    │    │    │    └─ReLU (relu2): 5-617               [1, 128, 32, 32]     --                   [1, 128, 32, 32]     (recursive)
│    │    │    │    └─Conv2d (conv2): 5-618             [1, 128, 32, 32]     [3, 3]               [1, 32, 32, 32]      (recursive)
│    │    │    └─_DenseLayer (denselayer2): 4-128       [1, 256, 32, 32]     --                   [1, 32, 32, 32]      (recursive)
│    │    │    │    └─BatchNorm2d (norm1): 5-619        [1, 288, 32, 32]     --                   [1, 288, 32, 32]     (recursive)
│    │    │    │    └─ReLU (relu1): 5-620               [1, 288, 32, 32]     --                   [1, 288, 32, 32]     (recursive)
│    │    │    │    └─Conv2d (conv1): 5-621             [1, 288, 32, 32]     [1, 1]               [1, 128, 32, 32]     (recursive)
│    │    │    │    └─BatchNorm2d (norm2): 5-622        [1, 128, 32, 32]     --                   [1, 128, 32, 32]     (recursive)
│    │    │    │    └─ReLU (relu2): 5-623               [1, 128, 32, 32]     --                   [1, 128, 32, 32]     (recursive)
│    │    │    │    └─Conv2d (conv2): 5-624             [1, 128, 32, 32]     [3, 3]               [1, 32, 32, 32]      (recursive)
│    │    │    └─_DenseLayer (denselayer3): 4-129       [1, 256, 32, 32]     --                   [1, 32, 32, 32]      (recursive)
│    │    │    │    └─BatchNorm2d (norm1): 5-625        [1, 320, 32, 32]     --                   [1, 320, 32, 32]     (recursive)
│    │    │    │    └─ReLU (relu1): 5-626               [1, 320, 32, 32]     --                   [1, 320, 32, 32]     (recursive)
│    │    │    │    └─Conv2d (conv1): 5-627             [1, 320, 32, 32]     [1, 1]               [1, 128, 32, 32]     (recursive)
│    │    │    │    └─BatchNorm2d (norm2): 5-628        [1, 128, 32, 32]     --                   [1, 128, 32, 32]     (recursive)
│    │    │    │    └─ReLU (relu2): 5-629               [1, 128, 32, 32]     --                   [1, 128, 32, 32]     (recursive)
│    │    │    │    └─Conv2d (conv2): 5-630             [1, 128, 32, 32]     [3, 3]               [1, 32, 32, 32]      (recursive)
│    │    │    └─_DenseLayer (denselayer4): 4-130       [1, 256, 32, 32]     --                   [1, 32, 32, 32]      (recursive)
│    │    │    │    └─BatchNorm2d (norm1): 5-631        [1, 352, 32, 32]     --                   [1, 352, 32, 32]     (recursive)
│    │    │    │    └─ReLU (relu1): 5-632               [1, 352, 32, 32]     --                   [1, 352, 32, 32]     (recursive)
│    │    │    │    └─Conv2d (conv1): 5-633             [1, 352, 32, 32]     [1, 1]               [1, 128, 32, 32]     (recursive)
│    │    │    │    └─BatchNorm2d (norm2): 5-634        [1, 128, 32, 32]     --                   [1, 128, 32, 32]     (recursive)
│    │    │    │    └─ReLU (relu2): 5-635               [1, 128, 32, 32]     --                   [1, 128, 32, 32]     (recursive)
│    │    │    │    └─Conv2d (conv2): 5-636             [1, 128, 32, 32]     [3, 3]               [1, 32, 32, 32]      (recursive)
│    │    │    └─_DenseLayer (denselayer5): 4-131       [1, 256, 32, 32]     --                   [1, 32, 32, 32]      (recursive)
│    │    │    │    └─BatchNorm2d (norm1): 5-637        [1, 384, 32, 32]     --                   [1, 384, 32, 32]     (recursive)
│    │    │    │    └─ReLU (relu1): 5-638               [1, 384, 32, 32]     --                   [1, 384, 32, 32]     (recursive)
│    │    │    │    └─Conv2d (conv1): 5-639             [1, 384, 32, 32]     [1, 1]               [1, 128, 32, 32]     (recursive)
│    │    │    │    └─BatchNorm2d (norm2): 5-640        [1, 128, 32, 32]     --                   [1, 128, 32, 32]     (recursive)
│    │    │    │    └─ReLU (relu2): 5-641               [1, 128, 32, 32]     --                   [1, 128, 32, 32]     (recursive)
│    │    │    │    └─Conv2d (conv2): 5-642             [1, 128, 32, 32]     [3, 3]               [1, 32, 32, 32]      (recursive)
│    │    │    └─_DenseLayer (denselayer6): 4-132       [1, 256, 32, 32]     --                   [1, 32, 32, 32]      (recursive)
│    │    │    │    └─BatchNorm2d (norm1): 5-643        [1, 416, 32, 32]     --                   [1, 416, 32, 32]     (recursive)
│    │    │    │    └─ReLU (relu1): 5-644               [1, 416, 32, 32]     --                   [1, 416, 32, 32]     (recursive)
│    │    │    │    └─Conv2d (conv1): 5-645             [1, 416, 32, 32]     [1, 1]               [1, 128, 32, 32]     (recursive)
│    │    │    │    └─BatchNorm2d (norm2): 5-646        [1, 128, 32, 32]     --                   [1, 128, 32, 32]     (recursive)
│    │    │    │    └─ReLU (relu2): 5-647               [1, 128, 32, 32]     --                   [1, 128, 32, 32]     (recursive)
│    │    │    │    └─Conv2d (conv2): 5-648             [1, 128, 32, 32]     [3, 3]               [1, 32, 32, 32]      (recursive)
│    │    │    └─_DenseLayer (denselayer7): 4-133       [1, 256, 32, 32]     --                   [1, 32, 32, 32]      (recursive)
│    │    │    │    └─BatchNorm2d (norm1): 5-649        [1, 448, 32, 32]     --                   [1, 448, 32, 32]     (recursive)
│    │    │    │    └─ReLU (relu1): 5-650               [1, 448, 32, 32]     --                   [1, 448, 32, 32]     (recursive)
│    │    │    │    └─Conv2d (conv1): 5-651             [1, 448, 32, 32]     [1, 1]               [1, 128, 32, 32]     (recursive)
│    │    │    │    └─BatchNorm2d (norm2): 5-652        [1, 128, 32, 32]     --                   [1, 128, 32, 32]     (recursive)
│    │    │    │    └─ReLU (relu2): 5-653               [1, 128, 32, 32]     --                   [1, 128, 32, 32]     (recursive)
│    │    │    │    └─Conv2d (conv2): 5-654             [1, 128, 32, 32]     [3, 3]               [1, 32, 32, 32]      (recursive)
│    │    │    └─_DenseLayer (denselayer8): 4-134       [1, 256, 32, 32]     --                   [1, 32, 32, 32]      (recursive)
│    │    │    │    └─BatchNorm2d (norm1): 5-655        [1, 480, 32, 32]     --                   [1, 480, 32, 32]     (recursive)
│    │    │    │    └─ReLU (relu1): 5-656               [1, 480, 32, 32]     --                   [1, 480, 32, 32]     (recursive)
│    │    │    │    └─Conv2d (conv1): 5-657             [1, 480, 32, 32]     [1, 1]               [1, 128, 32, 32]     (recursive)
│    │    │    │    └─BatchNorm2d (norm2): 5-658        [1, 128, 32, 32]     --                   [1, 128, 32, 32]     (recursive)
│    │    │    │    └─ReLU (relu2): 5-659               [1, 128, 32, 32]     --                   [1, 128, 32, 32]     (recursive)
│    │    │    │    └─Conv2d (conv2): 5-660             [1, 128, 32, 32]     [3, 3]               [1, 32, 32, 32]      (recursive)
│    │    │    └─_DenseLayer (denselayer9): 4-135       [1, 256, 32, 32]     --                   [1, 32, 32, 32]      (recursive)
│    │    │    │    └─BatchNorm2d (norm1): 5-661        [1, 512, 32, 32]     --                   [1, 512, 32, 32]     (recursive)
│    │    │    │    └─ReLU (relu1): 5-662               [1, 512, 32, 32]     --                   [1, 512, 32, 32]     (recursive)
│    │    │    │    └─Conv2d (conv1): 5-663             [1, 512, 32, 32]     [1, 1]               [1, 128, 32, 32]     (recursive)
│    │    │    │    └─BatchNorm2d (norm2): 5-664        [1, 128, 32, 32]     --                   [1, 128, 32, 32]     (recursive)
│    │    │    │    └─ReLU (relu2): 5-665               [1, 128, 32, 32]     --                   [1, 128, 32, 32]     (recursive)
│    │    │    │    └─Conv2d (conv2): 5-666             [1, 128, 32, 32]     [3, 3]               [1, 32, 32, 32]      (recursive)
│    │    │    └─_DenseLayer (denselayer10): 4-136      [1, 256, 32, 32]     --                   [1, 32, 32, 32]      (recursive)
│    │    │    │    └─BatchNorm2d (norm1): 5-667        [1, 544, 32, 32]     --                   [1, 544, 32, 32]     (recursive)
│    │    │    │    └─ReLU (relu1): 5-668               [1, 544, 32, 32]     --                   [1, 544, 32, 32]     (recursive)
│    │    │    │    └─Conv2d (conv1): 5-669             [1, 544, 32, 32]     [1, 1]               [1, 128, 32, 32]     (recursive)
│    │    │    │    └─BatchNorm2d (norm2): 5-670        [1, 128, 32, 32]     --                   [1, 128, 32, 32]     (recursive)
│    │    │    │    └─ReLU (relu2): 5-671               [1, 128, 32, 32]     --                   [1, 128, 32, 32]     (recursive)
│    │    │    │    └─Conv2d (conv2): 5-672             [1, 128, 32, 32]     [3, 3]               [1, 32, 32, 32]      (recursive)
│    │    │    └─_DenseLayer (denselayer11): 4-137      [1, 256, 32, 32]     --                   [1, 32, 32, 32]      (recursive)
│    │    │    │    └─BatchNorm2d (norm1): 5-673        [1, 576, 32, 32]     --                   [1, 576, 32, 32]     (recursive)
│    │    │    │    └─ReLU (relu1): 5-674               [1, 576, 32, 32]     --                   [1, 576, 32, 32]     (recursive)
│    │    │    │    └─Conv2d (conv1): 5-675             [1, 576, 32, 32]     [1, 1]               [1, 128, 32, 32]     (recursive)
│    │    │    │    └─BatchNorm2d (norm2): 5-676        [1, 128, 32, 32]     --                   [1, 128, 32, 32]     (recursive)
│    │    │    │    └─ReLU (relu2): 5-677               [1, 128, 32, 32]     --                   [1, 128, 32, 32]     (recursive)
│    │    │    │    └─Conv2d (conv2): 5-678             [1, 128, 32, 32]     [3, 3]               [1, 32, 32, 32]      (recursive)
│    │    │    └─_DenseLayer (denselayer12): 4-138      [1, 256, 32, 32]     --                   [1, 32, 32, 32]      (recursive)
│    │    │    │    └─BatchNorm2d (norm1): 5-679        [1, 608, 32, 32]     --                   [1, 608, 32, 32]     (recursive)
│    │    │    │    └─ReLU (relu1): 5-680               [1, 608, 32, 32]     --                   [1, 608, 32, 32]     (recursive)
│    │    │    │    └─Conv2d (conv1): 5-681             [1, 608, 32, 32]     [1, 1]               [1, 128, 32, 32]     (recursive)
│    │    │    │    └─BatchNorm2d (norm2): 5-682        [1, 128, 32, 32]     --                   [1, 128, 32, 32]     (recursive)
│    │    │    │    └─ReLU (relu2): 5-683               [1, 128, 32, 32]     --                   [1, 128, 32, 32]     (recursive)
│    │    │    │    └─Conv2d (conv2): 5-684             [1, 128, 32, 32]     [3, 3]               [1, 32, 32, 32]      (recursive)
│    │    │    └─_DenseLayer (denselayer13): 4-139      [1, 256, 32, 32]     --                   [1, 32, 32, 32]      (recursive)
│    │    │    │    └─BatchNorm2d (norm1): 5-685        [1, 640, 32, 32]     --                   [1, 640, 32, 32]     (recursive)
│    │    │    │    └─ReLU (relu1): 5-686               [1, 640, 32, 32]     --                   [1, 640, 32, 32]     (recursive)
│    │    │    │    └─Conv2d (conv1): 5-687             [1, 640, 32, 32]     [1, 1]               [1, 128, 32, 32]     (recursive)
│    │    │    │    └─BatchNorm2d (norm2): 5-688        [1, 128, 32, 32]     --                   [1, 128, 32, 32]     (recursive)
│    │    │    │    └─ReLU (relu2): 5-689               [1, 128, 32, 32]     --                   [1, 128, 32, 32]     (recursive)
│    │    │    │    └─Conv2d (conv2): 5-690             [1, 128, 32, 32]     [3, 3]               [1, 32, 32, 32]      (recursive)
│    │    │    └─_DenseLayer (denselayer14): 4-140      [1, 256, 32, 32]     --                   [1, 32, 32, 32]      (recursive)
│    │    │    │    └─BatchNorm2d (norm1): 5-691        [1, 672, 32, 32]     --                   [1, 672, 32, 32]     (recursive)
│    │    │    │    └─ReLU (relu1): 5-692               [1, 672, 32, 32]     --                   [1, 672, 32, 32]     (recursive)
│    │    │    │    └─Conv2d (conv1): 5-693             [1, 672, 32, 32]     [1, 1]               [1, 128, 32, 32]     (recursive)
│    │    │    │    └─BatchNorm2d (norm2): 5-694        [1, 128, 32, 32]     --                   [1, 128, 32, 32]     (recursive)
│    │    │    │    └─ReLU (relu2): 5-695               [1, 128, 32, 32]     --                   [1, 128, 32, 32]     (recursive)
│    │    │    │    └─Conv2d (conv2): 5-696             [1, 128, 32, 32]     [3, 3]               [1, 32, 32, 32]      (recursive)
│    │    │    └─_DenseLayer (denselayer15): 4-141      [1, 256, 32, 32]     --                   [1, 32, 32, 32]      (recursive)
│    │    │    │    └─BatchNorm2d (norm1): 5-697        [1, 704, 32, 32]     --                   [1, 704, 32, 32]     (recursive)
│    │    │    │    └─ReLU (relu1): 5-698               [1, 704, 32, 32]     --                   [1, 704, 32, 32]     (recursive)
│    │    │    │    └─Conv2d (conv1): 5-699             [1, 704, 32, 32]     [1, 1]               [1, 128, 32, 32]     (recursive)
│    │    │    │    └─BatchNorm2d (norm2): 5-700        [1, 128, 32, 32]     --                   [1, 128, 32, 32]     (recursive)
│    │    │    │    └─ReLU (relu2): 5-701               [1, 128, 32, 32]     --                   [1, 128, 32, 32]     (recursive)
│    │    │    │    └─Conv2d (conv2): 5-702             [1, 128, 32, 32]     [3, 3]               [1, 32, 32, 32]      (recursive)
│    │    │    └─_DenseLayer (denselayer16): 4-142      [1, 256, 32, 32]     --                   [1, 32, 32, 32]      (recursive)
│    │    │    │    └─BatchNorm2d (norm1): 5-703        [1, 736, 32, 32]     --                   [1, 736, 32, 32]     (recursive)
│    │    │    │    └─ReLU (relu1): 5-704               [1, 736, 32, 32]     --                   [1, 736, 32, 32]     (recursive)
│    │    │    │    └─Conv2d (conv1): 5-705             [1, 736, 32, 32]     [1, 1]               [1, 128, 32, 32]     (recursive)
│    │    │    │    └─BatchNorm2d (norm2): 5-706        [1, 128, 32, 32]     --                   [1, 128, 32, 32]     (recursive)
│    │    │    │    └─ReLU (relu2): 5-707               [1, 128, 32, 32]     --                   [1, 128, 32, 32]     (recursive)
│    │    │    │    └─Conv2d (conv2): 5-708             [1, 128, 32, 32]     [3, 3]               [1, 32, 32, 32]      (recursive)
│    │    │    └─_DenseLayer (denselayer17): 4-143      [1, 256, 32, 32]     --                   [1, 32, 32, 32]      (recursive)
│    │    │    │    └─BatchNorm2d (norm1): 5-709        [1, 768, 32, 32]     --                   [1, 768, 32, 32]     (recursive)
│    │    │    │    └─ReLU (relu1): 5-710               [1, 768, 32, 32]     --                   [1, 768, 32, 32]     (recursive)
│    │    │    │    └─Conv2d (conv1): 5-711             [1, 768, 32, 32]     [1, 1]               [1, 128, 32, 32]     (recursive)
│    │    │    │    └─BatchNorm2d (norm2): 5-712        [1, 128, 32, 32]     --                   [1, 128, 32, 32]     (recursive)
│    │    │    │    └─ReLU (relu2): 5-713               [1, 128, 32, 32]     --                   [1, 128, 32, 32]     (recursive)
│    │    │    │    └─Conv2d (conv2): 5-714             [1, 128, 32, 32]     [3, 3]               [1, 32, 32, 32]      (recursive)
│    │    │    └─_DenseLayer (denselayer18): 4-144      [1, 256, 32, 32]     --                   [1, 32, 32, 32]      (recursive)
│    │    │    │    └─BatchNorm2d (norm1): 5-715        [1, 800, 32, 32]     --                   [1, 800, 32, 32]     (recursive)
│    │    │    │    └─ReLU (relu1): 5-716               [1, 800, 32, 32]     --                   [1, 800, 32, 32]     (recursive)
│    │    │    │    └─Conv2d (conv1): 5-717             [1, 800, 32, 32]     [1, 1]               [1, 128, 32, 32]     (recursive)
│    │    │    │    └─BatchNorm2d (norm2): 5-718        [1, 128, 32, 32]     --                   [1, 128, 32, 32]     (recursive)
│    │    │    │    └─ReLU (relu2): 5-719               [1, 128, 32, 32]     --                   [1, 128, 32, 32]     (recursive)
│    │    │    │    └─Conv2d (conv2): 5-720             [1, 128, 32, 32]     [3, 3]               [1, 32, 32, 32]      (recursive)
│    │    │    └─_DenseLayer (denselayer19): 4-145      [1, 256, 32, 32]     --                   [1, 32, 32, 32]      (recursive)
│    │    │    │    └─BatchNorm2d (norm1): 5-721        [1, 832, 32, 32]     --                   [1, 832, 32, 32]     (recursive)
│    │    │    │    └─ReLU (relu1): 5-722               [1, 832, 32, 32]     --                   [1, 832, 32, 32]     (recursive)
│    │    │    │    └─Conv2d (conv1): 5-723             [1, 832, 32, 32]     [1, 1]               [1, 128, 32, 32]     (recursive)
│    │    │    │    └─BatchNorm2d (norm2): 5-724        [1, 128, 32, 32]     --                   [1, 128, 32, 32]     (recursive)
│    │    │    │    └─ReLU (relu2): 5-725               [1, 128, 32, 32]     --                   [1, 128, 32, 32]     (recursive)
│    │    │    │    └─Conv2d (conv2): 5-726             [1, 128, 32, 32]     [3, 3]               [1, 32, 32, 32]      (recursive)
│    │    │    └─_DenseLayer (denselayer20): 4-146      [1, 256, 32, 32]     --                   [1, 32, 32, 32]      (recursive)
│    │    │    │    └─BatchNorm2d (norm1): 5-727        [1, 864, 32, 32]     --                   [1, 864, 32, 32]     (recursive)
│    │    │    │    └─ReLU (relu1): 5-728               [1, 864, 32, 32]     --                   [1, 864, 32, 32]     (recursive)
│    │    │    │    └─Conv2d (conv1): 5-729             [1, 864, 32, 32]     [1, 1]               [1, 128, 32, 32]     (recursive)
│    │    │    │    └─BatchNorm2d (norm2): 5-730        [1, 128, 32, 32]     --                   [1, 128, 32, 32]     (recursive)
│    │    │    │    └─ReLU (relu2): 5-731               [1, 128, 32, 32]     --                   [1, 128, 32, 32]     (recursive)
│    │    │    │    └─Conv2d (conv2): 5-732             [1, 128, 32, 32]     [3, 3]               [1, 32, 32, 32]      (recursive)
│    │    │    └─_DenseLayer (denselayer21): 4-147      [1, 256, 32, 32]     --                   [1, 32, 32, 32]      (recursive)
│    │    │    │    └─BatchNorm2d (norm1): 5-733        [1, 896, 32, 32]     --                   [1, 896, 32, 32]     (recursive)
│    │    │    │    └─ReLU (relu1): 5-734               [1, 896, 32, 32]     --                   [1, 896, 32, 32]     (recursive)
│    │    │    │    └─Conv2d (conv1): 5-735             [1, 896, 32, 32]     [1, 1]               [1, 128, 32, 32]     (recursive)
│    │    │    │    └─BatchNorm2d (norm2): 5-736        [1, 128, 32, 32]     --                   [1, 128, 32, 32]     (recursive)
│    │    │    │    └─ReLU (relu2): 5-737               [1, 128, 32, 32]     --                   [1, 128, 32, 32]     (recursive)
│    │    │    │    └─Conv2d (conv2): 5-738             [1, 128, 32, 32]     [3, 3]               [1, 32, 32, 32]      (recursive)
│    │    │    └─_DenseLayer (denselayer22): 4-148      [1, 256, 32, 32]     --                   [1, 32, 32, 32]      (recursive)
│    │    │    │    └─BatchNorm2d (norm1): 5-739        [1, 928, 32, 32]     --                   [1, 928, 32, 32]     (recursive)
│    │    │    │    └─ReLU (relu1): 5-740               [1, 928, 32, 32]     --                   [1, 928, 32, 32]     (recursive)
│    │    │    │    └─Conv2d (conv1): 5-741             [1, 928, 32, 32]     [1, 1]               [1, 128, 32, 32]     (recursive)
│    │    │    │    └─BatchNorm2d (norm2): 5-742        [1, 128, 32, 32]     --                   [1, 128, 32, 32]     (recursive)
│    │    │    │    └─ReLU (relu2): 5-743               [1, 128, 32, 32]     --                   [1, 128, 32, 32]     (recursive)
│    │    │    │    └─Conv2d (conv2): 5-744             [1, 128, 32, 32]     [3, 3]               [1, 32, 32, 32]      (recursive)
│    │    │    └─_DenseLayer (denselayer23): 4-149      [1, 256, 32, 32]     --                   [1, 32, 32, 32]      (recursive)
│    │    │    │    └─BatchNorm2d (norm1): 5-745        [1, 960, 32, 32]     --                   [1, 960, 32, 32]     (recursive)
│    │    │    │    └─ReLU (relu1): 5-746               [1, 960, 32, 32]     --                   [1, 960, 32, 32]     (recursive)
│    │    │    │    └─Conv2d (conv1): 5-747             [1, 960, 32, 32]     [1, 1]               [1, 128, 32, 32]     (recursive)
│    │    │    │    └─BatchNorm2d (norm2): 5-748        [1, 128, 32, 32]     --                   [1, 128, 32, 32]     (recursive)
│    │    │    │    └─ReLU (relu2): 5-749               [1, 128, 32, 32]     --                   [1, 128, 32, 32]     (recursive)
│    │    │    │    └─Conv2d (conv2): 5-750             [1, 128, 32, 32]     [3, 3]               [1, 32, 32, 32]      (recursive)
│    │    │    └─_DenseLayer (denselayer24): 4-150      [1, 256, 32, 32]     --                   [1, 32, 32, 32]      (recursive)
│    │    │    │    └─BatchNorm2d (norm1): 5-751        [1, 992, 32, 32]     --                   [1, 992, 32, 32]     (recursive)
│    │    │    │    └─ReLU (relu1): 5-752               [1, 992, 32, 32]     --                   [1, 992, 32, 32]     (recursive)
│    │    │    │    └─Conv2d (conv1): 5-753             [1, 992, 32, 32]     [1, 1]               [1, 128, 32, 32]     (recursive)
│    │    │    │    └─BatchNorm2d (norm2): 5-754        [1, 128, 32, 32]     --                   [1, 128, 32, 32]     (recursive)
│    │    │    │    └─ReLU (relu2): 5-755               [1, 128, 32, 32]     --                   [1, 128, 32, 32]     (recursive)
│    │    │    │    └─Conv2d (conv2): 5-756             [1, 128, 32, 32]     [3, 3]               [1, 32, 32, 32]      (recursive)
│    │    │    └─_DenseLayer (denselayer25): 4-151      [1, 256, 32, 32]     --                   [1, 32, 32, 32]      (recursive)
│    │    │    │    └─BatchNorm2d (norm1): 5-757        [1, 1024, 32, 32]    --                   [1, 1024, 32, 32]    (recursive)
│    │    │    │    └─ReLU (relu1): 5-758               [1, 1024, 32, 32]    --                   [1, 1024, 32, 32]    (recursive)
│    │    │    │    └─Conv2d (conv1): 5-759             [1, 1024, 32, 32]    [1, 1]               [1, 128, 32, 32]     (recursive)
│    │    │    │    └─BatchNorm2d (norm2): 5-760        [1, 128, 32, 32]     --                   [1, 128, 32, 32]     (recursive)
│    │    │    │    └─ReLU (relu2): 5-761               [1, 128, 32, 32]     --                   [1, 128, 32, 32]     (recursive)
│    │    │    │    └─Conv2d (conv2): 5-762             [1, 128, 32, 32]     [3, 3]               [1, 32, 32, 32]      (recursive)
│    │    │    └─_DenseLayer (denselayer26): 4-152      [1, 256, 32, 32]     --                   [1, 32, 32, 32]      (recursive)
│    │    │    │    └─BatchNorm2d (norm1): 5-763        [1, 1056, 32, 32]    --                   [1, 1056, 32, 32]    (recursive)
│    │    │    │    └─ReLU (relu1): 5-764               [1, 1056, 32, 32]    --                   [1, 1056, 32, 32]    (recursive)
│    │    │    │    └─Conv2d (conv1): 5-765             [1, 1056, 32, 32]    [1, 1]               [1, 128, 32, 32]     (recursive)
│    │    │    │    └─BatchNorm2d (norm2): 5-766        [1, 128, 32, 32]     --                   [1, 128, 32, 32]     (recursive)
│    │    │    │    └─ReLU (relu2): 5-767               [1, 128, 32, 32]     --                   [1, 128, 32, 32]     (recursive)
│    │    │    │    └─Conv2d (conv2): 5-768             [1, 128, 32, 32]     [3, 3]               [1, 32, 32, 32]      (recursive)
│    │    │    └─_DenseLayer (denselayer27): 4-153      [1, 256, 32, 32]     --                   [1, 32, 32, 32]      (recursive)
│    │    │    │    └─BatchNorm2d (norm1): 5-769        [1, 1088, 32, 32]    --                   [1, 1088, 32, 32]    (recursive)
│    │    │    │    └─ReLU (relu1): 5-770               [1, 1088, 32, 32]    --                   [1, 1088, 32, 32]    (recursive)
│    │    │    │    └─Conv2d (conv1): 5-771             [1, 1088, 32, 32]    [1, 1]               [1, 128, 32, 32]     (recursive)
│    │    │    │    └─BatchNorm2d (norm2): 5-772        [1, 128, 32, 32]     --                   [1, 128, 32, 32]     (recursive)
│    │    │    │    └─ReLU (relu2): 5-773               [1, 128, 32, 32]     --                   [1, 128, 32, 32]     (recursive)
│    │    │    │    └─Conv2d (conv2): 5-774             [1, 128, 32, 32]     [3, 3]               [1, 32, 32, 32]      (recursive)
│    │    │    └─_DenseLayer (denselayer28): 4-154      [1, 256, 32, 32]     --                   [1, 32, 32, 32]      (recursive)
│    │    │    │    └─BatchNorm2d (norm1): 5-775        [1, 1120, 32, 32]    --                   [1, 1120, 32, 32]    (recursive)
│    │    │    │    └─ReLU (relu1): 5-776               [1, 1120, 32, 32]    --                   [1, 1120, 32, 32]    (recursive)
│    │    │    │    └─Conv2d (conv1): 5-777             [1, 1120, 32, 32]    [1, 1]               [1, 128, 32, 32]     (recursive)
│    │    │    │    └─BatchNorm2d (norm2): 5-778        [1, 128, 32, 32]     --                   [1, 128, 32, 32]     (recursive)
│    │    │    │    └─ReLU (relu2): 5-779               [1, 128, 32, 32]     --                   [1, 128, 32, 32]     (recursive)
│    │    │    │    └─Conv2d (conv2): 5-780             [1, 128, 32, 32]     [3, 3]               [1, 32, 32, 32]      (recursive)
│    │    │    └─_DenseLayer (denselayer29): 4-155      [1, 256, 32, 32]     --                   [1, 32, 32, 32]      (recursive)
│    │    │    │    └─BatchNorm2d (norm1): 5-781        [1, 1152, 32, 32]    --                   [1, 1152, 32, 32]    (recursive)
│    │    │    │    └─ReLU (relu1): 5-782               [1, 1152, 32, 32]    --                   [1, 1152, 32, 32]    (recursive)
│    │    │    │    └─Conv2d (conv1): 5-783             [1, 1152, 32, 32]    [1, 1]               [1, 128, 32, 32]     (recursive)
│    │    │    │    └─BatchNorm2d (norm2): 5-784        [1, 128, 32, 32]     --                   [1, 128, 32, 32]     (recursive)
│    │    │    │    └─ReLU (relu2): 5-785               [1, 128, 32, 32]     --                   [1, 128, 32, 32]     (recursive)
│    │    │    │    └─Conv2d (conv2): 5-786             [1, 128, 32, 32]     [3, 3]               [1, 32, 32, 32]      (recursive)
│    │    │    └─_DenseLayer (denselayer30): 4-156      [1, 256, 32, 32]     --                   [1, 32, 32, 32]      (recursive)
│    │    │    │    └─BatchNorm2d (norm1): 5-787        [1, 1184, 32, 32]    --                   [1, 1184, 32, 32]    (recursive)
│    │    │    │    └─ReLU (relu1): 5-788               [1, 1184, 32, 32]    --                   [1, 1184, 32, 32]    (recursive)
│    │    │    │    └─Conv2d (conv1): 5-789             [1, 1184, 32, 32]    [1, 1]               [1, 128, 32, 32]     (recursive)
│    │    │    │    └─BatchNorm2d (norm2): 5-790        [1, 128, 32, 32]     --                   [1, 128, 32, 32]     (recursive)
│    │    │    │    └─ReLU (relu2): 5-791               [1, 128, 32, 32]     --                   [1, 128, 32, 32]     (recursive)
│    │    │    │    └─Conv2d (conv2): 5-792             [1, 128, 32, 32]     [3, 3]               [1, 32, 32, 32]      (recursive)
│    │    │    └─_DenseLayer (denselayer31): 4-157      [1, 256, 32, 32]     --                   [1, 32, 32, 32]      (recursive)
│    │    │    │    └─BatchNorm2d (norm1): 5-793        [1, 1216, 32, 32]    --                   [1, 1216, 32, 32]    (recursive)
│    │    │    │    └─ReLU (relu1): 5-794               [1, 1216, 32, 32]    --                   [1, 1216, 32, 32]    (recursive)
│    │    │    │    └─Conv2d (conv1): 5-795             [1, 1216, 32, 32]    [1, 1]               [1, 128, 32, 32]     (recursive)
│    │    │    │    └─BatchNorm2d (norm2): 5-796        [1, 128, 32, 32]     --                   [1, 128, 32, 32]     (recursive)
│    │    │    │    └─ReLU (relu2): 5-797               [1, 128, 32, 32]     --                   [1, 128, 32, 32]     (recursive)
│    │    │    │    └─Conv2d (conv2): 5-798             [1, 128, 32, 32]     [3, 3]               [1, 32, 32, 32]      (recursive)
│    │    │    └─_DenseLayer (denselayer32): 4-158      [1, 256, 32, 32]     --                   [1, 32, 32, 32]      (recursive)
│    │    │    │    └─BatchNorm2d (norm1): 5-799        [1, 1248, 32, 32]    --                   [1, 1248, 32, 32]    (recursive)
│    │    │    │    └─ReLU (relu1): 5-800               [1, 1248, 32, 32]    --                   [1, 1248, 32, 32]    (recursive)
│    │    │    │    └─Conv2d (conv1): 5-801             [1, 1248, 32, 32]    [1, 1]               [1, 128, 32, 32]     (recursive)
│    │    │    │    └─BatchNorm2d (norm2): 5-802        [1, 128, 32, 32]     --                   [1, 128, 32, 32]     (recursive)
│    │    │    │    └─ReLU (relu2): 5-803               [1, 128, 32, 32]     --                   [1, 128, 32, 32]     (recursive)
│    │    │    │    └─Conv2d (conv2): 5-804             [1, 128, 32, 32]     [3, 3]               [1, 32, 32, 32]      (recursive)
│    │    │    └─_DenseLayer (denselayer33): 4-159      [1, 256, 32, 32]     --                   [1, 32, 32, 32]      (recursive)
│    │    │    │    └─BatchNorm2d (norm1): 5-805        [1, 1280, 32, 32]    --                   [1, 1280, 32, 32]    (recursive)
│    │    │    │    └─ReLU (relu1): 5-806               [1, 1280, 32, 32]    --                   [1, 1280, 32, 32]    (recursive)
│    │    │    │    └─Conv2d (conv1): 5-807             [1, 1280, 32, 32]    [1, 1]               [1, 128, 32, 32]     (recursive)
│    │    │    │    └─BatchNorm2d (norm2): 5-808        [1, 128, 32, 32]     --                   [1, 128, 32, 32]     (recursive)
│    │    │    │    └─ReLU (relu2): 5-809               [1, 128, 32, 32]     --                   [1, 128, 32, 32]     (recursive)
│    │    │    │    └─Conv2d (conv2): 5-810             [1, 128, 32, 32]     [3, 3]               [1, 32, 32, 32]      (recursive)
│    │    │    └─_DenseLayer (denselayer34): 4-160      [1, 256, 32, 32]     --                   [1, 32, 32, 32]      (recursive)
│    │    │    │    └─BatchNorm2d (norm1): 5-811        [1, 1312, 32, 32]    --                   [1, 1312, 32, 32]    (recursive)
│    │    │    │    └─ReLU (relu1): 5-812               [1, 1312, 32, 32]    --                   [1, 1312, 32, 32]    (recursive)
│    │    │    │    └─Conv2d (conv1): 5-813             [1, 1312, 32, 32]    [1, 1]               [1, 128, 32, 32]     (recursive)
│    │    │    │    └─BatchNorm2d (norm2): 5-814        [1, 128, 32, 32]     --                   [1, 128, 32, 32]     (recursive)
│    │    │    │    └─ReLU (relu2): 5-815               [1, 128, 32, 32]     --                   [1, 128, 32, 32]     (recursive)
│    │    │    │    └─Conv2d (conv2): 5-816             [1, 128, 32, 32]     [3, 3]               [1, 32, 32, 32]      (recursive)
│    │    │    └─_DenseLayer (denselayer35): 4-161      [1, 256, 32, 32]     --                   [1, 32, 32, 32]      (recursive)
│    │    │    │    └─BatchNorm2d (norm1): 5-817        [1, 1344, 32, 32]    --                   [1, 1344, 32, 32]    (recursive)
│    │    │    │    └─ReLU (relu1): 5-818               [1, 1344, 32, 32]    --                   [1, 1344, 32, 32]    (recursive)
│    │    │    │    └─Conv2d (conv1): 5-819             [1, 1344, 32, 32]    [1, 1]               [1, 128, 32, 32]     (recursive)
│    │    │    │    └─BatchNorm2d (norm2): 5-820        [1, 128, 32, 32]     --                   [1, 128, 32, 32]     (recursive)
│    │    │    │    └─ReLU (relu2): 5-821               [1, 128, 32, 32]     --                   [1, 128, 32, 32]     (recursive)
│    │    │    │    └─Conv2d (conv2): 5-822             [1, 128, 32, 32]     [3, 3]               [1, 32, 32, 32]      (recursive)
│    │    │    └─_DenseLayer (denselayer36): 4-162      [1, 256, 32, 32]     --                   [1, 32, 32, 32]      (recursive)
│    │    │    │    └─BatchNorm2d (norm1): 5-823        [1, 1376, 32, 32]    --                   [1, 1376, 32, 32]    (recursive)
│    │    │    │    └─ReLU (relu1): 5-824               [1, 1376, 32, 32]    --                   [1, 1376, 32, 32]    (recursive)
│    │    │    │    └─Conv2d (conv1): 5-825             [1, 1376, 32, 32]    [1, 1]               [1, 128, 32, 32]     (recursive)
│    │    │    │    └─BatchNorm2d (norm2): 5-826        [1, 128, 32, 32]     --                   [1, 128, 32, 32]     (recursive)
│    │    │    │    └─ReLU (relu2): 5-827               [1, 128, 32, 32]     --                   [1, 128, 32, 32]     (recursive)
│    │    │    │    └─Conv2d (conv2): 5-828             [1, 128, 32, 32]     [3, 3]               [1, 32, 32, 32]      (recursive)
│    │    │    └─_DenseLayer (denselayer37): 4-163      [1, 256, 32, 32]     --                   [1, 32, 32, 32]      (recursive)
│    │    │    │    └─BatchNorm2d (norm1): 5-829        [1, 1408, 32, 32]    --                   [1, 1408, 32, 32]    (recursive)
│    │    │    │    └─ReLU (relu1): 5-830               [1, 1408, 32, 32]    --                   [1, 1408, 32, 32]    (recursive)
│    │    │    │    └─Conv2d (conv1): 5-831             [1, 1408, 32, 32]    [1, 1]               [1, 128, 32, 32]     (recursive)
│    │    │    │    └─BatchNorm2d (norm2): 5-832        [1, 128, 32, 32]     --                   [1, 128, 32, 32]     (recursive)
│    │    │    │    └─ReLU (relu2): 5-833               [1, 128, 32, 32]     --                   [1, 128, 32, 32]     (recursive)
│    │    │    │    └─Conv2d (conv2): 5-834             [1, 128, 32, 32]     [3, 3]               [1, 32, 32, 32]      (recursive)
│    │    │    └─_DenseLayer (denselayer38): 4-164      [1, 256, 32, 32]     --                   [1, 32, 32, 32]      (recursive)
│    │    │    │    └─BatchNorm2d (norm1): 5-835        [1, 1440, 32, 32]    --                   [1, 1440, 32, 32]    (recursive)
│    │    │    │    └─ReLU (relu1): 5-836               [1, 1440, 32, 32]    --                   [1, 1440, 32, 32]    (recursive)
│    │    │    │    └─Conv2d (conv1): 5-837             [1, 1440, 32, 32]    [1, 1]               [1, 128, 32, 32]     (recursive)
│    │    │    │    └─BatchNorm2d (norm2): 5-838        [1, 128, 32, 32]     --                   [1, 128, 32, 32]     (recursive)
│    │    │    │    └─ReLU (relu2): 5-839               [1, 128, 32, 32]     --                   [1, 128, 32, 32]     (recursive)
│    │    │    │    └─Conv2d (conv2): 5-840             [1, 128, 32, 32]     [3, 3]               [1, 32, 32, 32]      (recursive)
│    │    │    └─_DenseLayer (denselayer39): 4-165      [1, 256, 32, 32]     --                   [1, 32, 32, 32]      (recursive)
│    │    │    │    └─BatchNorm2d (norm1): 5-841        [1, 1472, 32, 32]    --                   [1, 1472, 32, 32]    (recursive)
│    │    │    │    └─ReLU (relu1): 5-842               [1, 1472, 32, 32]    --                   [1, 1472, 32, 32]    (recursive)
│    │    │    │    └─Conv2d (conv1): 5-843             [1, 1472, 32, 32]    [1, 1]               [1, 128, 32, 32]     (recursive)
│    │    │    │    └─BatchNorm2d (norm2): 5-844        [1, 128, 32, 32]     --                   [1, 128, 32, 32]     (recursive)
│    │    │    │    └─ReLU (relu2): 5-845               [1, 128, 32, 32]     --                   [1, 128, 32, 32]     (recursive)
│    │    │    │    └─Conv2d (conv2): 5-846             [1, 128, 32, 32]     [3, 3]               [1, 32, 32, 32]      (recursive)
│    │    │    └─_DenseLayer (denselayer40): 4-166      [1, 256, 32, 32]     --                   [1, 32, 32, 32]      (recursive)
│    │    │    │    └─BatchNorm2d (norm1): 5-847        [1, 1504, 32, 32]    --                   [1, 1504, 32, 32]    (recursive)
│    │    │    │    └─ReLU (relu1): 5-848               [1, 1504, 32, 32]    --                   [1, 1504, 32, 32]    (recursive)
│    │    │    │    └─Conv2d (conv1): 5-849             [1, 1504, 32, 32]    [1, 1]               [1, 128, 32, 32]     (recursive)
│    │    │    │    └─BatchNorm2d (norm2): 5-850        [1, 128, 32, 32]     --                   [1, 128, 32, 32]     (recursive)
│    │    │    │    └─ReLU (relu2): 5-851               [1, 128, 32, 32]     --                   [1, 128, 32, 32]     (recursive)
│    │    │    │    └─Conv2d (conv2): 5-852             [1, 128, 32, 32]     [3, 3]               [1, 32, 32, 32]      (recursive)
│    │    │    └─_DenseLayer (denselayer41): 4-167      [1, 256, 32, 32]     --                   [1, 32, 32, 32]      (recursive)
│    │    │    │    └─BatchNorm2d (norm1): 5-853        [1, 1536, 32, 32]    --                   [1, 1536, 32, 32]    (recursive)
│    │    │    │    └─ReLU (relu1): 5-854               [1, 1536, 32, 32]    --                   [1, 1536, 32, 32]    (recursive)
│    │    │    │    └─Conv2d (conv1): 5-855             [1, 1536, 32, 32]    [1, 1]               [1, 128, 32, 32]     (recursive)
│    │    │    │    └─BatchNorm2d (norm2): 5-856        [1, 128, 32, 32]     --                   [1, 128, 32, 32]     (recursive)
│    │    │    │    └─ReLU (relu2): 5-857               [1, 128, 32, 32]     --                   [1, 128, 32, 32]     (recursive)
│    │    │    │    └─Conv2d (conv2): 5-858             [1, 128, 32, 32]     [3, 3]               [1, 32, 32, 32]      (recursive)
│    │    │    └─_DenseLayer (denselayer42): 4-168      [1, 256, 32, 32]     --                   [1, 32, 32, 32]      (recursive)
│    │    │    │    └─BatchNorm2d (norm1): 5-859        [1, 1568, 32, 32]    --                   [1, 1568, 32, 32]    (recursive)
│    │    │    │    └─ReLU (relu1): 5-860               [1, 1568, 32, 32]    --                   [1, 1568, 32, 32]    (recursive)
│    │    │    │    └─Conv2d (conv1): 5-861             [1, 1568, 32, 32]    [1, 1]               [1, 128, 32, 32]     (recursive)
│    │    │    │    └─BatchNorm2d (norm2): 5-862        [1, 128, 32, 32]     --                   [1, 128, 32, 32]     (recursive)
│    │    │    │    └─ReLU (relu2): 5-863               [1, 128, 32, 32]     --                   [1, 128, 32, 32]     (recursive)
│    │    │    │    └─Conv2d (conv2): 5-864             [1, 128, 32, 32]     [3, 3]               [1, 32, 32, 32]      (recursive)
│    │    │    └─_DenseLayer (denselayer43): 4-169      [1, 256, 32, 32]     --                   [1, 32, 32, 32]      (recursive)
│    │    │    │    └─BatchNorm2d (norm1): 5-865        [1, 1600, 32, 32]    --                   [1, 1600, 32, 32]    (recursive)
│    │    │    │    └─ReLU (relu1): 5-866               [1, 1600, 32, 32]    --                   [1, 1600, 32, 32]    (recursive)
│    │    │    │    └─Conv2d (conv1): 5-867             [1, 1600, 32, 32]    [1, 1]               [1, 128, 32, 32]     (recursive)
│    │    │    │    └─BatchNorm2d (norm2): 5-868        [1, 128, 32, 32]     --                   [1, 128, 32, 32]     (recursive)
│    │    │    │    └─ReLU (relu2): 5-869               [1, 128, 32, 32]     --                   [1, 128, 32, 32]     (recursive)
│    │    │    │    └─Conv2d (conv2): 5-870             [1, 128, 32, 32]     [3, 3]               [1, 32, 32, 32]      (recursive)
│    │    │    └─_DenseLayer (denselayer44): 4-170      [1, 256, 32, 32]     --                   [1, 32, 32, 32]      (recursive)
│    │    │    │    └─BatchNorm2d (norm1): 5-871        [1, 1632, 32, 32]    --                   [1, 1632, 32, 32]    (recursive)
│    │    │    │    └─ReLU (relu1): 5-872               [1, 1632, 32, 32]    --                   [1, 1632, 32, 32]    (recursive)
│    │    │    │    └─Conv2d (conv1): 5-873             [1, 1632, 32, 32]    [1, 1]               [1, 128, 32, 32]     (recursive)
│    │    │    │    └─BatchNorm2d (norm2): 5-874        [1, 128, 32, 32]     --                   [1, 128, 32, 32]     (recursive)
│    │    │    │    └─ReLU (relu2): 5-875               [1, 128, 32, 32]     --                   [1, 128, 32, 32]     (recursive)
│    │    │    │    └─Conv2d (conv2): 5-876             [1, 128, 32, 32]     [3, 3]               [1, 32, 32, 32]      (recursive)
│    │    │    └─_DenseLayer (denselayer45): 4-171      [1, 256, 32, 32]     --                   [1, 32, 32, 32]      (recursive)
│    │    │    │    └─BatchNorm2d (norm1): 5-877        [1, 1664, 32, 32]    --                   [1, 1664, 32, 32]    (recursive)
│    │    │    │    └─ReLU (relu1): 5-878               [1, 1664, 32, 32]    --                   [1, 1664, 32, 32]    (recursive)
│    │    │    │    └─Conv2d (conv1): 5-879             [1, 1664, 32, 32]    [1, 1]               [1, 128, 32, 32]     (recursive)
│    │    │    │    └─BatchNorm2d (norm2): 5-880        [1, 128, 32, 32]     --                   [1, 128, 32, 32]     (recursive)
│    │    │    │    └─ReLU (relu2): 5-881               [1, 128, 32, 32]     --                   [1, 128, 32, 32]     (recursive)
│    │    │    │    └─Conv2d (conv2): 5-882             [1, 128, 32, 32]     [3, 3]               [1, 32, 32, 32]      (recursive)
│    │    │    └─_DenseLayer (denselayer46): 4-172      [1, 256, 32, 32]     --                   [1, 32, 32, 32]      (recursive)
│    │    │    │    └─BatchNorm2d (norm1): 5-883        [1, 1696, 32, 32]    --                   [1, 1696, 32, 32]    (recursive)
│    │    │    │    └─ReLU (relu1): 5-884               [1, 1696, 32, 32]    --                   [1, 1696, 32, 32]    (recursive)
│    │    │    │    └─Conv2d (conv1): 5-885             [1, 1696, 32, 32]    [1, 1]               [1, 128, 32, 32]     (recursive)
│    │    │    │    └─BatchNorm2d (norm2): 5-886        [1, 128, 32, 32]     --                   [1, 128, 32, 32]     (recursive)
│    │    │    │    └─ReLU (relu2): 5-887               [1, 128, 32, 32]     --                   [1, 128, 32, 32]     (recursive)
│    │    │    │    └─Conv2d (conv2): 5-888             [1, 128, 32, 32]     [3, 3]               [1, 32, 32, 32]      (recursive)
│    │    │    └─_DenseLayer (denselayer47): 4-173      [1, 256, 32, 32]     --                   [1, 32, 32, 32]      (recursive)
│    │    │    │    └─BatchNorm2d (norm1): 5-889        [1, 1728, 32, 32]    --                   [1, 1728, 32, 32]    (recursive)
│    │    │    │    └─ReLU (relu1): 5-890               [1, 1728, 32, 32]    --                   [1, 1728, 32, 32]    (recursive)
│    │    │    │    └─Conv2d (conv1): 5-891             [1, 1728, 32, 32]    [1, 1]               [1, 128, 32, 32]     (recursive)
│    │    │    │    └─BatchNorm2d (norm2): 5-892        [1, 128, 32, 32]     --                   [1, 128, 32, 32]     (recursive)
│    │    │    │    └─ReLU (relu2): 5-893               [1, 128, 32, 32]     --                   [1, 128, 32, 32]     (recursive)
│    │    │    │    └─Conv2d (conv2): 5-894             [1, 128, 32, 32]     [3, 3]               [1, 32, 32, 32]      (recursive)
│    │    │    └─_DenseLayer (denselayer48): 4-174      [1, 256, 32, 32]     --                   [1, 32, 32, 32]      (recursive)
│    │    │    │    └─BatchNorm2d (norm1): 5-895        [1, 1760, 32, 32]    --                   [1, 1760, 32, 32]    (recursive)
│    │    │    │    └─ReLU (relu1): 5-896               [1, 1760, 32, 32]    --                   [1, 1760, 32, 32]    (recursive)
│    │    │    │    └─Conv2d (conv1): 5-897             [1, 1760, 32, 32]    [1, 1]               [1, 128, 32, 32]     (recursive)
│    │    │    │    └─BatchNorm2d (norm2): 5-898        [1, 128, 32, 32]     --                   [1, 128, 32, 32]     (recursive)
│    │    │    │    └─ReLU (relu2): 5-899               [1, 128, 32, 32]     --                   [1, 128, 32, 32]     (recursive)
│    │    │    │    └─Conv2d (conv2): 5-900             [1, 128, 32, 32]     [3, 3]               [1, 32, 32, 32]      (recursive)
│    │    └─_DenseBlock (denseblock3): 3-27             [1, 256, 32, 32]     --                   [1, 1792, 32, 32]    (recursive)
│    │    │    └─_DenseLayer (denselayer1): 4-175       [1, 256, 32, 32]     --                   [1, 32, 32, 32]      (recursive)
│    │    │    │    └─BatchNorm2d (norm1): 5-901        [1, 256, 32, 32]     --                   [1, 256, 32, 32]     (recursive)
│    │    │    │    └─ReLU (relu1): 5-902               [1, 256, 32, 32]     --                   [1, 256, 32, 32]     (recursive)
│    │    │    │    └─Conv2d (conv1): 5-903             [1, 256, 32, 32]     [1, 1]               [1, 128, 32, 32]     (recursive)
│    │    │    │    └─BatchNorm2d (norm2): 5-904        [1, 128, 32, 32]     --                   [1, 128, 32, 32]     (recursive)
│    │    │    │    └─ReLU (relu2): 5-905               [1, 128, 32, 32]     --                   [1, 128, 32, 32]     (recursive)
│    │    │    │    └─Conv2d (conv2): 5-906             [1, 128, 32, 32]     [3, 3]               [1, 32, 32, 32]      (recursive)
│    │    │    └─_DenseLayer (denselayer2): 4-176       [1, 256, 32, 32]     --                   [1, 32, 32, 32]      (recursive)
│    │    │    │    └─BatchNorm2d (norm1): 5-907        [1, 288, 32, 32]     --                   [1, 288, 32, 32]     (recursive)
│    │    │    │    └─ReLU (relu1): 5-908               [1, 288, 32, 32]     --                   [1, 288, 32, 32]     (recursive)
│    │    │    │    └─Conv2d (conv1): 5-909             [1, 288, 32, 32]     [1, 1]               [1, 128, 32, 32]     (recursive)
│    │    │    │    └─BatchNorm2d (norm2): 5-910        [1, 128, 32, 32]     --                   [1, 128, 32, 32]     (recursive)
│    │    │    │    └─ReLU (relu2): 5-911               [1, 128, 32, 32]     --                   [1, 128, 32, 32]     (recursive)
│    │    │    │    └─Conv2d (conv2): 5-912             [1, 128, 32, 32]     [3, 3]               [1, 32, 32, 32]      (recursive)
│    │    │    └─_DenseLayer (denselayer3): 4-177       [1, 256, 32, 32]     --                   [1, 32, 32, 32]      (recursive)
│    │    │    │    └─BatchNorm2d (norm1): 5-913        [1, 320, 32, 32]     --                   [1, 320, 32, 32]     (recursive)
│    │    │    │    └─ReLU (relu1): 5-914               [1, 320, 32, 32]     --                   [1, 320, 32, 32]     (recursive)
│    │    │    │    └─Conv2d (conv1): 5-915             [1, 320, 32, 32]     [1, 1]               [1, 128, 32, 32]     (recursive)
│    │    │    │    └─BatchNorm2d (norm2): 5-916        [1, 128, 32, 32]     --                   [1, 128, 32, 32]     (recursive)
│    │    │    │    └─ReLU (relu2): 5-917               [1, 128, 32, 32]     --                   [1, 128, 32, 32]     (recursive)
│    │    │    │    └─Conv2d (conv2): 5-918             [1, 128, 32, 32]     [3, 3]               [1, 32, 32, 32]      (recursive)
│    │    │    └─_DenseLayer (denselayer4): 4-178       [1, 256, 32, 32]     --                   [1, 32, 32, 32]      (recursive)
│    │    │    │    └─BatchNorm2d (norm1): 5-919        [1, 352, 32, 32]     --                   [1, 352, 32, 32]     (recursive)
│    │    │    │    └─ReLU (relu1): 5-920               [1, 352, 32, 32]     --                   [1, 352, 32, 32]     (recursive)
│    │    │    │    └─Conv2d (conv1): 5-921             [1, 352, 32, 32]     [1, 1]               [1, 128, 32, 32]     (recursive)
│    │    │    │    └─BatchNorm2d (norm2): 5-922        [1, 128, 32, 32]     --                   [1, 128, 32, 32]     (recursive)
│    │    │    │    └─ReLU (relu2): 5-923               [1, 128, 32, 32]     --                   [1, 128, 32, 32]     (recursive)
│    │    │    │    └─Conv2d (conv2): 5-924             [1, 128, 32, 32]     [3, 3]               [1, 32, 32, 32]      (recursive)
│    │    │    └─_DenseLayer (denselayer5): 4-179       [1, 256, 32, 32]     --                   [1, 32, 32, 32]      (recursive)
│    │    │    │    └─BatchNorm2d (norm1): 5-925        [1, 384, 32, 32]     --                   [1, 384, 32, 32]     (recursive)
│    │    │    │    └─ReLU (relu1): 5-926               [1, 384, 32, 32]     --                   [1, 384, 32, 32]     (recursive)
│    │    │    │    └─Conv2d (conv1): 5-927             [1, 384, 32, 32]     [1, 1]               [1, 128, 32, 32]     (recursive)
│    │    │    │    └─BatchNorm2d (norm2): 5-928        [1, 128, 32, 32]     --                   [1, 128, 32, 32]     (recursive)
│    │    │    │    └─ReLU (relu2): 5-929               [1, 128, 32, 32]     --                   [1, 128, 32, 32]     (recursive)
│    │    │    │    └─Conv2d (conv2): 5-930             [1, 128, 32, 32]     [3, 3]               [1, 32, 32, 32]      (recursive)
│    │    │    └─_DenseLayer (denselayer6): 4-180       [1, 256, 32, 32]     --                   [1, 32, 32, 32]      (recursive)
│    │    │    │    └─BatchNorm2d (norm1): 5-931        [1, 416, 32, 32]     --                   [1, 416, 32, 32]     (recursive)
│    │    │    │    └─ReLU (relu1): 5-932               [1, 416, 32, 32]     --                   [1, 416, 32, 32]     (recursive)
│    │    │    │    └─Conv2d (conv1): 5-933             [1, 416, 32, 32]     [1, 1]               [1, 128, 32, 32]     (recursive)
│    │    │    │    └─BatchNorm2d (norm2): 5-934        [1, 128, 32, 32]     --                   [1, 128, 32, 32]     (recursive)
│    │    │    │    └─ReLU (relu2): 5-935               [1, 128, 32, 32]     --                   [1, 128, 32, 32]     (recursive)
│    │    │    │    └─Conv2d (conv2): 5-936             [1, 128, 32, 32]     [3, 3]               [1, 32, 32, 32]      (recursive)
│    │    │    └─_DenseLayer (denselayer7): 4-181       [1, 256, 32, 32]     --                   [1, 32, 32, 32]      (recursive)
│    │    │    │    └─BatchNorm2d (norm1): 5-937        [1, 448, 32, 32]     --                   [1, 448, 32, 32]     (recursive)
│    │    │    │    └─ReLU (relu1): 5-938               [1, 448, 32, 32]     --                   [1, 448, 32, 32]     (recursive)
│    │    │    │    └─Conv2d (conv1): 5-939             [1, 448, 32, 32]     [1, 1]               [1, 128, 32, 32]     (recursive)
│    │    │    │    └─BatchNorm2d (norm2): 5-940        [1, 128, 32, 32]     --                   [1, 128, 32, 32]     (recursive)
│    │    │    │    └─ReLU (relu2): 5-941               [1, 128, 32, 32]     --                   [1, 128, 32, 32]     (recursive)
│    │    │    │    └─Conv2d (conv2): 5-942             [1, 128, 32, 32]     [3, 3]               [1, 32, 32, 32]      (recursive)
│    │    │    └─_DenseLayer (denselayer8): 4-182       [1, 256, 32, 32]     --                   [1, 32, 32, 32]      (recursive)
│    │    │    │    └─BatchNorm2d (norm1): 5-943        [1, 480, 32, 32]     --                   [1, 480, 32, 32]     (recursive)
│    │    │    │    └─ReLU (relu1): 5-944               [1, 480, 32, 32]     --                   [1, 480, 32, 32]     (recursive)
…
│    │    │    └─_DenseLayer (denselayer18): 4-290      [1, 896, 16, 16]     --                   [1, 32, 16, 16]      (recursive)
│    │    │    │    └─BatchNorm2d (norm1): 5-1483       [1, 1440, 16, 16]    --                   [1, 1440, 16, 16]    (recursive)
│    │    │    │    └─ReLU (relu1): 5-1484              [1, 1440, 16, 16]    --                   [1, 1440, 16, 16]    (recursive)
│    │    │    │    └─Conv2d (conv1): 5-1485            [1, 1440, 16, 16]    [1, 1]               [1, 128, 16, 16]     (recursive)
│    │    │    │    └─BatchNorm2d (norm2): 5-1486       [1, 128, 16, 16]     --                   [1, 128, 16, 16]     (recursive)
│    │    │    │    └─ReLU (relu2): 5-1487              [1, 128, 16, 16]     --                   [1, 128, 16, 16]     (recursive)
│    │    │    │    └─Conv2d (conv2): 5-1488            [1, 128, 16, 16]     [3, 3]               [1, 32, 16, 16]      (recursive)
│    │    │    └─_DenseLayer (denselayer19): 4-291      [1, 896, 16, 16]     --                   [1, 32, 16, 16]      (recursive)
│    │    │    │    └─BatchNorm2d (norm1): 5-1489       [1, 1472, 16, 16]    --                   [1, 1472, 16, 16]    (recursive)
│    │    │    │    └─ReLU (relu1): 5-1490              [1, 1472, 16, 16]    --                   [1, 1472, 16, 16]    (recursive)
│    │    │    │    └─Conv2d (conv1): 5-1491            [1, 1472, 16, 16]    [1, 1]               [1, 128, 16, 16]     (recursive)
│    │    │    │    └─BatchNorm2d (norm2): 5-1492       [1, 128, 16, 16]     --                   [1, 128, 16, 16]     (recursive)
│    │    │    │    └─ReLU (relu2): 5-1493              [1, 128, 16, 16]     --                   [1, 128, 16, 16]     (recursive)
│    │    │    │    └─Conv2d (conv2): 5-1494            [1, 128, 16, 16]     [3, 3]               [1, 32, 16, 16]      (recursive)
│    │    │    └─_DenseLayer (denselayer20): 4-292      [1, 896, 16, 16]     --                   [1, 32, 16, 16]      (recursive)
│    │    │    │    └─BatchNorm2d (norm1): 5-1495       [1, 1504, 16, 16]    --                   [1, 1504, 16, 16]    (recursive)
│    │    │    │    └─ReLU (relu1): 5-1496              [1, 1504, 16, 16]    --                   [1, 1504, 16, 16]    (recursive)
│    │    │    │    └─Conv2d (conv1): 5-1497            [1, 1504, 16, 16]    [1, 1]               [1, 128, 16, 16]     (recursive)
│    │    │    │    └─BatchNorm2d (norm2): 5-1498       [1, 128, 16, 16]     --                   [1, 128, 16, 16]     (recursive)
│    │    │    │    └─ReLU (relu2): 5-1499              [1, 128, 16, 16]     --                   [1, 128, 16, 16]     (recursive)
│    │    │    │    └─Conv2d (conv2): 5-1500            [1, 128, 16, 16]     [3, 3]               [1, 32, 16, 16]      (recursive)
│    │    │    └─_DenseLayer (denselayer21): 4-293      [1, 896, 16, 16]     --                   [1, 32, 16, 16]      (recursive)
│    │    │    │    └─BatchNorm2d (norm1): 5-1501       [1, 1536, 16, 16]    --                   [1, 1536, 16, 16]    (recursive)
│    │    │    │    └─ReLU (relu1): 5-1502              [1, 1536, 16, 16]    --                   [1, 1536, 16, 16]    (recursive)
│    │    │    │    └─Conv2d (conv1): 5-1503            [1, 1536, 16, 16]    [1, 1]               [1, 128, 16, 16]     (recursive)
│    │    │    │    └─BatchNorm2d (norm2): 5-1504       [1, 128, 16, 16]     --                   [1, 128, 16, 16]     (recursive)
│    │    │    │    └─ReLU (relu2): 5-1505              [1, 128, 16, 16]     --                   [1, 128, 16, 16]     (recursive)
│    │    │    │    └─Conv2d (conv2): 5-1506            [1, 128, 16, 16]     [3, 3]               [1, 32, 16, 16]      (recursive)
│    │    │    └─_DenseLayer (denselayer22): 4-294      [1, 896, 16, 16]     --                   [1, 32, 16, 16]      (recursive)
│    │    │    │    └─BatchNorm2d (norm1): 5-1507       [1, 1568, 16, 16]    --                   [1, 1568, 16, 16]    (recursive)
│    │    │    │    └─ReLU (relu1): 5-1508              [1, 1568, 16, 16]    --                   [1, 1568, 16, 16]    (recursive)
│    │    │    │    └─Conv2d (conv1): 5-1509            [1, 1568, 16, 16]    [1, 1]               [1, 128, 16, 16]     (recursive)
│    │    │    │    └─BatchNorm2d (norm2): 5-1510       [1, 128, 16, 16]     --                   [1, 128, 16, 16]     (recursive)
│    │    │    │    └─ReLU (relu2): 5-1511              [1, 128, 16, 16]     --                   [1, 128, 16, 16]     (recursive)
│    │    │    │    └─Conv2d (conv2): 5-1512            [1, 128, 16, 16]     [3, 3]               [1, 32, 16, 16]      (recursive)
│    │    │    └─_DenseLayer (denselayer23): 4-295      [1, 896, 16, 16]     --                   [1, 32, 16, 16]      (recursive)
│    │    │    │    └─BatchNorm2d (norm1): 5-1513       [1, 1600, 16, 16]    --                   [1, 1600, 16, 16]    (recursive)
│    │    │    │    └─ReLU (relu1): 5-1514              [1, 1600, 16, 16]    --                   [1, 1600, 16, 16]    (recursive)
│    │    │    │    └─Conv2d (conv1): 5-1515            [1, 1600, 16, 16]    [1, 1]               [1, 128, 16, 16]     (recursive)
│    │    │    │    └─BatchNorm2d (norm2): 5-1516       [1, 128, 16, 16]     --                   [1, 128, 16, 16]     (recursive)
│    │    │    │    └─ReLU (relu2): 5-1517              [1, 128, 16, 16]     --                   [1, 128, 16, 16]     (recursive)
│    │    │    │    └─Conv2d (conv2): 5-1518            [1, 128, 16, 16]     [3, 3]               [1, 32, 16, 16]      (recursive)
│    │    │    └─_DenseLayer (denselayer24): 4-296      [1, 896, 16, 16]     --                   [1, 32, 16, 16]      (recursive)
│    │    │    │    └─BatchNorm2d (norm1): 5-1519       [1, 1632, 16, 16]    --                   [1, 1632, 16, 16]    (recursive)
│    │    │    │    └─ReLU (relu1): 5-1520              [1, 1632, 16, 16]    --                   [1, 1632, 16, 16]    (recursive)
│    │    │    │    └─Conv2d (conv1): 5-1521            [1, 1632, 16, 16]    [1, 1]               [1, 128, 16, 16]     (recursive)
│    │    │    │    └─BatchNorm2d (norm2): 5-1522       [1, 128, 16, 16]     --                   [1, 128, 16, 16]     (recursive)
│    │    │    │    └─ReLU (relu2): 5-1523              [1, 128, 16, 16]     --                   [1, 128, 16, 16]     (recursive)
│    │    │    │    └─Conv2d (conv2): 5-1524            [1, 128, 16, 16]     [3, 3]               [1, 32, 16, 16]      (recursive)
│    │    │    └─_DenseLayer (denselayer25): 4-297      [1, 896, 16, 16]     --                   [1, 32, 16, 16]      (recursive)
│    │    │    │    └─BatchNorm2d (norm1): 5-1525       [1, 1664, 16, 16]    --                   [1, 1664, 16, 16]    (recursive)
│    │    │    │    └─ReLU (relu1): 5-1526              [1, 1664, 16, 16]    --                   [1, 1664, 16, 16]    (recursive)
│    │    │    │    └─Conv2d (conv1): 5-1527            [1, 1664, 16, 16]    [1, 1]               [1, 128, 16, 16]     (recursive)
│    │    │    │    └─BatchNorm2d (norm2): 5-1528       [1, 128, 16, 16]     --                   [1, 128, 16, 16]     (recursive)
│    │    │    │    └─ReLU (relu2): 5-1529              [1, 128, 16, 16]     --                   [1, 128, 16, 16]     (recursive)
│    │    │    │    └─Conv2d (conv2): 5-1530            [1, 128, 16, 16]     [3, 3]               [1, 32, 16, 16]      (recursive)
│    │    │    └─_DenseLayer (denselayer26): 4-298      [1, 896, 16, 16]     --                   [1, 32, 16, 16]      (recursive)
│    │    │    │    └─BatchNorm2d (norm1): 5-1531       [1, 1696, 16, 16]    --                   [1, 1696, 16, 16]    (recursive)
│    │    │    │    └─ReLU (relu1): 5-1532              [1, 1696, 16, 16]    --                   [1, 1696, 16, 16]    (recursive)
│    │    │    │    └─Conv2d (conv1): 5-1533            [1, 1696, 16, 16]    [1, 1]               [1, 128, 16, 16]     (recursive)
│    │    │    │    └─BatchNorm2d (norm2): 5-1534       [1, 128, 16, 16]     --                   [1, 128, 16, 16]     (recursive)
│    │    │    │    └─ReLU (relu2): 5-1535              [1, 128, 16, 16]     --                   [1, 128, 16, 16]     (recursive)
│    │    │    │    └─Conv2d (conv2): 5-1536            [1, 128, 16, 16]     [3, 3]               [1, 32, 16, 16]      (recursive)
│    │    │    └─_DenseLayer (denselayer27): 4-299      [1, 896, 16, 16]     --                   [1, 32, 16, 16]      (recursive)
│    │    │    │    └─BatchNorm2d (norm1): 5-1537       [1, 1728, 16, 16]    --                   [1, 1728, 16, 16]    (recursive)
│    │    │    │    └─ReLU (relu1): 5-1538              [1, 1728, 16, 16]    --                   [1, 1728, 16, 16]    (recursive)
│    │    │    │    └─Conv2d (conv1): 5-1539            [1, 1728, 16, 16]    [1, 1]               [1, 128, 16, 16]     (recursive)
│    │    │    │    └─BatchNorm2d (norm2): 5-1540       [1, 128, 16, 16]     --                   [1, 128, 16, 16]     (recursive)
│    │    │    │    └─ReLU (relu2): 5-1541              [1, 128, 16, 16]     --                   [1, 128, 16, 16]     (recursive)
│    │    │    │    └─Conv2d (conv2): 5-1542            [1, 128, 16, 16]     [3, 3]               [1, 32, 16, 16]      (recursive)
│    │    │    └─_DenseLayer (denselayer28): 4-300      [1, 896, 16, 16]     --                   [1, 32, 16, 16]      (recursive)
│    │    │    │    └─BatchNorm2d (norm1): 5-1543       [1, 1760, 16, 16]    --                   [1, 1760, 16, 16]    (recursive)
│    │    │    │    └─ReLU (relu1): 5-1544              [1, 1760, 16, 16]    --                   [1, 1760, 16, 16]    (recursive)
│    │    │    │    └─Conv2d (conv1): 5-1545            [1, 1760, 16, 16]    [1, 1]               [1, 128, 16, 16]     (recursive)
│    │    │    │    └─BatchNorm2d (norm2): 5-1546       [1, 128, 16, 16]     --                   [1, 128, 16, 16]     (recursive)
│    │    │    │    └─ReLU (relu2): 5-1547              [1, 128, 16, 16]     --                   [1, 128, 16, 16]     (recursive)
│    │    │    │    └─Conv2d (conv2): 5-1548            [1, 128, 16, 16]     [3, 3]               [1, 32, 16, 16]      (recursive)
│    │    │    └─_DenseLayer (denselayer29): 4-301      [1, 896, 16, 16]     --                   [1, 32, 16, 16]      (recursive)
│    │    │    │    └─BatchNorm2d (norm1): 5-1549       [1, 1792, 16, 16]    --                   [1, 1792, 16, 16]    (recursive)
│    │    │    │    └─ReLU (relu1): 5-1550              [1, 1792, 16, 16]    --                   [1, 1792, 16, 16]    (recursive)
│    │    │    │    └─Conv2d (conv1): 5-1551            [1, 1792, 16, 16]    [1, 1]               [1, 128, 16, 16]     (recursive)
│    │    │    │    └─BatchNorm2d (norm2): 5-1552       [1, 128, 16, 16]     --                   [1, 128, 16, 16]     (recursive)
│    │    │    │    └─ReLU (relu2): 5-1553              [1, 128, 16, 16]     --                   [1, 128, 16, 16]     (recursive)
│    │    │    │    └─Conv2d (conv2): 5-1554            [1, 128, 16, 16]     [3, 3]               [1, 32, 16, 16]      (recursive)
│    │    │    └─_DenseLayer (denselayer30): 4-302      [1, 896, 16, 16]     --                   [1, 32, 16, 16]      (recursive)
│    │    │    │    └─BatchNorm2d (norm1): 5-1555       [1, 1824, 16, 16]    --                   [1, 1824, 16, 16]    (recursive)
│    │    │    │    └─ReLU (relu1): 5-1556              [1, 1824, 16, 16]    --                   [1, 1824, 16, 16]    (recursive)
│    │    │    │    └─Conv2d (conv1): 5-1557            [1, 1824, 16, 16]    [1, 1]               [1, 128, 16, 16]     (recursive)
│    │    │    │    └─BatchNorm2d (norm2): 5-1558       [1, 128, 16, 16]     --                   [1, 128, 16, 16]     (recursive)
│    │    │    │    └─ReLU (relu2): 5-1559              [1, 128, 16, 16]     --                   [1, 128, 16, 16]     (recursive)
│    │    │    │    └─Conv2d (conv2): 5-1560            [1, 128, 16, 16]     [3, 3]               [1, 32, 16, 16]      (recursive)
│    │    │    └─_DenseLayer (denselayer31): 4-303      [1, 896, 16, 16]     --                   [1, 32, 16, 16]      (recursive)
│    │    │    │    └─BatchNorm2d (norm1): 5-1561       [1, 1856, 16, 16]    --                   [1, 1856, 16, 16]    (recursive)
│    │    │    │    └─ReLU (relu1): 5-1562              [1, 1856, 16, 16]    --                   [1, 1856, 16, 16]    (recursive)
│    │    │    │    └─Conv2d (conv1): 5-1563            [1, 1856, 16, 16]    [1, 1]               [1, 128, 16, 16]     (recursive)
│    │    │    │    └─BatchNorm2d (norm2): 5-1564       [1, 128, 16, 16]     --                   [1, 128, 16, 16]     (recursive)
│    │    │    │    └─ReLU (relu2): 5-1565              [1, 128, 16, 16]     --                   [1, 128, 16, 16]     (recursive)
│    │    │    │    └─Conv2d (conv2): 5-1566            [1, 128, 16, 16]     [3, 3]               [1, 32, 16, 16]      (recursive)
│    │    │    └─_DenseLayer (denselayer32): 4-304      [1, 896, 16, 16]     --                   [1, 32, 16, 16]      (recursive)
│    │    │    │    └─BatchNorm2d (norm1): 5-1567       [1, 1888, 16, 16]    --                   [1, 1888, 16, 16]    (recursive)
│    │    │    │    └─ReLU (relu1): 5-1568              [1, 1888, 16, 16]    --                   [1, 1888, 16, 16]    (recursive)
│    │    │    │    └─Conv2d (conv1): 5-1569            [1, 1888, 16, 16]    [1, 1]               [1, 128, 16, 16]     (recursive)
│    │    │    │    └─BatchNorm2d (norm2): 5-1570       [1, 128, 16, 16]     --                   [1, 128, 16, 16]     (recursive)
│    │    │    │    └─ReLU (relu2): 5-1571              [1, 128, 16, 16]     --                   [1, 128, 16, 16]     (recursive)
│    │    │    │    └─Conv2d (conv2): 5-1572            [1, 128, 16, 16]     [3, 3]               [1, 32, 16, 16]      (recursive)
│    │    └─BatchNorm2d (norm5): 3-47                   [1, 1920, 16, 16]    --                   [1, 1920, 16, 16]    (recursive)
│    │    └─_DenseBlock (denseblock4): 3-48             [1, 896, 16, 16]     --                   [1, 1920, 16, 16]    (recursive)
│    │    │    └─_DenseLayer (denselayer1): 4-305       [1, 896, 16, 16]     --                   [1, 32, 16, 16]      (recursive)
│    │    │    │    └─BatchNorm2d (norm1): 5-1573       [1, 896, 16, 16]     --                   [1, 896, 16, 16]     (recursive)
│    │    │    │    └─ReLU (relu1): 5-1574              [1, 896, 16, 16]     --                   [1, 896, 16, 16]     (recursive)
│    │    │    │    └─Conv2d (conv1): 5-1575            [1, 896, 16, 16]     [1, 1]               [1, 128, 16, 16]     (recursive)
│    │    │    │    └─BatchNorm2d (norm2): 5-1576       [1, 128, 16, 16]     --                   [1, 128, 16, 16]     (recursive)
│    │    │    │    └─ReLU (relu2): 5-1577              [1, 128, 16, 16]     --                   [1, 128, 16, 16]     (recursive)
│    │    │    │    └─Conv2d (conv2): 5-1578            [1, 128, 16, 16]     [3, 3]               [1, 32, 16, 16]      (recursive)
│    │    │    └─_DenseLayer (denselayer2): 4-306       [1, 896, 16, 16]     --                   [1, 32, 16, 16]      (recursive)
│    │    │    │    └─BatchNorm2d (norm1): 5-1579       [1, 928, 16, 16]     --                   [1, 928, 16, 16]     (recursive)
│    │    │    │    └─ReLU (relu1): 5-1580              [1, 928, 16, 16]     --                   [1, 928, 16, 16]     (recursive)
│    │    │    │    └─Conv2d (conv1): 5-1581            [1, 928, 16, 16]     [1, 1]               [1, 128, 16, 16]     (recursive)
│    │    │    │    └─BatchNorm2d (norm2): 5-1582       [1, 128, 16, 16]     --                   [1, 128, 16, 16]     (recursive)
│    │    │    │    └─ReLU (relu2): 5-1583              [1, 128, 16, 16]     --                   [1, 128, 16, 16]     (recursive)
│    │    │    │    └─Conv2d (conv2): 5-1584            [1, 128, 16, 16]     [3, 3]               [1, 32, 16, 16]      (recursive)
│    │    │    └─_DenseLayer (denselayer3): 4-307       [1, 896, 16, 16]     --                   [1, 32, 16, 16]      (recursive)
│    │    │    │    └─BatchNorm2d (norm1): 5-1585       [1, 960, 16, 16]     --                   [1, 960, 16, 16]     (recursive)
│    │    │    │    └─ReLU (relu1): 5-1586              [1, 960, 16, 16]     --                   [1, 960, 16, 16]     (recursive)
│    │    │    │    └─Conv2d (conv1): 5-1587            [1, 960, 16, 16]     [1, 1]               [1, 128, 16, 16]     (recursive)
│    │    │    │    └─BatchNorm2d (norm2): 5-1588       [1, 128, 16, 16]     --                   [1, 128, 16, 16]     (recursive)
│    │    │    │    └─ReLU (relu2): 5-1589              [1, 128, 16, 16]     --                   [1, 128, 16, 16]     (recursive)
│    │    │    │    └─Conv2d (conv2): 5-1590            [1, 128, 16, 16]     [3, 3]               [1, 32, 16, 16]      (recursive)
│    │    │    └─_DenseLayer (denselayer4): 4-308       [1, 896, 16, 16]     --                   [1, 32, 16, 16]      (recursive)
│    │    │    │    └─BatchNorm2d (norm1): 5-1591       [1, 992, 16, 16]     --                   [1, 992, 16, 16]     (recursive)
│    │    │    │    └─ReLU (relu1): 5-1592              [1, 992, 16, 16]     --                   [1, 992, 16, 16]     (recursive)
│    │    │    │    └─Conv2d (conv1): 5-1593            [1, 992, 16, 16]     [1, 1]               [1, 128, 16, 16]     (recursive)
│    │    │    │    └─BatchNorm2d (norm2): 5-1594       [1, 128, 16, 16]     --                   [1, 128, 16, 16]     (recursive)
│    │    │    │    └─ReLU (relu2): 5-1595              [1, 128, 16, 16]     --                   [1, 128, 16, 16]     (recursive)
│    │    │    │    └─Conv2d (conv2): 5-1596            [1, 128, 16, 16]     [3, 3]               [1, 32, 16, 16]      (recursive)
│    │    │    └─_DenseLayer (denselayer5): 4-309       [1, 896, 16, 16]     --                   [1, 32, 16, 16]      (recursive)
│    │    │    │    └─BatchNorm2d (norm1): 5-1597       [1, 1024, 16, 16]    --                   [1, 1024, 16, 16]    (recursive)
│    │    │    │    └─ReLU (relu1): 5-1598              [1, 1024, 16, 16]    --                   [1, 1024, 16, 16]    (recursive)
│    │    │    │    └─Conv2d (conv1): 5-1599            [1, 1024, 16, 16]    [1, 1]               [1, 128, 16, 16]     (recursive)
│    │    │    │    └─BatchNorm2d (norm2): 5-1600       [1, 128, 16, 16]     --                   [1, 128, 16, 16]     (recursive)
│    │    │    │    └─ReLU (relu2): 5-1601              [1, 128, 16, 16]     --                   [1, 128, 16, 16]     (recursive)
│    │    │    │    └─Conv2d (conv2): 5-1602            [1, 128, 16, 16]     [3, 3]               [1, 32, 16, 16]      (recursive)
│    │    │    └─_DenseLayer (denselayer6): 4-310       [1, 896, 16, 16]     --                   [1, 32, 16, 16]      (recursive)
│    │    │    │    └─BatchNorm2d (norm1): 5-1603       [1, 1056, 16, 16]    --                   [1, 1056, 16, 16]    (recursive)
│    │    │    │    └─ReLU (relu1): 5-1604              [1, 1056, 16, 16]    --                   [1, 1056, 16, 16]    (recursive)
│    │    │    │    └─Conv2d (conv1): 5-1605            [1, 1056, 16, 16]    [1, 1]               [1, 128, 16, 16]     (recursive)
│    │    │    │    └─BatchNorm2d (norm2): 5-1606       [1, 128, 16, 16]     --                   [1, 128, 16, 16]     (recursive)
│    │    │    │    └─ReLU (relu2): 5-1607              [1, 128, 16, 16]     --                   [1, 128, 16, 16]     (recursive)
│    │    │    │    └─Conv2d (conv2): 5-1608            [1, 128, 16, 16]     [3, 3]               [1, 32, 16, 16]      (recursive)
│    │    │    └─_DenseLayer (denselayer7): 4-311       [1, 896, 16, 16]     --                   [1, 32, 16, 16]      (recursive)
│    │    │    │    └─BatchNorm2d (norm1): 5-1609       [1, 1088, 16, 16]    --                   [1, 1088, 16, 16]    (recursive)
│    │    │    │    └─ReLU (relu1): 5-1610              [1, 1088, 16, 16]    --                   [1, 1088, 16, 16]    (recursive)
│    │    │    │    └─Conv2d (conv1): 5-1611            [1, 1088, 16, 16]    [1, 1]               [1, 128, 16, 16]     (recursive)
│    │    │    │    └─BatchNorm2d (norm2): 5-1612       [1, 128, 16, 16]     --                   [1, 128, 16, 16]     (recursive)
│    │    │    │    └─ReLU (relu2): 5-1613              [1, 128, 16, 16]     --                   [1, 128, 16, 16]     (recursive)
│    │    │    │    └─Conv2d (conv2): 5-1614            [1, 128, 16, 16]     [3, 3]               [1, 32, 16, 16]      (recursive)
│    │    │    └─_DenseLayer (denselayer8): 4-312       [1, 896, 16, 16]     --                   [1, 32, 16, 16]      (recursive)
│    │    │    │    └─BatchNorm2d (norm1): 5-1615       [1, 1120, 16, 16]    --                   [1, 1120, 16, 16]    (recursive)
│    │    │    │    └─ReLU (relu1): 5-1616              [1, 1120, 16, 16]    --                   [1, 1120, 16, 16]    (recursive)
│    │    │    │    └─Conv2d (conv1): 5-1617            [1, 1120, 16, 16]    [1, 1]               [1, 128, 16, 16]     (recursive)
│    │    │    │    └─BatchNorm2d (norm2): 5-1618       [1, 128, 16, 16]     --                   [1, 128, 16, 16]     (recursive)
│    │    │    │    └─ReLU (relu2): 5-1619              [1, 128, 16, 16]     --                   [1, 128, 16, 16]     (recursive)
│    │    │    │    └─Conv2d (conv2): 5-1620            [1, 128, 16, 16]     [3, 3]               [1, 32, 16, 16]      (recursive)
│    │    │    └─_DenseLayer (denselayer9): 4-313       [1, 896, 16, 16]     --                   [1, 32, 16, 16]      (recursive)
│    │    │    │    └─BatchNorm2d (norm1): 5-1621       [1, 1152, 16, 16]    --                   [1, 1152, 16, 16]    (recursive)
│    │    │    │    └─ReLU (relu1): 5-1622              [1, 1152, 16, 16]    --                   [1, 1152, 16, 16]    (recursive)
│    │    │    │    └─Conv2d (conv1): 5-1623            [1, 1152, 16, 16]    [1, 1]               [1, 128, 16, 16]     (recursive)
│    │    │    │    └─BatchNorm2d (norm2): 5-1624       [1, 128, 16, 16]     --                   [1, 128, 16, 16]     (recursive)
│    │    │    │    └─ReLU (relu2): 5-1625              [1, 128, 16, 16]     --                   [1, 128, 16, 16]     (recursive)
│    │    │    │    └─Conv2d (conv2): 5-1626            [1, 128, 16, 16]     [3, 3]               [1, 32, 16, 16]      (recursive)
│    │    │    └─_DenseLayer (denselayer10): 4-314      [1, 896, 16, 16]     --                   [1, 32, 16, 16]      (recursive)
│    │    │    │    └─BatchNorm2d (norm1): 5-1627       [1, 1184, 16, 16]    --                   [1, 1184, 16, 16]    (recursive)
│    │    │    │    └─ReLU (relu1): 5-1628              [1, 1184, 16, 16]    --                   [1, 1184, 16, 16]    (recursive)
│    │    │    │    └─Conv2d (conv1): 5-1629            [1, 1184, 16, 16]    [1, 1]               [1, 128, 16, 16]     (recursive)
│    │    │    │    └─BatchNorm2d (norm2): 5-1630       [1, 128, 16, 16]     --                   [1, 128, 16, 16]     (recursive)
│    │    │    │    └─ReLU (relu2): 5-1631              [1, 128, 16, 16]     --                   [1, 128, 16, 16]     (recursive)
│    │    │    │    └─Conv2d (conv2): 5-1632            [1, 128, 16, 16]     [3, 3]               [1, 32, 16, 16]      (recursive)
│    │    │    └─_DenseLayer (denselayer11): 4-315      [1, 896, 16, 16]     --                   [1, 32, 16, 16]      (recursive)
│    │    │    │    └─BatchNorm2d (norm1): 5-1633       [1, 1216, 16, 16]    --                   [1, 1216, 16, 16]    (recursive)
│    │    │    │    └─ReLU (relu1): 5-1634              [1, 1216, 16, 16]    --                   [1, 1216, 16, 16]    (recursive)
│    │    │    │    └─Conv2d (conv1): 5-1635            [1, 1216, 16, 16]    [1, 1]               [1, 128, 16, 16]     (recursive)
│    │    │    │    └─BatchNorm2d (norm2): 5-1636       [1, 128, 16, 16]     --                   [1, 128, 16, 16]     (recursive)
│    │    │    │    └─ReLU (relu2): 5-1637              [1, 128, 16, 16]     --                   [1, 128, 16, 16]     (recursive)
│    │    │    │    └─Conv2d (conv2): 5-1638            [1, 128, 16, 16]     [3, 3]               [1, 32, 16, 16]      (recursive)
│    │    │    └─_DenseLayer (denselayer12): 4-316      [1, 896, 16, 16]     --                   [1, 32, 16, 16]      (recursive)
│    │    │    │    └─BatchNorm2d (norm1): 5-1639       [1, 1248, 16, 16]    --                   [1, 1248, 16, 16]    (recursive)
│    │    │    │    └─ReLU (relu1): 5-1640              [1, 1248, 16, 16]    --                   [1, 1248, 16, 16]    (recursive)
│    │    │    │    └─Conv2d (conv1): 5-1641            [1, 1248, 16, 16]    [1, 1]               [1, 128, 16, 16]     (recursive)
│    │    │    │    └─BatchNorm2d (norm2): 5-1642       [1, 128, 16, 16]     --                   [1, 128, 16, 16]     (recursive)
│    │    │    │    └─ReLU (relu2): 5-1643              [1, 128, 16, 16]     --                   [1, 128, 16, 16]     (recursive)
│    │    │    │    └─Conv2d (conv2): 5-1644            [1, 128, 16, 16]     [3, 3]               [1, 32, 16, 16]      (recursive)
│    │    │    └─_DenseLayer (denselayer13): 4-317      [1, 896, 16, 16]     --                   [1, 32, 16, 16]      (recursive)
│    │    │    │    └─BatchNorm2d (norm1): 5-1645       [1, 1280, 16, 16]    --                   [1, 1280, 16, 16]    (recursive)
│    │    │    │    └─ReLU (relu1): 5-1646              [1, 1280, 16, 16]    --                   [1, 1280, 16, 16]    (recursive)
│    │    │    │    └─Conv2d (conv1): 5-1647            [1, 1280, 16, 16]    [1, 1]               [1, 128, 16, 16]     (recursive)
│    │    │    │    └─BatchNorm2d (norm2): 5-1648       [1, 128, 16, 16]     --                   [1, 128, 16, 16]     (recursive)
│    │    │    │    └─ReLU (relu2): 5-1649              [1, 128, 16, 16]     --                   [1, 128, 16, 16]     (recursive)
│    │    │    │    └─Conv2d (conv2): 5-1650            [1, 128, 16, 16]     [3, 3]               [1, 32, 16, 16]      (recursive)
│    │    │    └─_DenseLayer (denselayer14): 4-318      [1, 896, 16, 16]     --                   [1, 32, 16, 16]      (recursive)
│    │    │    │    └─BatchNorm2d (norm1): 5-1651       [1, 1312, 16, 16]    --                   [1, 1312, 16, 16]    (recursive)
│    │    │    │    └─ReLU (relu1): 5-1652              [1, 1312, 16, 16]    --                   [1, 1312, 16, 16]    (recursive)
│    │    │    │    └─Conv2d (conv1): 5-1653            [1, 1312, 16, 16]    [1, 1]               [1, 128, 16, 16]     (recursive)
│    │    │    │    └─BatchNorm2d (norm2): 5-1654       [1, 128, 16, 16]     --                   [1, 128, 16, 16]     (recursive)
│    │    │    │    └─ReLU (relu2): 5-1655              [1, 128, 16, 16]     --                   [1, 128, 16, 16]     (recursive)
│    │    │    │    └─Conv2d (conv2): 5-1656            [1, 128, 16, 16]     [3, 3]               [1, 32, 16, 16]      (recursive)
│    │    │    └─_DenseLayer (denselayer15): 4-319      [1, 896, 16, 16]     --                   [1, 32, 16, 16]      (recursive)
│    │    │    │    └─BatchNorm2d (norm1): 5-1657       [1, 1344, 16, 16]    --                   [1, 1344, 16, 16]    (recursive)
│    │    │    │    └─ReLU (relu1): 5-1658              [1, 1344, 16, 16]    --                   [1, 1344, 16, 16]    (recursive)
│    │    │    │    └─Conv2d (conv1): 5-1659            [1, 1344, 16, 16]    [1, 1]               [1, 128, 16, 16]     (recursive)
│    │    │    │    └─BatchNorm2d (norm2): 5-1660       [1, 128, 16, 16]     --                   [1, 128, 16, 16]     (recursive)
│    │    │    │    └─ReLU (relu2): 5-1661              [1, 128, 16, 16]     --                   [1, 128, 16, 16]     (recursive)
│    │    │    │    └─Conv2d (conv2): 5-1662            [1, 128, 16, 16]     [3, 3]               [1, 32, 16, 16]      (recursive)
│    │    │    └─_DenseLayer (denselayer16): 4-320      [1, 896, 16, 16]     --                   [1, 32, 16, 16]      (recursive)
│    │    │    │    └─BatchNorm2d (norm1): 5-1663       [1, 1376, 16, 16]    --                   [1, 1376, 16, 16]    (recursive)
│    │    │    │    └─ReLU (relu1): 5-1664              [1, 1376, 16, 16]    --                   [1, 1376, 16, 16]    (recursive)
│    │    │    │    └─Conv2d (conv1): 5-1665            [1, 1376, 16, 16]    [1, 1]               [1, 128, 16, 16]     (recursive)
│    │    │    │    └─BatchNorm2d (norm2): 5-1666       [1, 128, 16, 16]     --                   [1, 128, 16, 16]     (recursive)
│    │    │    │    └─ReLU (relu2): 5-1667              [1, 128, 16, 16]     --                   [1, 128, 16, 16]     (recursive)
│    │    │    │    └─Conv2d (conv2): 5-1668            [1, 128, 16, 16]     [3, 3]               [1, 32, 16, 16]      (recursive)
│    │    │    └─_DenseLayer (denselayer17): 4-321      [1, 896, 16, 16]     --                   [1, 32, 16, 16]      (recursive)
│    │    │    │    └─BatchNorm2d (norm1): 5-1669       [1, 1408, 16, 16]    --                   [1, 1408, 16, 16]    (recursive)
│    │    │    │    └─ReLU (relu1): 5-1670              [1, 1408, 16, 16]    --                   [1, 1408, 16, 16]    (recursive)
│    │    │    │    └─Conv2d (conv1): 5-1671            [1, 1408, 16, 16]    [1, 1]               [1, 128, 16, 16]     (recursive)
│    │    │    │    └─BatchNorm2d (norm2): 5-1672       [1, 128, 16, 16]     --                   [1, 128, 16, 16]     (recursive)
│    │    │    │    └─ReLU (relu2): 5-1673              [1, 128, 16, 16]     --                   [1, 128, 16, 16]     (recursive)
│    │    │    │    └─Conv2d (conv2): 5-1674            [1, 128, 16, 16]     [3, 3]               [1, 32, 16, 16]      (recursive)
│    │    │    └─_DenseLayer (denselayer18): 4-322      [1, 896, 16, 16]     --                   [1, 32, 16, 16]      (recursive)
│    │    │    │    └─BatchNorm2d (norm1): 5-1675       [1, 1440, 16, 16]    --                   [1, 1440, 16, 16]    (recursive)
│    │    │    │    └─ReLU (relu1): 5-1676              [1, 1440, 16, 16]    --                   [1, 1440, 16, 16]    (recursive)
│    │    │    │    └─Conv2d (conv1): 5-1677            [1, 1440, 16, 16]    [1, 1]               [1, 128, 16, 16]     (recursive)
│    │    │    │    └─BatchNorm2d (norm2): 5-1678       [1, 128, 16, 16]     --                   [1, 128, 16, 16]     (recursive)
│    │    │    │    └─ReLU (relu2): 5-1679              [1, 128, 16, 16]     --                   [1, 128, 16, 16]     (recursive)
│    │    │    │    └─Conv2d (conv2): 5-1680            [1, 128, 16, 16]     [3, 3]               [1, 32, 16, 16]      (recursive)
│    │    │    └─_DenseLayer (denselayer19): 4-323      [1, 896, 16, 16]     --                   [1, 32, 16, 16]      (recursive)
│    │    │    │    └─BatchNorm2d (norm1): 5-1681       [1, 1472, 16, 16]    --                   [1, 1472, 16, 16]    (recursive)
│    │    │    │    └─ReLU (relu1): 5-1682              [1, 1472, 16, 16]    --                   [1, 1472, 16, 16]    (recursive)
│    │    │    │    └─Conv2d (conv1): 5-1683            [1, 1472, 16, 16]    [1, 1]               [1, 128, 16, 16]     (recursive)
│    │    │    │    └─BatchNorm2d (norm2): 5-1684       [1, 128, 16, 16]     --                   [1, 128, 16, 16]     (recursive)
│    │    │    │    └─ReLU (relu2): 5-1685              [1, 128, 16, 16]     --                   [1, 128, 16, 16]     (recursive)
│    │    │    │    └─Conv2d (conv2): 5-1686            [1, 128, 16, 16]     [3, 3]               [1, 32, 16, 16]      (recursive)
│    │    │    └─_DenseLayer (denselayer20): 4-324      [1, 896, 16, 16]     --                   [1, 32, 16, 16]      (recursive)
│    │    │    │    └─BatchNorm2d (norm1): 5-1687       [1, 1504, 16, 16]    --                   [1, 1504, 16, 16]    (recursive)
│    │    │    │    └─ReLU (relu1): 5-1688              [1, 1504, 16, 16]    --                   [1, 1504, 16, 16]    (recursive)
│    │    │    │    └─Conv2d (conv1): 5-1689            [1, 1504, 16, 16]    [1, 1]               [1, 128, 16, 16]     (recursive)
│    │    │    │    └─BatchNorm2d (norm2): 5-1690       [1, 128, 16, 16]     --                   [1, 128, 16, 16]     (recursive)
│    │    │    │    └─ReLU (relu2): 5-1691              [1, 128, 16, 16]     --                   [1, 128, 16, 16]     (recursive)
│    │    │    │    └─Conv2d (conv2): 5-1692            [1, 128, 16, 16]     [3, 3]               [1, 32, 16, 16]      (recursive)
│    │    │    └─_DenseLayer (denselayer21): 4-325      [1, 896, 16, 16]     --                   [1, 32, 16, 16]      (recursive)
│    │    │    │    └─BatchNorm2d (norm1): 5-1693       [1, 1536, 16, 16]    --                   [1, 1536, 16, 16]    (recursive)
│    │    │    │    └─ReLU (relu1): 5-1694              [1, 1536, 16, 16]    --                   [1, 1536, 16, 16]    (recursive)
│    │    │    │    └─Conv2d (conv1): 5-1695            [1, 1536, 16, 16]    [1, 1]               [1, 128, 16, 16]     (recursive)
│    │    │    │    └─BatchNorm2d (norm2): 5-1696       [1, 128, 16, 16]     --                   [1, 128, 16, 16]     (recursive)
│    │    │    │    └─ReLU (relu2): 5-1697              [1, 128, 16, 16]     --                   [1, 128, 16, 16]     (recursive)
│    │    │    │    └─Conv2d (conv2): 5-1698            [1, 128, 16, 16]     [3, 3]               [1, 32, 16, 16]      (recursive)
│    │    │    └─_DenseLayer (denselayer22): 4-326      [1, 896, 16, 16]     --                   [1, 32, 16, 16]      (recursive)
│    │    │    │    └─BatchNorm2d (norm1): 5-1699       [1, 1568, 16, 16]    --                   [1, 1568, 16, 16]    (recursive)
│    │    │    │    └─ReLU (relu1): 5-1700              [1, 1568, 16, 16]    --                   [1, 1568, 16, 16]    (recursive)
│    │    │    │    └─Conv2d (conv1): 5-1701            [1, 1568, 16, 16]    [1, 1]               [1, 128, 16, 16]     (recursive)
│    │    │    │    └─BatchNorm2d (norm2): 5-1702       [1, 128, 16, 16]     --                   [1, 128, 16, 16]     (recursive)
│    │    │    │    └─ReLU (relu2): 5-1703              [1, 128, 16, 16]     --                   [1, 128, 16, 16]     (recursive)
│    │    │    │    └─Conv2d (conv2): 5-1704            [1, 128, 16, 16]     [3, 3]               [1, 32, 16, 16]      (recursive)
│    │    │    └─_DenseLayer (denselayer23): 4-327      [1, 896, 16, 16]     --                   [1, 32, 16, 16]      (recursive)
│    │    │    │    └─BatchNorm2d (norm1): 5-1705       [1, 1600, 16, 16]    --                   [1, 1600, 16, 16]    (recursive)
│    │    │    │    └─ReLU (relu1): 5-1706              [1, 1600, 16, 16]    --                   [1, 1600, 16, 16]    (recursive)
│    │    │    │    └─Conv2d (conv1): 5-1707            [1, 1600, 16, 16]    [1, 1]               [1, 128, 16, 16]     (recursive)
│    │    │    │    └─BatchNorm2d (norm2): 5-1708       [1, 128, 16, 16]     --                   [1, 128, 16, 16]     (recursive)
│    │    │    │    └─ReLU (relu2): 5-1709              [1, 128, 16, 16]     --                   [1, 128, 16, 16]     (recursive)
│    │    │    │    └─Conv2d (conv2): 5-1710            [1, 128, 16, 16]     [3, 3]               [1, 32, 16, 16]      (recursive)
│    │    │    └─_DenseLayer (denselayer24): 4-328      [1, 896, 16, 16]     --                   [1, 32, 16, 16]      (recursive)
│    │    │    │    └─BatchNorm2d (norm1): 5-1711       [1, 1632, 16, 16]    --                   [1, 1632, 16, 16]    (recursive)
│    │    │    │    └─ReLU (relu1): 5-1712              [1, 1632, 16, 16]    --                   [1, 1632, 16, 16]    (recursive)
│    │    │    │    └─Conv2d (conv1): 5-1713            [1, 1632, 16, 16]    [1, 1]               [1, 128, 16, 16]     (recursive)
│    │    │    │    └─BatchNorm2d (norm2): 5-1714       [1, 128, 16, 16]     --                   [1, 128, 16, 16]     (recursive)
│    │    │    │    └─ReLU (relu2): 5-1715              [1, 128, 16, 16]     --                   [1, 128, 16, 16]     (recursive)
│    │    │    │    └─Conv2d (conv2): 5-1716            [1, 128, 16, 16]     [3, 3]               [1, 32, 16, 16]      (recursive)
│    │    │    └─_DenseLayer (denselayer25): 4-329      [1, 896, 16, 16]     --                   [1, 32, 16, 16]      (recursive)
│    │    │    │    └─BatchNorm2d (norm1): 5-1717       [1, 1664, 16, 16]    --                   [1, 1664, 16, 16]    (recursive)
│    │    │    │    └─ReLU (relu1): 5-1718              [1, 1664, 16, 16]    --                   [1, 1664, 16, 16]    (recursive)
│    │    │    │    └─Conv2d (conv1): 5-1719            [1, 1664, 16, 16]    [1, 1]               [1, 128, 16, 16]     (recursive)
│    │    │    │    └─BatchNorm2d (norm2): 5-1720       [1, 128, 16, 16]     --                   [1, 128, 16, 16]     (recursive)
│    │    │    │    └─ReLU (relu2): 5-1721              [1, 128, 16, 16]     --                   [1, 128, 16, 16]     (recursive)
│    │    │    │    └─Conv2d (conv2): 5-1722            [1, 128, 16, 16]     [3, 3]               [1, 32, 16, 16]      (recursive)
│    │    │    └─_DenseLayer (denselayer26): 4-330      [1, 896, 16, 16]     --                   [1, 32, 16, 16]      (recursive)
│    │    │    │    └─BatchNorm2d (norm1): 5-1723       [1, 1696, 16, 16]    --                   [1, 1696, 16, 16]    (recursive)
│    │    │    │    └─ReLU (relu1): 5-1724              [1, 1696, 16, 16]    --                   [1, 1696, 16, 16]    (recursive)
│    │    │    │    └─Conv2d (conv1): 5-1725            [1, 1696, 16, 16]    [1, 1]               [1, 128, 16, 16]     (recursive)
│    │    │    │    └─BatchNorm2d (norm2): 5-1726       [1, 128, 16, 16]     --                   [1, 128, 16, 16]     (recursive)
│    │    │    │    └─ReLU (relu2): 5-1727              [1, 128, 16, 16]     --                   [1, 128, 16, 16]     (recursive)
│    │    │    │    └─Conv2d (conv2): 5-1728            [1, 128, 16, 16]     [3, 3]               [1, 32, 16, 16]      (recursive)
│    │    │    └─_DenseLayer (denselayer27): 4-331      [1, 896, 16, 16]     --                   [1, 32, 16, 16]      (recursive)
│    │    │    │    └─BatchNorm2d (norm1): 5-1729       [1, 1728, 16, 16]    --                   [1, 1728, 16, 16]    (recursive)
│    │    │    │    └─ReLU (relu1): 5-1730              [1, 1728, 16, 16]    --                   [1, 1728, 16, 16]    (recursive)
│    │    │    │    └─Conv2d (conv1): 5-1731            [1, 1728, 16, 16]    [1, 1]               [1, 128, 16, 16]     (recursive)
│    │    │    │    └─BatchNorm2d (norm2): 5-1732       [1, 128, 16, 16]     --                   [1, 128, 16, 16]     (recursive)
│    │    │    │    └─ReLU (relu2): 5-1733              [1, 128, 16, 16]     --                   [1, 128, 16, 16]     (recursive)
│    │    │    │    └─Conv2d (conv2): 5-1734            [1, 128, 16, 16]     [3, 3]               [1, 32, 16, 16]      (recursive)
│    │    │    └─_DenseLayer (denselayer28): 4-332      [1, 896, 16, 16]     --                   [1, 32, 16, 16]      (recursive)
│    │    │    │    └─BatchNorm2d (norm1): 5-1735       [1, 1760, 16, 16]    --                   [1, 1760, 16, 16]    (recursive)
│    │    │    │    └─ReLU (relu1): 5-1736              [1, 1760, 16, 16]    --                   [1, 1760, 16, 16]    (recursive)
│    │    │    │    └─Conv2d (conv1): 5-1737            [1, 1760, 16, 16]    [1, 1]               [1, 128, 16, 16]     (recursive)
│    │    │    │    └─BatchNorm2d (norm2): 5-1738       [1, 128, 16, 16]     --                   [1, 128, 16, 16]     (recursive)
│    │    │    │    └─ReLU (relu2): 5-1739              [1, 128, 16, 16]     --                   [1, 128, 16, 16]     (recursive)
│    │    │    │    └─Conv2d (conv2): 5-1740            [1, 128, 16, 16]     [3, 3]               [1, 32, 16, 16]      (recursive)
│    │    │    └─_DenseLayer (denselayer29): 4-333      [1, 896, 16, 16]     --                   [1, 32, 16, 16]      (recursive)
│    │    │    │    └─BatchNorm2d (norm1): 5-1741       [1, 1792, 16, 16]    --                   [1, 1792, 16, 16]    (recursive)
│    │    │    │    └─ReLU (relu1): 5-1742              [1, 1792, 16, 16]    --                   [1, 1792, 16, 16]    (recursive)
│    │    │    │    └─Conv2d (conv1): 5-1743            [1, 1792, 16, 16]    [1, 1]               [1, 128, 16, 16]     (recursive)
│    │    │    │    └─BatchNorm2d (norm2): 5-1744       [1, 128, 16, 16]     --                   [1, 128, 16, 16]     (recursive)
│    │    │    │    └─ReLU (relu2): 5-1745              [1, 128, 16, 16]     --                   [1, 128, 16, 16]     (recursive)
│    │    │    │    └─Conv2d (conv2): 5-1746            [1, 128, 16, 16]     [3, 3]               [1, 32, 16, 16]      (recursive)
│    │    │    └─_DenseLayer (denselayer30): 4-334      [1, 896, 16, 16]     --                   [1, 32, 16, 16]      (recursive)
│    │    │    │    └─BatchNorm2d (norm1): 5-1747       [1, 1824, 16, 16]    --                   [1, 1824, 16, 16]    (recursive)
│    │    │    │    └─ReLU (relu1): 5-1748              [1, 1824, 16, 16]    --                   [1, 1824, 16, 16]    (recursive)
│    │    │    │    └─Conv2d (conv1): 5-1749            [1, 1824, 16, 16]    [1, 1]               [1, 128, 16, 16]     (recursive)
│    │    │    │    └─BatchNorm2d (norm2): 5-1750       [1, 128, 16, 16]     --                   [1, 128, 16, 16]     (recursive)
│    │    │    │    └─ReLU (relu2): 5-1751              [1, 128, 16, 16]     --                   [1, 128, 16, 16]     (recursive)
│    │    │    │    └─Conv2d (conv2): 5-1752            [1, 128, 16, 16]     [3, 3]               [1, 32, 16, 16]      (recursive)
│    │    │    └─_DenseLayer (denselayer31): 4-335      [1, 896, 16, 16]     --                   [1, 32, 16, 16]      (recursive)
│    │    │    │    └─BatchNorm2d (norm1): 5-1753       [1, 1856, 16, 16]    --                   [1, 1856, 16, 16]    (recursive)
│    │    │    │    └─ReLU (relu1): 5-1754              [1, 1856, 16, 16]    --                   [1, 1856, 16, 16]    (recursive)
│    │    │    │    └─Conv2d (conv1): 5-1755            [1, 1856, 16, 16]    [1, 1]               [1, 128, 16, 16]     (recursive)
│    │    │    │    └─BatchNorm2d (norm2): 5-1756       [1, 128, 16, 16]     --                   [1, 128, 16, 16]     (recursive)
│    │    │    │    └─ReLU (relu2): 5-1757              [1, 128, 16, 16]     --                   [1, 128, 16, 16]     (recursive)
│    │    │    │    └─Conv2d (conv2): 5-1758            [1, 128, 16, 16]     [3, 3]               [1, 32, 16, 16]      (recursive)
│    │    │    └─_DenseLayer (denselayer32): 4-336      [1, 896, 16, 16]     --                   [1, 32, 16, 16]      (recursive)
│    │    │    │    └─BatchNorm2d (norm1): 5-1759       [1, 1888, 16, 16]    --                   [1, 1888, 16, 16]    (recursive)
│    │    │    │    └─ReLU (relu1): 5-1760              [1, 1888, 16, 16]    --                   [1, 1888, 16, 16]    (recursive)
│    │    │    │    └─Conv2d (conv1): 5-1761            [1, 1888, 16, 16]    [1, 1]               [1, 128, 16, 16]     (recursive)
│    │    │    │    └─BatchNorm2d (norm2): 5-1762       [1, 128, 16, 16]     --                   [1, 128, 16, 16]     (recursive)
│    │    │    │    └─ReLU (relu2): 5-1763              [1, 128, 16, 16]     --                   [1, 128, 16, 16]     (recursive)
│    │    │    │    └─Conv2d (conv2): 5-1764            [1, 128, 16, 16]     [3, 3]               [1, 32, 16, 16]      (recursive)
│    │    └─BatchNorm2d (norm5): 3-49                   [1, 1920, 16, 16]    --                   [1, 1920, 16, 16]    (recursive)
│    └─Conv2d (reduce_5): 2-10                          [1, 1920, 16, 16]    [1, 1]               [1, 256, 16, 16]       2.03%
│    └─Conv2d (reduce_5): 2-11                          [1, 1920, 16, 16]    [1, 1]               [1, 256, 16, 16]     (recursive)
│    └─Conv2d (reduce_5): 2-12                          [1, 1920, 16, 16]    [1, 1]               [1, 256, 16, 16]     (recursive)
│    └─NonLocalBlock (cross_attention_prev_5): 2-13     [1, 256, 16, 16]     --                   [1, 256, 16, 16]       0.00%
│    │    └─Conv2d (query_conv): 3-50                   [1, 256, 16, 16]     [1, 1]               [1, 128, 16, 16]       0.14%
│    │    └─Conv2d (key_conv): 3-51                     [1, 256, 16, 16]     [1, 1]               [1, 128, 16, 16]       0.14%
│    │    └─Conv2d (value_conv): 3-52                   [1, 256, 16, 16]     [1, 1]               [1, 128, 16, 16]       0.14%
│    │    └─Sequential (W_z): 3-53                      [1, 128, 16, 16]     --                   [1, 256, 16, 16]          --
│    │    │    └─Conv2d (0): 4-337                      [1, 128, 16, 16]     [1, 1]               [1, 256, 16, 16]       0.14%
│    │    │    └─BatchNorm2d (1): 4-338                 [1, 256, 16, 16]     --                   [1, 256, 16, 16]       0.00%
│    └─NonLocalBlock (cross_attention_self_5): 2-14     [1, 256, 16, 16]     --                   [1, 256, 16, 16]       0.00%
│    │    └─Conv2d (query_conv): 3-54                   [1, 256, 16, 16]     [1, 1]               [1, 128, 16, 16]       0.14%
│    │    └─Conv2d (key_conv): 3-55                     [1, 256, 16, 16]     [1, 1]               [1, 128, 16, 16]       0.14%
│    │    └─Conv2d (value_conv): 3-56                   [1, 256, 16, 16]     [1, 1]               [1, 128, 16, 16]       0.14%
│    │    └─Sequential (W_z): 3-57                      [1, 128, 16, 16]     --                   [1, 256, 16, 16]          --
│    │    │    └─Conv2d (0): 4-339                      [1, 128, 16, 16]     [1, 1]               [1, 256, 16, 16]       0.14%
│    │    │    └─BatchNorm2d (1): 4-340                 [1, 256, 16, 16]     --                   [1, 256, 16, 16]       0.00%
│    └─NonLocalBlock (cross_attention_next_5): 2-15     [1, 256, 16, 16]     --                   [1, 256, 16, 16]       0.00%
│    │    └─Conv2d (query_conv): 3-58                   [1, 256, 16, 16]     [1, 1]               [1, 128, 16, 16]       0.14%
│    │    └─Conv2d (key_conv): 3-59                     [1, 256, 16, 16]     [1, 1]               [1, 128, 16, 16]       0.14%
│    │    └─Conv2d (value_conv): 3-60                   [1, 256, 16, 16]     [1, 1]               [1, 128, 16, 16]       0.14%
│    │    └─Sequential (W_z): 3-61                      [1, 128, 16, 16]     --                   [1, 256, 16, 16]          --
│    │    │    └─Conv2d (0): 4-341                      [1, 128, 16, 16]     [1, 1]               [1, 256, 16, 16]       0.14%
│    │    │    └─BatchNorm2d (1): 4-342                 [1, 256, 16, 16]     --                   [1, 256, 16, 16]       0.00%
│    └─Sequential (compress_5): 2-16                    [1, 768, 16, 16]     --                   [1, 1920, 16, 16]         --
│    │    └─Conv2d (0): 3-62                            [1, 768, 16, 16]     [1, 1]               [1, 1920, 16, 16]      6.10%
│    │    └─BatchNorm2d (1): 3-63                       [1, 1920, 16, 16]    --                   [1, 1920, 16, 16]      0.02%
├─SegformerDecoder (decoder): 1-2                       [1, 1, 512, 512]     --                   [1, 256, 128, 128]        --
│    └─ModuleList (mlp_stage): 2-17                     --                   --                   --                        --
│    │    └─MLP (0): 3-64                               [1, 1920, 16, 16]    --                   [1, 256, 16, 16]          --
│    │    │    └─Linear (linear): 4-343                 [1, 256, 1920]       --                   [1, 256, 256]          2.03%
│    │    └─MLP (1): 3-65                               [1, 1792, 32, 32]    --                   [1, 256, 32, 32]          --
│    │    │    └─Linear (linear): 4-344                 [1, 1024, 1792]      --                   [1, 1024, 256]         1.90%
│    │    └─MLP (2): 3-66                               [1, 512, 64, 64]     --                   [1, 256, 64, 64]          --
│    │    │    └─Linear (linear): 4-345                 [1, 4096, 512]       --                   [1, 4096, 256]         0.54%
│    │    └─MLP (3): 3-67                               [1, 256, 128, 128]   --                   [1, 256, 128, 128]        --
│    │    │    └─Linear (linear): 4-346                 [1, 16384, 256]      --                   [1, 16384, 256]        0.27%
│    │    └─MLP (4): 3-68                               [1, 64, 256, 256]    --                   [1, 256, 256, 256]        --
│    │    │    └─Linear (linear): 4-347                 [1, 65536, 64]       --                   [1, 65536, 256]        0.07%
│    └─Conv2dReLU (fuse_stage): 2-18                    [1, 1280, 128, 128]  --                   [1, 256, 128, 128]        --
│    │    └─Conv2d (0): 3-69                            [1, 1280, 128, 128]  [1, 1]               [1, 256, 128, 128]     1.36%
│    │    └─BatchNorm2d (1): 3-70                       [1, 256, 128, 128]   --                   [1, 256, 128, 128]     0.00%
│    │    └─ReLU (2): 3-71                              [1, 256, 128, 128]   --                   [1, 256, 128, 128]        --
├─SegmentationHead (segmentation_head): 1-3             [1, 256, 128, 128]   --                   [1, 5, 512, 512]          --
│    └─Conv2d (0): 2-19                                 [1, 256, 128, 128]   [1, 1]               [1, 5, 128, 128]       0.01%
│    └─UpsamplingBilinear2d (1): 2-20                   [1, 5, 128, 128]     --                   [1, 5, 512, 512]          --
│    └─Activation (2): 2-21                             [1, 5, 512, 512]     --                   [1, 5, 512, 512]          --
│    │    └─Identity (activation): 3-72                 [1, 5, 512, 512]     --                   [1, 5, 512, 512]          --
=======================================================================================================================================
Total params: 24,181,765
Trainable params: 24,181,765
Non-trainable params: 0
Total mult-adds (G): 75.47
=======================================================================================================================================
Input size (MB): 3.15
Forward/backward pass size (MB): 4401.53
…
