=======================================================================================================================================
Layer (type (var_name):depth-idx)                       Input Shape          Kernel Shape         Output Shape         Param %
=======================================================================================================================================
Segformer (Segformer)                                   [1, 3, 512, 512]     --                   [1, 5, 512, 512]          --
├─MixVisionTransformerSAEncoder (encoder): 1-1          [1, 3, 512, 512]     --                   [1, 3, 512, 512]          --
│    └─OverlapPatchEmbed (patch_embed1): 2-1            [1, 1, 512, 512]     --                   [1, 64, 128, 128]         --
│    │    └─Conv2d (proj): 3-1                          [1, 1, 512, 512]     [7, 7]               [1, 64, 128, 128]      0.01%
│    │    └─LayerNorm (norm): 3-2                       [1, 64, 128, 128]    --                   [1, 64, 128, 128]      0.00%
│    └─Sequential (block1): 2-2                         [1, 64, 128, 128]    --                   [1, 64, 128, 128]         --
│    │    └─Block (0): 3-3                              [1, 64, 128, 128]    --                   [1, 64, 128, 128]         --
│    │    │    └─LayerNorm (norm1): 4-1                 [1, 16384, 64]       --                   [1, 16384, 64]         0.00%
│    │    │    └─Attention (attn): 4-2                  [1, 16384, 64]       --                   [1, 16384, 64]            --
│    │    │    │    └─Linear (q): 5-1                   [1, 16384, 64]       --                   [1, 16384, 64]         0.01%
│    │    │    │    └─Conv2d (sr): 5-2                  [1, 64, 128, 128]    [8, 8]               [1, 64, 16, 16]        0.76%
│    │    │    │    └─LayerNorm (norm): 5-3             [1, 256, 64]         --                   [1, 256, 64]           0.00%
│    │    │    │    └─Linear (kv): 5-4                  [1, 256, 64]         --                   [1, 256, 128]          0.02%
│    │    │    │    └─Dropout (attn_drop): 5-5          [1, 1, 16384, 256]   --                   [1, 1, 16384, 256]        --
│    │    │    │    └─Linear (proj): 5-6                [1, 16384, 64]       --                   [1, 16384, 64]         0.01%
│    │    │    │    └─Dropout (proj_drop): 5-7          [1, 16384, 64]       --                   [1, 16384, 64]            --
│    │    │    └─Identity (drop_path): 4-3              [1, 16384, 64]       --                   [1, 16384, 64]            --
│    │    │    └─LayerNorm (norm2): 4-4                 [1, 16384, 64]       --                   [1, 16384, 64]         0.00%
│    │    │    └─Mlp (mlp): 4-5                         [1, 16384, 64]       --                   [1, 16384, 64]            --
│    │    │    │    └─Linear (fc1): 5-8                 [1, 16384, 64]       --                   [1, 16384, 256]        0.05%
│    │    │    │    └─DWConv (dwconv): 5-9              [1, 16384, 256]      --                   [1, 16384, 256]        0.01%
│    │    │    │    └─GELU (act): 5-10                  [1, 16384, 256]      --                   [1, 16384, 256]           --
│    │    │    │    └─Dropout (drop): 5-11              [1, 16384, 256]      --                   [1, 16384, 256]           --
│    │    │    │    └─Linear (fc2): 5-12                [1, 16384, 256]      --                   [1, 16384, 64]         0.05%
│    │    │    │    └─Dropout (drop): 5-13              [1, 16384, 64]       --                   [1, 16384, 64]       (recursive)
│    │    │    └─Identity (drop_path): 4-6              [1, 16384, 64]       --                   [1, 16384, 64]       (recursive)
│    │    └─Block (1): 3-4                              [1, 64, 128, 128]    --                   [1, 64, 128, 128]         --
│    │    │    └─LayerNorm (norm1): 4-7                 [1, 16384, 64]       --                   [1, 16384, 64]         0.00%
│    │    │    └─Attention (attn): 4-8                  [1, 16384, 64]       --                   [1, 16384, 64]            --
│    │    │    │    └─Linear (q): 5-14                  [1, 16384, 64]       --                   [1, 16384, 64]         0.01%
│    │    │    │    └─Conv2d (sr): 5-15                 [1, 64, 128, 128]    [8, 8]               [1, 64, 16, 16]        0.76%
│    │    │    │    └─LayerNorm (norm): 5-16            [1, 256, 64]         --                   [1, 256, 64]           0.00%
│    │    │    │    └─Linear (kv): 5-17                 [1, 256, 64]         --                   [1, 256, 128]          0.02%
│    │    │    │    └─Dropout (attn_drop): 5-18         [1, 1, 16384, 256]   --                   [1, 1, 16384, 256]        --
│    │    │    │    └─Linear (proj): 5-19               [1, 16384, 64]       --                   [1, 16384, 64]         0.01%
│    │    │    │    └─Dropout (proj_drop): 5-20         [1, 16384, 64]       --                   [1, 16384, 64]            --
│    │    │    └─DropPath (drop_path): 4-9              [1, 16384, 64]       --                   [1, 16384, 64]            --
│    │    │    └─LayerNorm (norm2): 4-10                [1, 16384, 64]       --                   [1, 16384, 64]         0.00%
│    │    │    └─Mlp (mlp): 4-11                        [1, 16384, 64]       --                   [1, 16384, 64]            --
│    │    │    │    └─Linear (fc1): 5-21                [1, 16384, 64]       --                   [1, 16384, 256]        0.05%
│    │    │    │    └─DWConv (dwconv): 5-22             [1, 16384, 256]      --                   [1, 16384, 256]        0.01%
│    │    │    │    └─GELU (act): 5-23                  [1, 16384, 256]      --                   [1, 16384, 256]           --
│    │    │    │    └─Dropout (drop): 5-24              [1, 16384, 256]      --                   [1, 16384, 256]           --
│    │    │    │    └─Linear (fc2): 5-25                [1, 16384, 256]      --                   [1, 16384, 64]         0.05%
│    │    │    │    └─Dropout (drop): 5-26              [1, 16384, 64]       --                   [1, 16384, 64]       (recursive)
│    │    │    └─DropPath (drop_path): 4-12             [1, 16384, 64]       --                   [1, 16384, 64]       (recursive)
│    │    └─Block (2): 3-5                              [1, 64, 128, 128]    --                   [1, 64, 128, 128]         --
│    │    │    └─LayerNorm (norm1): 4-13                [1, 16384, 64]       --                   [1, 16384, 64]         0.00%
│    │    │    └─Attention (attn): 4-14                 [1, 16384, 64]       --                   [1, 16384, 64]            --
│    │    │    │    └─Linear (q): 5-27                  [1, 16384, 64]       --                   [1, 16384, 64]         0.01%
│    │    │    │    └─Conv2d (sr): 5-28                 [1, 64, 128, 128]    [8, 8]               [1, 64, 16, 16]        0.76%
│    │    │    │    └─LayerNorm (norm): 5-29            [1, 256, 64]         --                   [1, 256, 64]           0.00%
│    │    │    │    └─Linear (kv): 5-30                 [1, 256, 64]         --                   [1, 256, 128]          0.02%
│    │    │    │    └─Dropout (attn_drop): 5-31         [1, 1, 16384, 256]   --                   [1, 1, 16384, 256]        --
│    │    │    │    └─Linear (proj): 5-32               [1, 16384, 64]       --                   [1, 16384, 64]         0.01%
│    │    │    │    └─Dropout (proj_drop): 5-33         [1, 16384, 64]       --                   [1, 16384, 64]            --
│    │    │    └─DropPath (drop_path): 4-15             [1, 16384, 64]       --                   [1, 16384, 64]            --
│    │    │    └─LayerNorm (norm2): 4-16                [1, 16384, 64]       --                   [1, 16384, 64]         0.00%
│    │    │    └─Mlp (mlp): 4-17                        [1, 16384, 64]       --                   [1, 16384, 64]            --
│    │    │    │    └─Linear (fc1): 5-34                [1, 16384, 64]       --                   [1, 16384, 256]        0.05%
│    │    │    │    └─DWConv (dwconv): 5-35             [1, 16384, 256]      --                   [1, 16384, 256]        0.01%
│    │    │    │    └─GELU (act): 5-36                  [1, 16384, 256]      --                   [1, 16384, 256]           --
│    │    │    │    └─Dropout (drop): 5-37              [1, 16384, 256]      --                   [1, 16384, 256]           --
│    │    │    │    └─Linear (fc2): 5-38                [1, 16384, 256]      --                   [1, 16384, 64]         0.05%
│    │    │    │    └─Dropout (drop): 5-39              [1, 16384, 64]       --                   [1, 16384, 64]       (recursive)
│    │    │    └─DropPath (drop_path): 4-18             [1, 16384, 64]       --                   [1, 16384, 64]       (recursive)
│    └─LayerNorm (norm1): 2-3                           [1, 64, 128, 128]    --                   [1, 64, 128, 128]      0.00%
│    └─OverlapPatchEmbed (patch_embed1): 2-4            [1, 1, 512, 512]     --                   [1, 64, 128, 128]    (recursive)
│    │    └─Conv2d (proj): 3-6                          [1, 1, 512, 512]     [7, 7]               [1, 64, 128, 128]    (recursive)
│    │    └─LayerNorm (norm): 3-7                       [1, 64, 128, 128]    --                   [1, 64, 128, 128]    (recursive)
│    └─Sequential (block1): 2-5                         [1, 64, 128, 128]    --                   [1, 64, 128, 128]    (recursive)
│    │    └─Block (0): 3-8                              [1, 64, 128, 128]    --                   [1, 64, 128, 128]    (recursive)
│    │    │    └─LayerNorm (norm1): 4-19                [1, 16384, 64]       --                   [1, 16384, 64]       (recursive)
│    │    │    └─Attention (attn): 4-20                 [1, 16384, 64]       --                   [1, 16384, 64]       (recursive)
│    │    │    │    └─Linear (q): 5-40                  [1, 16384, 64]       --                   [1, 16384, 64]       (recursive)
│    │    │    │    └─Conv2d (sr): 5-41                 [1, 64, 128, 128]    [8, 8]               [1, 64, 16, 16]      (recursive)
│    │    │    │    └─LayerNorm (norm): 5-42            [1, 256, 64]         --                   [1, 256, 64]         (recursive)
│    │    │    │    └─Linear (kv): 5-43                 [1, 256, 64]         --                   [1, 256, 128]        (recursive)
│    │    │    │    └─Dropout (attn_drop): 5-44         [1, 1, 16384, 256]   --                   [1, 1, 16384, 256]   (recursive)
│    │    │    │    └─Linear (proj): 5-45               [1, 16384, 64]       --                   [1, 16384, 64]       (recursive)
│    │    │    │    └─Dropout (proj_drop): 5-46         [1, 16384, 64]       --                   [1, 16384, 64]       (recursive)
│    │    │    └─Identity (drop_path): 4-21             [1, 16384, 64]       --                   [1, 16384, 64]       (recursive)
│    │    │    └─LayerNorm (norm2): 4-22                [1, 16384, 64]       --                   [1, 16384, 64]       (recursive)
│    │    │    └─Mlp (mlp): 4-23                        [1, 16384, 64]       --                   [1, 16384, 64]       (recursive)
│    │    │    │    └─Linear (fc1): 5-47                [1, 16384, 64]       --                   [1, 16384, 256]      (recursive)
│    │    │    │    └─DWConv (dwconv): 5-48             [1, 16384, 256]      --                   [1, 16384, 256]      (recursive)
│    │    │    │    └─GELU (act): 5-49                  [1, 16384, 256]      --                   [1, 16384, 256]      (recursive)
│    │    │    │    └─Dropout (drop): 5-50              [1, 16384, 256]      --                   [1, 16384, 256]      (recursive)
│    │    │    │    └─Linear (fc2): 5-51                [1, 16384, 256]      --                   [1, 16384, 64]       (recursive)
│    │    │    │    └─Dropout (drop): 5-52              [1, 16384, 64]       --                   [1, 16384, 64]       (recursive)
│    │    │    └─Identity (drop_path): 4-24             [1, 16384, 64]       --                   [1, 16384, 64]       (recursive)
│    │    └─Block (1): 3-9                              [1, 64, 128, 128]    --                   [1, 64, 128, 128]    (recursive)
│    │    │    └─LayerNorm (norm1): 4-25                [1, 16384, 64]       --                   [1, 16384, 64]       (recursive)
│    │    │    └─Attention (attn): 4-26                 [1, 16384, 64]       --                   [1, 16384, 64]       (recursive)
│    │    │    │    └─Linear (q): 5-53                  [1, 16384, 64]       --                   [1, 16384, 64]       (recursive)
│    │    │    │    └─Conv2d (sr): 5-54                 [1, 64, 128, 128]    [8, 8]               [1, 64, 16, 16]      (recursive)
│    │    │    │    └─LayerNorm (norm): 5-55            [1, 256, 64]         --                   [1, 256, 64]         (recursive)
│    │    │    │    └─Linear (kv): 5-56                 [1, 256, 64]         --                   [1, 256, 128]        (recursive)
│    │    │    │    └─Dropout (attn_drop): 5-57         [1, 1, 16384, 256]   --                   [1, 1, 16384, 256]   (recursive)
│    │    │    │    └─Linear (proj): 5-58               [1, 16384, 64]       --                   [1, 16384, 64]       (recursive)
│    │    │    │    └─Dropout (proj_drop): 5-59         [1, 16384, 64]       --                   [1, 16384, 64]       (recursive)
│    │    │    └─DropPath (drop_path): 4-27             [1, 16384, 64]       --                   [1, 16384, 64]       (recursive)
│    │    │    └─LayerNorm (norm2): 4-28                [1, 16384, 64]       --                   [1, 16384, 64]       (recursive)
│    │    │    └─Mlp (mlp): 4-29                        [1, 16384, 64]       --                   [1, 16384, 64]       (recursive)
│    │    │    │    └─Linear (fc1): 5-60                [1, 16384, 64]       --                   [1, 16384, 256]      (recursive)
│    │    │    │    └─DWConv (dwconv): 5-61             [1, 16384, 256]      --                   [1, 16384, 256]      (recursive)
│    │    │    │    └─GELU (act): 5-62                  [1, 16384, 256]      --                   [1, 16384, 256]      (recursive)
│    │    │    │    └─Dropout (drop): 5-63              [1, 16384, 256]      --                   [1, 16384, 256]      (recursive)
│    │    │    │    └─Linear (fc2): 5-64                [1, 16384, 256]      --                   [1, 16384, 64]       (recursive)
│    │    │    │    └─Dropout (drop): 5-65              [1, 16384, 64]       --                   [1, 16384, 64]       (recursive)
│    │    │    └─DropPath (drop_path): 4-30             [1, 16384, 64]       --                   [1, 16384, 64]       (recursive)
│    │    └─Block (2): 3-10                             [1, 64, 128, 128]    --                   [1, 64, 128, 128]    (recursive)
│    │    │    └─LayerNorm (norm1): 4-31                [1, 16384, 64]       --                   [1, 16384, 64]       (recursive)
│    │    │    └─Attention (attn): 4-32                 [1, 16384, 64]       --                   [1, 16384, 64]       (recursive)
│    │    │    │    └─Linear (q): 5-66                  [1, 16384, 64]       --                   [1, 16384, 64]       (recursive)
│    │    │    │    └─Conv2d (sr): 5-67                 [1, 64, 128, 128]    [8, 8]               [1, 64, 16, 16]      (recursive)
│    │    │    │    └─LayerNorm (norm): 5-68            [1, 256, 64]         --                   [1, 256, 64]         (recursive)
│    │    │    │    └─Linear (kv): 5-69                 [1, 256, 64]         --                   [1, 256, 128]        (recursive)
│    │    │    │    └─Dropout (attn_drop): 5-70         [1, 1, 16384, 256]   --                   [1, 1, 16384, 256]   (recursive)
│    │    │    │    └─Linear (proj): 5-71               [1, 16384, 64]       --                   [1, 16384, 64]       (recursive)
│    │    │    │    └─Dropout (proj_drop): 5-72         [1, 16384, 64]       --                   [1, 16384, 64]       (recursive)
│    │    │    └─DropPath (drop_path): 4-33             [1, 16384, 64]       --                   [1, 16384, 64]       (recursive)
│    │    │    └─LayerNorm (norm2): 4-34                [1, 16384, 64]       --                   [1, 16384, 64]       (recursive)
│    │    │    └─Mlp (mlp): 4-35                        [1, 16384, 64]       --                   [1, 16384, 64]       (recursive)
│    │    │    │    └─Linear (fc1): 5-73                [1, 16384, 64]       --                   [1, 16384, 256]      (recursive)
│    │    │    │    └─DWConv (dwconv): 5-74             [1, 16384, 256]      --                   [1, 16384, 256]      (recursive)
│    │    │    │    └─GELU (act): 5-75                  [1, 16384, 256]      --                   [1, 16384, 256]      (recursive)
│    │    │    │    └─Dropout (drop): 5-76              [1, 16384, 256]      --                   [1, 16384, 256]      (recursive)
│    │    │    │    └─Linear (fc2): 5-77                [1, 16384, 256]      --                   [1, 16384, 64]       (recursive)
│    │    │    │    └─Dropout (drop): 5-78              [1, 16384, 64]       --                   [1, 16384, 64]       (recursive)
│    │    │    └─DropPath (drop_path): 4-36             [1, 16384, 64]       --                   [1, 16384, 64]       (recursive)
│    └─LayerNorm (norm1): 2-6                           [1, 64, 128, 128]    --                   [1, 64, 128, 128]    (recursive)
│    └─OverlapPatchEmbed (patch_embed1): 2-7            [1, 1, 512, 512]     --                   [1, 64, 128, 128]    (recursive)
│    │    └─Conv2d (proj): 3-11                         [1, 1, 512, 512]     [7, 7]               [1, 64, 128, 128]    (recursive)
│    │    └─LayerNorm (norm): 3-12                      [1, 64, 128, 128]    --                   [1, 64, 128, 128]    (recursive)
│    └─Sequential (block1): 2-8                         [1, 64, 128, 128]    --                   [1, 64, 128, 128]    (recursive)
│    │    └─Block (0): 3-13                             [1, 64, 128, 128]    --                   [1, 64, 128, 128]    (recursive)
│    │    │    └─LayerNorm (norm1): 4-37                [1, 16384, 64]       --                   [1, 16384, 64]       (recursive)
│    │    │    └─Attention (attn): 4-38                 [1, 16384, 64]       --                   [1, 16384, 64]       (recursive)
│    │    │    │    └─Linear (q): 5-79                  [1, 16384, 64]       --                   [1, 16384, 64]       (recursive)
│    │    │    │    └─Conv2d (sr): 5-80                 [1, 64, 128, 128]    [8, 8]               [1, 64, 16, 16]      (recursive)
│    │    │    │    └─LayerNorm (norm): 5-81            [1, 256, 64]         --                   [1, 256, 64]         (recursive)
│    │    │    │    └─Linear (kv): 5-82                 [1, 256, 64]         --                   [1, 256, 128]        (recursive)
│    │    │    │    └─Dropout (attn_drop): 5-83         [1, 1, 16384, 256]   --                   [1, 1, 16384, 256]   (recursive)
│    │    │    │    └─Linear (proj): 5-84               [1, 16384, 64]       --                   [1, 16384, 64]       (recursive)
│    │    │    │    └─Dropout (proj_drop): 5-85         [1, 16384, 64]       --                   [1, 16384, 64]       (recursive)
│    │    │    └─Identity (drop_path): 4-39             [1, 16384, 64]       --                   [1, 16384, 64]       (recursive)
│    │    │    └─LayerNorm (norm2): 4-40                [1, 16384, 64]       --                   [1, 16384, 64]       (recursive)
│    │    │    └─Mlp (mlp): 4-41                        [1, 16384, 64]       --                   [1, 16384, 64]       (recursive)
│    │    │    │    └─Linear (fc1): 5-86                [1, 16384, 64]       --                   [1, 16384, 256]      (recursive)
│    │    │    │    └─DWConv (dwconv): 5-87             [1, 16384, 256]      --                   [1, 16384, 256]      (recursive)
│    │    │    │    └─GELU (act): 5-88                  [1, 16384, 256]      --                   [1, 16384, 256]      (recursive)
│    │    │    │    └─Dropout (drop): 5-89              [1, 16384, 256]      --                   [1, 16384, 256]      (recursive)
│    │    │    │    └─Linear (fc2): 5-90                [1, 16384, 256]      --                   [1, 16384, 64]       (recursive)
│    │    │    │    └─Dropout (drop): 5-91              [1, 16384, 64]       --                   [1, 16384, 64]       (recursive)
│    │    │    └─Identity (drop_path): 4-42             [1, 16384, 64]       --                   [1, 16384, 64]       (recursive)
│    │    └─Block (1): 3-14                             [1, 64, 128, 128]    --                   [1, 64, 128, 128]    (recursive)
│    │    │    └─LayerNorm (norm1): 4-43                [1, 16384, 64]       --                   [1, 16384, 64]       (recursive)
│    │    │    └─Attention (attn): 4-44                 [1, 16384, 64]       --                   [1, 16384, 64]       (recursive)
│    │    │    │    └─Linear (q): 5-92                  [1, 16384, 64]       --                   [1, 16384, 64]       (recursive)
│    │    │    │    └─Conv2d (sr): 5-93                 [1, 64, 128, 128]    [8, 8]               [1, 64, 16, 16]      (recursive)
│    │    │    │    └─LayerNorm (norm): 5-94            [1, 256, 64]         --                   [1, 256, 64]         (recursive)
│    │    │    │    └─Linear (kv): 5-95                 [1, 256, 64]         --                   [1, 256, 128]        (recursive)
│    │    │    │    └─Dropout (attn_drop): 5-96         [1, 1, 16384, 256]   --                   [1, 1, 16384, 256]   (recursive)
│    │    │    │    └─Linear (proj): 5-97               [1, 16384, 64]       --                   [1, 16384, 64]       (recursive)
│    │    │    │    └─Dropout (proj_drop): 5-98         [1, 16384, 64]       --                   [1, 16384, 64]       (recursive)
│    │    │    └─DropPath (drop_path): 4-45             [1, 16384, 64]       --                   [1, 16384, 64]       (recursive)
│    │    │    └─LayerNorm (norm2): 4-46                [1, 16384, 64]       --                   [1, 16384, 64]       (recursive)
│    │    │    └─Mlp (mlp): 4-47                        [1, 16384, 64]       --                   [1, 16384, 64]       (recursive)
│    │    │    │    └─Linear (fc1): 5-99                [1, 16384, 64]       --                   [1, 16384, 256]      (recursive)
│    │    │    │    └─DWConv (dwconv): 5-100            [1, 16384, 256]      --                   [1, 16384, 256]      (recursive)
│    │    │    │    └─GELU (act): 5-101                 [1, 16384, 256]      --                   [1, 16384, 256]      (recursive)
│    │    │    │    └─Dropout (drop): 5-102             [1, 16384, 256]      --                   [1, 16384, 256]      (recursive)
│    │    │    │    └─Linear (fc2): 5-103               [1, 16384, 256]      --                   [1, 16384, 64]       (recursive)
│    │    │    │    └─Dropout (drop): 5-104             [1, 16384, 64]       --                   [1, 16384, 64]       (recursive)
│    │    │    └─DropPath (drop_path): 4-48             [1, 16384, 64]       --                   [1, 16384, 64]       (recursive)
│    │    └─Block (2): 3-15                             [1, 64, 128, 128]    --                   [1, 64, 128, 128]    (recursive)
│    │    │    └─LayerNorm (norm1): 4-49                [1, 16384, 64]       --                   [1, 16384, 64]       (recursive)
│    │    │    └─Attention (attn): 4-50                 [1, 16384, 64]       --                   [1, 16384, 64]       (recursive)
│    │    │    │    └─Linear (q): 5-105                 [1, 16384, 64]       --                   [1, 16384, 64]       (recursive)
│    │    │    │    └─Conv2d (sr): 5-106                [1, 64, 128, 128]    [8, 8]               [1, 64, 16, 16]      (recursive)
│    │    │    │    └─LayerNorm (norm): 5-107           [1, 256, 64]         --                   [1, 256, 64]         (recursive)
│    │    │    │    └─Linear (kv): 5-108                [1, 256, 64]         --                   [1, 256, 128]        (recursive)
│    │    │    │    └─Dropout (attn_drop): 5-109        [1, 1, 16384, 256]   --                   [1, 1, 16384, 256]   (recursive)
│    │    │    │    └─Linear (proj): 5-110              [1, 16384, 64]       --                   [1, 16384, 64]       (recursive)
│    │    │    │    └─Dropout (proj_drop): 5-111        [1, 16384, 64]       --                   [1, 16384, 64]       (recursive)
│    │    │    └─DropPath (drop_path): 4-51             [1, 16384, 64]       --                   [1, 16384, 64]       (recursive)
│    │    │    └─LayerNorm (norm2): 4-52                [1, 16384, 64]       --                   [1, 16384, 64]       (recursive)
│    │    │    └─Mlp (mlp): 4-53                        [1, 16384, 64]       --                   [1, 16384, 64]       (recursive)
│    │    │    │    └─Linear (fc1): 5-112               [1, 16384, 64]       --                   [1, 16384, 256]      (recursive)
│    │    │    │    └─DWConv (dwconv): 5-113            [1, 16384, 256]      --                   [1, 16384, 256]      (recursive)
│    │    │    │    └─GELU (act): 5-114                 [1, 16384, 256]      --                   [1, 16384, 256]      (recursive)
│    │    │    │    └─Dropout (drop): 5-115             [1, 16384, 256]      --                   [1, 16384, 256]      (recursive)
│    │    │    │    └─Linear (fc2): 5-116               [1, 16384, 256]      --                   [1, 16384, 64]       (recursive)
│    │    │    │    └─Dropout (drop): 5-117             [1, 16384, 64]       --                   [1, 16384, 64]       (recursive)
│    │    │    └─DropPath (drop_path): 4-54             [1, 16384, 64]       --                   [1, 16384, 64]       (recursive)
│    └─LayerNorm (norm1): 2-9                           [1, 64, 128, 128]    --                   [1, 64, 128, 128]    (recursive)
│    └─OverlapPatchEmbed (patch_embed2): 2-10           [1, 64, 128, 128]    --                   [1, 128, 64, 64]          --
│    │    └─Conv2d (proj): 3-16                         [1, 64, 128, 128]    [3, 3]               [1, 128, 64, 64]       0.21%
│    │    └─LayerNorm (norm): 3-17                      [1, 128, 64, 64]     --                   [1, 128, 64, 64]       0.00%
│    └─Sequential (block2): 2-11                        [1, 128, 64, 64]     --                   [1, 128, 64, 64]          --
│    │    └─Block (0): 3-18                             [1, 128, 64, 64]     --                   [1, 128, 64, 64]          --
│    │    │    └─LayerNorm (norm1): 4-55                [1, 4096, 128]       --                   [1, 4096, 128]         0.00%
│    │    │    └─Attention (attn): 4-56                 [1, 4096, 128]       --                   [1, 4096, 128]            --
│    │    │    │    └─Linear (q): 5-118                 [1, 4096, 128]       --                   [1, 4096, 128]         0.05%
│    │    │    │    └─Conv2d (sr): 5-119                [1, 128, 64, 64]     [4, 4]               [1, 128, 16, 16]       0.76%
│    │    │    │    └─LayerNorm (norm): 5-120           [1, 256, 128]        --                   [1, 256, 128]          0.00%
│    │    │    │    └─Linear (kv): 5-121                [1, 256, 128]        --                   [1, 256, 256]          0.10%
│    │    │    │    └─Dropout (attn_drop): 5-122        [1, 2, 4096, 256]    --                   [1, 2, 4096, 256]         --
│    │    │    │    └─Linear (proj): 5-123              [1, 4096, 128]       --                   [1, 4096, 128]         0.05%
│    │    │    │    └─Dropout (proj_drop): 5-124        [1, 4096, 128]       --                   [1, 4096, 128]            --
│    │    │    └─DropPath (drop_path): 4-57             [1, 4096, 128]       --                   [1, 4096, 128]            --
│    │    │    └─LayerNorm (norm2): 4-58                [1, 4096, 128]       --                   [1, 4096, 128]         0.00%
│    │    │    └─Mlp (mlp): 4-59                        [1, 4096, 128]       --                   [1, 4096, 128]            --
│    │    │    │    └─Linear (fc1): 5-125               [1, 4096, 128]       --                   [1, 4096, 512]         0.19%
│    │    │    │    └─DWConv (dwconv): 5-126            [1, 4096, 512]       --                   [1, 4096, 512]         0.01%
│    │    │    │    └─GELU (act): 5-127                 [1, 4096, 512]       --                   [1, 4096, 512]            --
│    │    │    │    └─Dropout (drop): 5-128             [1, 4096, 512]       --                   [1, 4096, 512]            --
│    │    │    │    └─Linear (fc2): 5-129               [1, 4096, 512]       --                   [1, 4096, 128]         0.19%
│    │    │    │    └─Dropout (drop): 5-130             [1, 4096, 128]       --                   [1, 4096, 128]       (recursive)
│    │    │    └─DropPath (drop_path): 4-60             [1, 4096, 128]       --                   [1, 4096, 128]       (recursive)
│    │    └─Block (1): 3-19                             [1, 128, 64, 64]     --                   [1, 128, 64, 64]          --
│    │    │    └─LayerNorm (norm1): 4-61                [1, 4096, 128]       --                   [1, 4096, 128]         0.00%
│    │    │    └─Attention (attn): 4-62                 [1, 4096, 128]       --                   [1, 4096, 128]            --
│    │    │    │    └─Linear (q): 5-131                 [1, 4096, 128]       --                   [1, 4096, 128]         0.05%
│    │    │    │    └─Conv2d (sr): 5-132                [1, 128, 64, 64]     [4, 4]               [1, 128, 16, 16]       0.76%
│    │    │    │    └─LayerNorm (norm): 5-133           [1, 256, 128]        --                   [1, 256, 128]          0.00%
│    │    │    │    └─Linear (kv): 5-134                [1, 256, 128]        --                   [1, 256, 256]          0.10%
│    │    │    │    └─Dropout (attn_drop): 5-135        [1, 2, 4096, 256]    --                   [1, 2, 4096, 256]         --
│    │    │    │    └─Linear (proj): 5-136              [1, 4096, 128]       --                   [1, 4096, 128]         0.05%
│    │    │    │    └─Dropout (proj_drop): 5-137        [1, 4096, 128]       --                   [1, 4096, 128]            --
│    │    │    └─DropPath (drop_path): 4-63             [1, 4096, 128]       --                   [1, 4096, 128]            --
│    │    │    └─LayerNorm (norm2): 4-64                [1, 4096, 128]       --                   [1, 4096, 128]         0.00%
│    │    │    └─Mlp (mlp): 4-65                        [1, 4096, 128]       --                   [1, 4096, 128]            --
│    │    │    │    └─Linear (fc1): 5-138               [1, 4096, 128]       --                   [1, 4096, 512]         0.19%
│    │    │    │    └─DWConv (dwconv): 5-139            [1, 4096, 512]       --                   [1, 4096, 512]         0.01%
│    │    │    │    └─GELU (act): 5-140                 [1, 4096, 512]       --                   [1, 4096, 512]            --
│    │    │    │    └─Dropout (drop): 5-141             [1, 4096, 512]       --                   [1, 4096, 512]            --
│    │    │    │    └─Linear (fc2): 5-142               [1, 4096, 512]       --                   [1, 4096, 128]         0.19%
│    │    │    │    └─Dropout (drop): 5-143             [1, 4096, 128]       --                   [1, 4096, 128]       (recursive)
│    │    │    └─DropPath (drop_path): 4-66             [1, 4096, 128]       --                   [1, 4096, 128]       (recursive)
│    │    └─Block (2): 3-20                             [1, 128, 64, 64]     --                   [1, 128, 64, 64]          --
│    │    │    └─LayerNorm (norm1): 4-67                [1, 4096, 128]       --                   [1, 4096, 128]         0.00%
│    │    │    └─Attention (attn): 4-68                 [1, 4096, 128]       --                   [1, 4096, 128]            --
│    │    │    │    └─Linear (q): 5-144                 [1, 4096, 128]       --                   [1, 4096, 128]         0.05%
│    │    │    │    └─Conv2d (sr): 5-145                [1, 128, 64, 64]     [4, 4]               [1, 128, 16, 16]       0.76%
│    │    │    │    └─LayerNorm (norm): 5-146           [1, 256, 128]        --                   [1, 256, 128]          0.00%
│    │    │    │    └─Linear (kv): 5-147                [1, 256, 128]        --                   [1, 256, 256]          0.10%
│    │    │    │    └─Dropout (attn_drop): 5-148        [1, 2, 4096, 256]    --                   [1, 2, 4096, 256]         --
│    │    │    │    └─Linear (proj): 5-149              [1, 4096, 128]       --                   [1, 4096, 128]         0.05%
│    │    │    │    └─Dropout (proj_drop): 5-150        [1, 4096, 128]       --                   [1, 4096, 128]            --
│    │    │    └─DropPath (drop_path): 4-69             [1, 4096, 128]       --                   [1, 4096, 128]            --
│    │    │    └─LayerNorm (norm2): 4-70                [1, 4096, 128]       --                   [1, 4096, 128]         0.00%
│    │    │    └─Mlp (mlp): 4-71                        [1, 4096, 128]       --                   [1, 4096, 128]            --
│    │    │    │    └─Linear (fc1): 5-151               [1, 4096, 128]       --                   [1, 4096, 512]         0.19%
│    │    │    │    └─DWConv (dwconv): 5-152            [1, 4096, 512]       --                   [1, 4096, 512]         0.01%
│    │    │    │    └─GELU (act): 5-153                 [1, 4096, 512]       --                   [1, 4096, 512]            --
│    │    │    │    └─Dropout (drop): 5-154             [1, 4096, 512]       --                   [1, 4096, 512]            --
│    │    │    │    └─Linear (fc2): 5-155               [1, 4096, 512]       --                   [1, 4096, 128]         0.19%
│    │    │    │    └─Dropout (drop): 5-156             [1, 4096, 128]       --                   [1, 4096, 128]       (recursive)
│    │    │    └─DropPath (drop_path): 4-72             [1, 4096, 128]       --                   [1, 4096, 128]       (recursive)
│    │    └─Block (3): 3-21                             [1, 128, 64, 64]     --                   [1, 128, 64, 64]          --
│    │    │    └─LayerNorm (norm1): 4-73                [1, 4096, 128]       --                   [1, 4096, 128]         0.00%
│    │    │    └─Attention (attn): 4-74                 [1, 4096, 128]       --                   [1, 4096, 128]            --
│    │    │    │    └─Linear (q): 5-157                 [1, 4096, 128]       --                   [1, 4096, 128]         0.05%
│    │    │    │    └─Conv2d (sr): 5-158                [1, 128, 64, 64]     [4, 4]               [1, 128, 16, 16]       0.76%
│    │    │    │    └─LayerNorm (norm): 5-159           [1, 256, 128]        --                   [1, 256, 128]          0.00%
│    │    │    │    └─Linear (kv): 5-160                [1, 256, 128]        --                   [1, 256, 256]          0.10%
│    │    │    │    └─Dropout (attn_drop): 5-161        [1, 2, 4096, 256]    --                   [1, 2, 4096, 256]         --
│    │    │    │    └─Linear (proj): 5-162              [1, 4096, 128]       --                   [1, 4096, 128]         0.05%
│    │    │    │    └─Dropout (proj_drop): 5-163        [1, 4096, 128]       --                   [1, 4096, 128]            --
│    │    │    └─DropPath (drop_path): 4-75             [1, 4096, 128]       --                   [1, 4096, 128]            --
│    │    │    └─LayerNorm (norm2): 4-76                [1, 4096, 128]       --                   [1, 4096, 128]         0.00%
│    │    │    └─Mlp (mlp): 4-77                        [1, 4096, 128]       --                   [1, 4096, 128]            --
│    │    │    │    └─Linear (fc1): 5-164               [1, 4096, 128]       --                   [1, 4096, 512]         0.19%
│    │    │    │    └─DWConv (dwconv): 5-165            [1, 4096, 512]       --                   [1, 4096, 512]         0.01%
│    │    │    │    └─GELU (act): 5-166                 [1, 4096, 512]       --                   [1, 4096, 512]            --
│    │    │    │    └─Dropout (drop): 5-167             [1, 4096, 512]       --                   [1, 4096, 512]            --
│    │    │    │    └─Linear (fc2): 5-168               [1, 4096, 512]       --                   [1, 4096, 128]         0.19%
│    │    │    │    └─Dropout (drop): 5-169             [1, 4096, 128]       --                   [1, 4096, 128]       (recursive)
│    │    │    └─DropPath (drop_path): 4-78             [1, 4096, 128]       --                   [1, 4096, 128]       (recursive)
│    └─LayerNorm (norm2): 2-12                          [1, 128, 64, 64]     --                   [1, 128, 64, 64]       0.00%
│    └─OverlapPatchEmbed (patch_embed2): 2-13           [1, 64, 128, 128]    --                   [1, 128, 64, 64]     (recursive)
│    │    └─Conv2d (proj): 3-22                         [1, 64, 128, 128]    [3, 3]               [1, 128, 64, 64]     (recursive)
│    │    └─LayerNorm (norm): 3-23                      [1, 128, 64, 64]     --                   [1, 128, 64, 64]     (recursive)
│    └─Sequential (block2): 2-14                        [1, 128, 64, 64]     --                   [1, 128, 64, 64]     (recursive)
│    │    └─Block (0): 3-24                             [1, 128, 64, 64]     --                   [1, 128, 64, 64]     (recursive)
│    │    │    └─LayerNorm (norm1): 4-79                [1, 4096, 128]       --                   [1, 4096, 128]       (recursive)
│    │    │    └─Attention (attn): 4-80                 [1, 4096, 128]       --                   [1, 4096, 128]       (recursive)
│    │    │    │    └─Linear (q): 5-170                 [1, 4096, 128]       --                   [1, 4096, 128]       (recursive)
│    │    │    │    └─Conv2d (sr): 5-171                [1, 128, 64, 64]     [4, 4]               [1, 128, 16, 16]     (recursive)
│    │    │    │    └─LayerNorm (norm): 5-172           [1, 256, 128]        --                   [1, 256, 128]        (recursive)
│    │    │    │    └─Linear (kv): 5-173                [1, 256, 128]        --                   [1, 256, 256]        (recursive)
│    │    │    │    └─Dropout (attn_drop): 5-174        [1, 2, 4096, 256]    --                   [1, 2, 4096, 256]    (recursive)
│    │    │    │    └─Linear (proj): 5-175              [1, 4096, 128]       --                   [1, 4096, 128]       (recursive)
│    │    │    │    └─Dropout (proj_drop): 5-176        [1, 4096, 128]       --                   [1, 4096, 128]       (recursive)
│    │    │    └─DropPath (drop_path): 4-81             [1, 4096, 128]       --                   [1, 4096, 128]       (recursive)
│    │    │    └─LayerNorm (norm2): 4-82                [1, 4096, 128]       --                   [1, 4096, 128]       (recursive)
│    │    │    └─Mlp (mlp): 4-83                        [1, 4096, 128]       --                   [1, 4096, 128]       (recursive)
│    │    │    │    └─Linear (fc1): 5-177               [1, 4096, 128]       --                   [1, 4096, 512]       (recursive)
│    │    │    │    └─DWConv (dwconv): 5-178            [1, 4096, 512]       --                   [1, 4096, 512]       (recursive)
│    │    │    │    └─GELU (act): 5-179                 [1, 4096, 512]       --                   [1, 4096, 512]       (recursive)
│    │    │    │    └─Dropout (drop): 5-180             [1, 4096, 512]       --                   [1, 4096, 512]       (recursive)
│    │    │    │    └─Linear (fc2): 5-181               [1, 4096, 512]       --                   [1, 4096, 128]       (recursive)
│    │    │    │    └─Dropout (drop): 5-182             [1, 4096, 128]       --                   [1, 4096, 128]       (recursive)
│    │    │    └─DropPath (drop_path): 4-84             [1, 4096, 128]       --                   [1, 4096, 128]       (recursive)
│    │    └─Block (1): 3-25                             [1, 128, 64, 64]     --                   [1, 128, 64, 64]     (recursive)
│    │    │    └─LayerNorm (norm1): 4-85                [1, 4096, 128]       --                   [1, 4096, 128]       (recursive)
│    │    │    └─Attention (attn): 4-86                 [1, 4096, 128]       --                   [1, 4096, 128]       (recursive)
│    │    │    │    └─Linear (q): 5-183                 [1, 4096, 128]       --                   [1, 4096, 128]       (recursive)
│    │    │    │    └─Conv2d (sr): 5-184                [1, 128, 64, 64]     [4, 4]               [1, 128, 16, 16]     (recursive)
│    │    │    │    └─LayerNorm (norm): 5-185           [1, 256, 128]        --                   [1, 256, 128]        (recursive)
│    │    │    │    └─Linear (kv): 5-186                [1, 256, 128]        --                   [1, 256, 256]        (recursive)
│    │    │    │    └─Dropout (attn_drop): 5-187        [1, 2, 4096, 256]    --                   [1, 2, 4096, 256]    (recursive)
│    │    │    │    └─Linear (proj): 5-188              [1, 4096, 128]       --                   [1, 4096, 128]       (recursive)
│    │    │    │    └─Dropout (proj_drop): 5-189        [1, 4096, 128]       --                   [1, 4096, 128]       (recursive)
│    │    │    └─DropPath (drop_path): 4-87             [1, 4096, 128]       --                   [1, 4096, 128]       (recursive)
│    │    │    └─LayerNorm (norm2): 4-88                [1, 4096, 128]       --                   [1, 4096, 128]       (recursive)
│    │    │    └─Mlp (mlp): 4-89                        [1, 4096, 128]       --                   [1, 4096, 128]       (recursive)
│    │    │    │    └─Linear (fc1): 5-190               [1, 4096, 128]       --                   [1, 4096, 512]       (recursive)
│    │    │    │    └─DWConv (dwconv): 5-191            [1, 4096, 512]       --                   [1, 4096, 512]       (recursive)
│    │    │    │    └─GELU (act): 5-192                 [1, 4096, 512]       --                   [1, 4096, 512]       (recursive)
│    │    │    │    └─Dropout (drop): 5-193             [1, 4096, 512]       --                   [1, 4096, 512]       (recursive)
│    │    │    │    └─Linear (fc2): 5-194               [1, 4096, 512]       --                   [1, 4096, 128]       (recursive)
│    │    │    │    └─Dropout (drop): 5-195             [1, 4096, 128]       --                   [1, 4096, 128]       (recursive)
│    │    │    └─DropPath (drop_path): 4-90             [1, 4096, 128]       --                   [1, 4096, 128]       (recursive)
│    │    └─Block (2): 3-26                             [1, 128, 64, 64]     --                   [1, 128, 64, 64]     (recursive)
│    │    │    └─LayerNorm (norm1): 4-91                [1, 4096, 128]       --                   [1, 4096, 128]       (recursive)
│    │    │    └─Attention (attn): 4-92                 [1, 4096, 128]       --                   [1, 4096, 128]       (recursive)
│    │    │    │    └─Linear (q): 5-196                 [1, 4096, 128]       --                   [1, 4096, 128]       (recursive)
│    │    │    │    └─Conv2d (sr): 5-197                [1, 128, 64, 64]     [4, 4]               [1, 128, 16, 16]     (recursive)
│    │    │    │    └─LayerNorm (norm): 5-198           [1, 256, 128]        --                   [1, 256, 128]        (recursive)
│    │    │    │    └─Linear (kv): 5-199                [1, 256, 128]        --                   [1, 256, 256]        (recursive)
│    │    │    │    └─Dropout (attn_drop): 5-200        [1, 2, 4096, 256]    --                   [1, 2, 4096, 256]    (recursive)
│    │    │    │    └─Linear (proj): 5-201              [1, 4096, 128]       --                   [1, 4096, 128]       (recursive)
│    │    │    │    └─Dropout (proj_drop): 5-202        [1, 4096, 128]       --                   [1, 4096, 128]       (recursive)
│    │    │    └─DropPath (drop_path): 4-93             [1, 4096, 128]       --                   [1, 4096, 128]       (recursive)
│    │    │    └─LayerNorm (norm2): 4-94                [1, 4096, 128]       --                   [1, 4096, 128]       (recursive)
│    │    │    └─Mlp (mlp): 4-95                        [1, 4096, 128]       --                   [1, 4096, 128]       (recursive)
│    │    │    │    └─Linear (fc1): 5-203               [1, 4096, 128]       --                   [1, 4096, 512]       (recursive)
│    │    │    │    └─DWConv (dwconv): 5-204            [1, 4096, 512]       --                   [1, 4096, 512]       (recursive)
│    │    │    │    └─GELU (act): 5-205                 [1, 4096, 512]       --                   [1, 4096, 512]       (recursive)
│    │    │    │    └─Dropout (drop): 5-206             [1, 4096, 512]       --                   [1, 4096, 512]       (recursive)
│    │    │    │    └─Linear (fc2): 5-207               [1, 4096, 512]       --                   [1, 4096, 128]       (recursive)
│    │    │    │    └─Dropout (drop): 5-208             [1, 4096, 128]       --                   [1, 4096, 128]       (recursive)
│    │    │    └─DropPath (drop_path): 4-96             [1, 4096, 128]       --                   [1, 4096, 128]       (recursive)
│    │    └─Block (3): 3-27                             [1, 128, 64, 64]     --                   [1, 128, 64, 64]     (recursive)
│    │    │    └─LayerNorm (norm1): 4-97                [1, 4096, 128]       --                   [1, 4096, 128]       (recursive)
│    │    │    └─Attention (attn): 4-98                 [1, 4096, 128]       --                   [1, 4096, 128]       (recursive)
│    │    │    │    └─Linear (q): 5-209                 [1, 4096, 128]       --                   [1, 4096, 128]       (recursive)
│    │    │    │    └─Conv2d (sr): 5-210                [1, 128, 64, 64]     [4, 4]               [1, 128, 16, 16]     (recursive)
│    │    │    │    └─LayerNorm (norm): 5-211           [1, 256, 128]        --                   [1, 256, 128]        (recursive)
│    │    │    │    └─Linear (kv): 5-212                [1, 256, 128]        --                   [1, 256, 256]        (recursive)
│    │    │    │    └─Dropout (attn_drop): 5-213        [1, 2, 4096, 256]    --                   [1, 2, 4096, 256]    (recursive)
│    │    │    │    └─Linear (proj): 5-214              [1, 4096, 128]       --                   [1, 4096, 128]       (recursive)
│    │    │    │    └─Dropout (proj_drop): 5-215        [1, 4096, 128]       --                   [1, 4096, 128]       (recursive)
│    │    │    └─DropPath (drop_path): 4-99             [1, 4096, 128]       --                   [1, 4096, 128]       (recursive)
│    │    │    └─LayerNorm (norm2): 4-100               [1, 4096, 128]       --                   [1, 4096, 128]       (recursive)
│    │    │    └─Mlp (mlp): 4-101                       [1, 4096, 128]       --                   [1, 4096, 128]       (recursive)
│    │    │    │    └─Linear (fc1): 5-216               [1, 4096, 128]       --                   [1, 4096, 512]       (recursive)
│    │    │    │    └─DWConv (dwconv): 5-217            [1, 4096, 512]       --                   [1, 4096, 512]       (recursive)
│    │    │    │    └─GELU (act): 5-218                 [1, 4096, 512]       --                   [1, 4096, 512]       (recursive)
│    │    │    │    └─Dropout (drop): 5-219             [1, 4096, 512]       --                   [1, 4096, 512]       (recursive)
│    │    │    │    └─Linear (fc2): 5-220               [1, 4096, 512]       --                   [1, 4096, 128]       (recursive)
│    │    │    │    └─Dropout (drop): 5-221             [1, 4096, 128]       --                   [1, 4096, 128]       (recursive)
│    │    │    └─DropPath (drop_path): 4-102            [1, 4096, 128]       --                   [1, 4096, 128]       (recursive)
│    └─LayerNorm (norm2): 2-15                          [1, 128, 64, 64]     --                   [1, 128, 64, 64]     (recursive)
│    └─OverlapPatchEmbed (patch_embed2): 2-16           [1, 64, 128, 128]    --                   [1, 128, 64, 64]     (recursive)
│    │    └─Conv2d (proj): 3-28                         [1, 64, 128, 128]    [3, 3]               [1, 128, 64, 64]     (recursive)
│    │    └─LayerNorm (norm): 3-29                      [1, 128, 64, 64]     --                   [1, 128, 64, 64]     (recursive)
│    └─Sequential (block2): 2-17                        [1, 128, 64, 64]     --                   [1, 128, 64, 64]     (recursive)
│    │    └─Block (0): 3-30                             [1, 128, 64, 64]     --                   [1, 128, 64, 64]     (recursive)
│    │    │    └─LayerNorm (norm1): 4-103               [1, 4096, 128]       --                   [1, 4096, 128]       (recursive)
│    │    │    └─Attention (attn): 4-104                [1, 4096, 128]       --                   [1, 4096, 128]       (recursive)
│    │    │    │    └─Linear (q): 5-222                 [1, 4096, 128]       --                   [1, 4096, 128]       (recursive)
│    │    │    │    └─Conv2d (sr): 5-223                [1, 128, 64, 64]     [4, 4]               [1, 128, 16, 16]     (recursive)
│    │    │    │    └─LayerNorm (norm): 5-224           [1, 256, 128]        --                   [1, 256, 128]        (recursive)
│    │    │    │    └─Linear (kv): 5-225                [1, 256, 128]        --                   [1, 256, 256]        (recursive)
│    │    │    │    └─Dropout (attn_drop): 5-226        [1, 2, 4096, 256]    --                   [1, 2, 4096, 256]    (recursive)
│    │    │    │    └─Linear (proj): 5-227              [1, 4096, 128]       --                   [1, 4096, 128]       (recursive)
│    │    │    │    └─Dropout (proj_drop): 5-228        [1, 4096, 128]       --                   [1, 4096, 128]       (recursive)
│    │    │    └─DropPath (drop_path): 4-105            [1, 4096, 128]       --                   [1, 4096, 128]       (recursive)
│    │    │    └─LayerNorm (norm2): 4-106               [1, 4096, 128]       --                   [1, 4096, 128]       (recursive)
│    │    │    └─Mlp (mlp): 4-107                       [1, 4096, 128]       --                   [1, 4096, 128]       (recursive)
│    │    │    │    └─Linear (fc1): 5-229               [1, 4096, 128]       --                   [1, 4096, 512]       (recursive)
│    │    │    │    └─DWConv (dwconv): 5-230            [1, 4096, 512]       --                   [1, 4096, 512]       (recursive)
│    │    │    │    └─GELU (act): 5-231                 [1, 4096, 512]       --                   [1, 4096, 512]       (recursive)
│    │    │    │    └─Dropout (drop): 5-232             [1, 4096, 512]       --                   [1, 4096, 512]       (recursive)
│    │    │    │    └─Linear (fc2): 5-233               [1, 4096, 512]       --                   [1, 4096, 128]       (recursive)
│    │    │    │    └─Dropout (drop): 5-234             [1, 4096, 128]       --                   [1, 4096, 128]       (recursive)
│    │    │    └─DropPath (drop_path): 4-108            [1, 4096, 128]       --                   [1, 4096, 128]       (recursive)
│    │    └─Block (1): 3-31                             [1, 128, 64, 64]     --                   [1, 128, 64, 64]     (recursive)
│    │    │    └─LayerNorm (norm1): 4-109               [1, 4096, 128]       --                   [1, 4096, 128]       (recursive)
│    │    │    └─Attention (attn): 4-110                [1, 4096, 128]       --                   [1, 4096, 128]       (recursive)
│    │    │    │    └─Linear (q): 5-235                 [1, 4096, 128]       --                   [1, 4096, 128]       (recursive)
│    │    │    │    └─Conv2d (sr): 5-236                [1, 128, 64, 64]     [4, 4]               [1, 128, 16, 16]     (recursive)
│    │    │    │    └─LayerNorm (norm): 5-237           [1, 256, 128]        --                   [1, 256, 128]        (recursive)
│    │    │    │    └─Linear (kv): 5-238                [1, 256, 128]        --                   [1, 256, 256]        (recursive)
│    │    │    │    └─Dropout (attn_drop): 5-239        [1, 2, 4096, 256]    --                   [1, 2, 4096, 256]    (recursive)
│    │    │    │    └─Linear (proj): 5-240              [1, 4096, 128]       --                   [1, 4096, 128]       (recursive)
│    │    │    │    └─Dropout (proj_drop): 5-241        [1, 4096, 128]       --                   [1, 4096, 128]       (recursive)
│    │    │    └─DropPath (drop_path): 4-111            [1, 4096, 128]       --                   [1, 4096, 128]       (recursive)
│    │    │    └─LayerNorm (norm2): 4-112               [1, 4096, 128]       --                   [1, 4096, 128]       (recursive)
│    │    │    └─Mlp (mlp): 4-113                       [1, 4096, 128]       --                   [1, 4096, 128]       (recursive)
│    │    │    │    └─Linear (fc1): 5-242               [1, 4096, 128]       --                   [1, 4096, 512]       (recursive)
│    │    │    │    └─DWConv (dwconv): 5-243            [1, 4096, 512]       --                   [1, 4096, 512]       (recursive)
│    │    │    │    └─GELU (act): 5-244                 [1, 4096, 512]       --                   [1, 4096, 512]       (recursive)
│    │    │    │    └─Dropout (drop): 5-245             [1, 4096, 512]       --                   [1, 4096, 512]       (recursive)
│    │    │    │    └─Linear (fc2): 5-246               [1, 4096, 512]       --                   [1, 4096, 128]       (recursive)
│    │    │    │    └─Dropout (drop): 5-247             [1, 4096, 128]       --                   [1, 4096, 128]       (recursive)
│    │    │    └─DropPath (drop_path): 4-114            [1, 4096, 128]       --                   [1, 4096, 128]       (recursive)
│    │    └─Block (2): 3-32                             [1, 128, 64, 64]     --                   [1, 128, 64, 64]     (recursive)
│    │    │    └─LayerNorm (norm1): 4-115               [1, 4096, 128]       --                   [1, 4096, 128]       (recursive)
│    │    │    └─Attention (attn): 4-116                [1, 4096, 128]       --                   [1, 4096, 128]       (recursive)
│    │    │    │    └─Linear (q): 5-248                 [1, 4096, 128]       --                   [1, 4096, 128]       (recursive)
│    │    │    │    └─Conv2d (sr): 5-249                [1, 128, 64, 64]     [4, 4]               [1, 128, 16, 16]     (recursive)
│    │    │    │    └─LayerNorm (norm): 5-250           [1, 256, 128]        --                   [1, 256, 128]        (recursive)
│    │    │    │    └─Linear (kv): 5-251                [1, 256, 128]        --                   [1, 256, 256]        (recursive)
│    │    │    │    └─Dropout (attn_drop): 5-252        [1, 2, 4096, 256]    --                   [1, 2, 4096, 256]    (recursive)
│    │    │    │    └─Linear (proj): 5-253              [1, 4096, 128]       --                   [1, 4096, 128]       (recursive)
│    │    │    │    └─Dropout (proj_drop): 5-254        [1, 4096, 128]       --                   [1, 4096, 128]       (recursive)
│    │    │    └─DropPath (drop_path): 4-117            [1, 4096, 128]       --                   [1, 4096, 128]       (recursive)
│    │    │    └─LayerNorm (norm2): 4-118               [1, 4096, 128]       --                   [1, 4096, 128]       (recursive)
│    │    │    └─Mlp (mlp): 4-119                       [1, 4096, 128]       --                   [1, 4096, 128]       (recursive)
│    │    │    │    └─Linear (fc1): 5-255               [1, 4096, 128]       --                   [1, 4096, 512]       (recursive)
│    │    │    │    └─DWConv (dwconv): 5-256            [1, 4096, 512]       --                   [1, 4096, 512]       (recursive)
│    │    │    │    └─GELU (act): 5-257                 [1, 4096, 512]       --                   [1, 4096, 512]       (recursive)
│    │    │    │    └─Dropout (drop): 5-258             [1, 4096, 512]       --                   [1, 4096, 512]       (recursive)
│    │    │    │    └─Linear (fc2): 5-259               [1, 4096, 512]       --                   [1, 4096, 128]       (recursive)
│    │    │    │    └─Dropout (drop): 5-260             [1, 4096, 128]       --                   [1, 4096, 128]       (recursive)
│    │    │    └─DropPath (drop_path): 4-120            [1, 4096, 128]       --                   [1, 4096, 128]       (recursive)
│    │    └─Block (3): 3-33                             [1, 128, 64, 64]     --                   [1, 128, 64, 64]     (recursive)
│    │    │    └─LayerNorm (norm1): 4-121               [1, 4096, 128]       --                   [1, 4096, 128]       (recursive)
│    │    │    └─Attention (attn): 4-122                [1, 4096, 128]       --                   [1, 4096, 128]       (recursive)
│    │    │    │    └─Linear (q): 5-261                 [1, 4096, 128]       --                   [1, 4096, 128]       (recursive)
│    │    │    │    └─Conv2d (sr): 5-262                [1, 128, 64, 64]     [4, 4]               [1, 128, 16, 16]     (recursive)
│    │    │    │    └─LayerNorm (norm): 5-263           [1, 256, 128]        --                   [1, 256, 128]        (recursive)
│    │    │    │    └─Linear (kv): 5-264                [1, 256, 128]        --                   [1, 256, 256]        (recursive)
│    │    │    │    └─Dropout (attn_drop): 5-265        [1, 2, 4096, 256]    --                   [1, 2, 4096, 256]    (recursive)
│    │    │    │    └─Linear (proj): 5-266              [1, 4096, 128]       --                   [1, 4096, 128]       (recursive)
│    │    │    │    └─Dropout (proj_drop): 5-267        [1, 4096, 128]       --                   [1, 4096, 128]       (recursive)
│    │    │    └─DropPath (drop_path): 4-123            [1, 4096, 128]       --                   [1, 4096, 128]       (recursive)
│    │    │    └─LayerNorm (norm2): 4-124               [1, 4096, 128]       --                   [1, 4096, 128]       (recursive)
│    │    │    └─Mlp (mlp): 4-125                       [1, 4096, 128]       --                   [1, 4096, 128]       (recursive)
│    │    │    │    └─Linear (fc1): 5-268               [1, 4096, 128]       --                   [1, 4096, 512]       (recursive)
│    │    │    │    └─DWConv (dwconv): 5-269            [1, 4096, 512]       --                   [1, 4096, 512]       (recursive)
│    │    │    │    └─GELU (act): 5-270                 [1, 4096, 512]       --                   [1, 4096, 512]       (recursive)
│    │    │    │    └─Dropout (drop): 5-271             [1, 4096, 512]       --                   [1, 4096, 512]       (recursive)
│    │    │    │    └─Linear (fc2): 5-272               [1, 4096, 512]       --                   [1, 4096, 128]       (recursive)
│    │    │    │    └─Dropout (drop): 5-273             [1, 4096, 128]       --                   [1, 4096, 128]       (recursive)
│    │    │    └─DropPath (drop_path): 4-126            [1, 4096, 128]       --                   [1, 4096, 128]       (recursive)
│    └─LayerNorm (norm2): 2-18                          [1, 128, 64, 64]     --                   [1, 128, 64, 64]     (recursive)
│    └─OverlapPatchEmbed (patch_embed3): 2-19           [1, 128, 64, 64]     --                   [1, 320, 32, 32]          --
│    │    └─Conv2d (proj): 3-34                         [1, 128, 64, 64]     [3, 3]               [1, 320, 32, 32]       1.07%
│    │    └─LayerNorm (norm): 3-35                      [1, 320, 32, 32]     --                   [1, 320, 32, 32]       0.00%
│    └─Sequential (block3): 2-20                        [1, 320, 32, 32]     --                   [1, 320, 32, 32]          --
│    │    └─Block (0): 3-36                             [1, 320, 32, 32]     --                   [1, 320, 32, 32]          --
│    │    │    └─LayerNorm (norm1): 4-127               [1, 1024, 320]       --                   [1, 1024, 320]         0.00%
│    │    │    └─Attention (attn): 4-128                [1, 1024, 320]       --                   [1, 1024, 320]            --
│    │    │    │    └─Linear (q): 5-274                 [1, 1024, 320]       --                   [1, 1024, 320]         0.30%
│    │    │    │    └─Conv2d (sr): 5-275                [1, 320, 32, 32]     [2, 2]               [1, 320, 16, 16]       1.19%
│    │    │    │    └─LayerNorm (norm): 5-276           [1, 256, 320]        --                   [1, 256, 320]          0.00%
│    │    │    │    └─Linear (kv): 5-277                [1, 256, 320]        --                   [1, 256, 640]          0.59%
│    │    │    │    └─Dropout (attn_drop): 5-278        [1, 5, 1024, 256]    --                   [1, 5, 1024, 256]         --
│    │    │    │    └─Linear (proj): 5-279              [1, 1024, 320]       --                   [1, 1024, 320]         0.30%
│    │    │    │    └─Dropout (proj_drop): 5-280        [1, 1024, 320]       --                   [1, 1024, 320]            --
│    │    │    └─DropPath (drop_path): 4-129            [1, 1024, 320]       --                   [1, 1024, 320]            --
│    │    │    └─LayerNorm (norm2): 4-130               [1, 1024, 320]       --                   [1, 1024, 320]         0.00%
│    │    │    └─Mlp (mlp): 4-131                       [1, 1024, 320]       --                   [1, 1024, 320]            --
│    │    │    │    └─Linear (fc1): 5-281               [1, 1024, 320]       --                   [1, 1024, 1280]        1.19%
│    │    │    │    └─DWConv (dwconv): 5-282            [1, 1024, 1280]      --                   [1, 1024, 1280]        0.04%
│    │    │    │    └─GELU (act): 5-283                 [1, 1024, 1280]      --                   [1, 1024, 1280]           --
│    │    │    │    └─Dropout (drop): 5-284             [1, 1024, 1280]      --                   [1, 1024, 1280]           --
│    │    │    │    └─Linear (fc2): 5-285               [1, 1024, 1280]      --                   [1, 1024, 320]         1.19%
│    │    │    │    └─Dropout (drop): 5-286             [1, 1024, 320]       --                   [1, 1024, 320]       (recursive)
│    │    │    └─DropPath (drop_path): 4-132            [1, 1024, 320]       --                   [1, 1024, 320]       (recursive)
│    │    └─Block (1): 3-37                             [1, 320, 32, 32]     --                   [1, 320, 32, 32]          --
│    │    │    └─LayerNorm (norm1): 4-133               [1, 1024, 320]       --                   [1, 1024, 320]         0.00%
│    │    │    └─Attention (attn): 4-134                [1, 1024, 320]       --                   [1, 1024, 320]            --
│    │    │    │    └─Linear (q): 5-287                 [1, 1024, 320]       --                   [1, 1024, 320]         0.30%
│    │    │    │    └─Conv2d (sr): 5-288                [1, 320, 32, 32]     [2, 2]               [1, 320, 16, 16]       1.19%
│    │    │    │    └─LayerNorm (norm): 5-289           [1, 256, 320]        --                   [1, 256, 320]          0.00%
│    │    │    │    └─Linear (kv): 5-290                [1, 256, 320]        --                   [1, 256, 640]          0.59%
│    │    │    │    └─Dropout (attn_drop): 5-291        [1, 5, 1024, 256]    --                   [1, 5, 1024, 256]         --
│    │    │    │    └─Linear (proj): 5-292              [1, 1024, 320]       --                   [1, 1024, 320]         0.30%
│    │    │    │    └─Dropout (proj_drop): 5-293        [1, 1024, 320]       --                   [1, 1024, 320]            --
│    │    │    └─DropPath (drop_path): 4-135            [1, 1024, 320]       --                   [1, 1024, 320]            --
│    │    │    └─LayerNorm (norm2): 4-136               [1, 1024, 320]       --                   [1, 1024, 320]         0.00%
│    │    │    └─Mlp (mlp): 4-137                       [1, 1024, 320]       --                   [1, 1024, 320]            --
│    │    │    │    └─Linear (fc1): 5-294               [1, 1024, 320]       --                   [1, 1024, 1280]        1.19%
│    │    │    │    └─DWConv (dwconv): 5-295            [1, 1024, 1280]      --                   [1, 1024, 1280]        0.04%
│    │    │    │    └─GELU (act): 5-296                 [1, 1024, 1280]      --                   [1, 1024, 1280]           --
│    │    │    │    └─Dropout (drop): 5-297             [1, 1024, 1280]      --                   [1, 1024, 1280]           --
│    │    │    │    └─Linear (fc2): 5-298               [1, 1024, 1280]      --                   [1, 1024, 320]         1.19%
│    │    │    │    └─Dropout (drop): 5-299             [1, 1024, 320]       --                   [1, 1024, 320]       (recursive)
│    │    │    └─DropPath (drop_path): 4-138            [1, 1024, 320]       --                   [1, 1024, 320]       (recursive)
│    │    └─Block (2): 3-38                             [1, 320, 32, 32]     --                   [1, 320, 32, 32]          --
│    │    │    └─LayerNorm (norm1): 4-139               [1, 1024, 320]       --                   [1, 1024, 320]         0.00%
│    │    │    └─Attention (attn): 4-140                [1, 1024, 320]       --                   [1, 1024, 320]            --
│    │    │    │    └─Linear (q): 5-300                 [1, 1024, 320]       --                   [1, 1024, 320]         0.30%
│    │    │    │    └─Conv2d (sr): 5-301                [1, 320, 32, 32]     [2, 2]               [1, 320, 16, 16]       1.19%
│    │    │    │    └─LayerNorm (norm): 5-302           [1, 256, 320]        --                   [1, 256, 320]          0.00%
│    │    │    │    └─Linear (kv): 5-303                [1, 256, 320]        --                   [1, 256, 640]          0.59%
│    │    │    │    └─Dropout (attn_drop): 5-304        [1, 5, 1024, 256]    --                   [1, 5, 1024, 256]         --
│    │    │    │    └─Linear (proj): 5-305              [1, 1024, 320]       --                   [1, 1024, 320]         0.30%
│    │    │    │    └─Dropout (proj_drop): 5-306        [1, 1024, 320]       --                   [1, 1024, 320]            --
│    │    │    └─DropPath (drop_path): 4-141            [1, 1024, 320]       --                   [1, 1024, 320]            --
│    │    │    └─LayerNorm (norm2): 4-142               [1, 1024, 320]       --                   [1, 1024, 320]         0.00%
│    │    │    └─Mlp (mlp): 4-143                       [1, 1024, 320]       --                   [1, 1024, 320]            --
│    │    │    │    └─Linear (fc1): 5-307               [1, 1024, 320]       --                   [1, 1024, 1280]        1.19%
│    │    │    │    └─DWConv (dwconv): 5-308            [1, 1024, 1280]      --                   [1, 1024, 1280]        0.04%
│    │    │    │    └─GELU (act): 5-309                 [1, 1024, 1280]      --                   [1, 1024, 1280]           --
│    │    │    │    └─Dropout (drop): 5-310             [1, 1024, 1280]      --                   [1, 1024, 1280]           --
│    │    │    │    └─Linear (fc2): 5-311               [1, 1024, 1280]      --                   [1, 1024, 320]         1.19%
│    │    │    │    └─Dropout (drop): 5-312             [1, 1024, 320]       --                   [1, 1024, 320]       (recursive)
│    │    │    └─DropPath (drop_path): 4-144            [1, 1024, 320]       --                   [1, 1024, 320]       (recursive)
│    │    └─Block (3): 3-39                             [1, 320, 32, 32]     --                   [1, 320, 32, 32]          --
│    │    │    └─LayerNorm (norm1): 4-145               [1, 1024, 320]       --                   [1, 1024, 320]         0.00%
│    │    │    └─Attention (attn): 4-146                [1, 1024, 320]       --                   [1, 1024, 320]            --
│    │    │    │    └─Linear (q): 5-313                 [1, 1024, 320]       --                   [1, 1024, 320]         0.30%
│    │    │    │    └─Conv2d (sr): 5-314                [1, 320, 32, 32]     [2, 2]               [1, 320, 16, 16]       1.19%
│    │    │    │    └─LayerNorm (norm): 5-315           [1, 256, 320]        --                   [1, 256, 320]          0.00%
│    │    │    │    └─Linear (kv): 5-316                [1, 256, 320]        --                   [1, 256, 640]          0.59%
│    │    │    │    └─Dropout (attn_drop): 5-317        [1, 5, 1024, 256]    --                   [1, 5, 1024, 256]         --
│    │    │    │    └─Linear (proj): 5-318              [1, 1024, 320]       --                   [1, 1024, 320]         0.30%
│    │    │    │    └─Dropout (proj_drop): 5-319        [1, 1024, 320]       --                   [1, 1024, 320]            --
│    │    │    └─DropPath (drop_path): 4-147            [1, 1024, 320]       --                   [1, 1024, 320]            --
│    │    │    └─LayerNorm (norm2): 4-148               [1, 1024, 320]       --                   [1, 1024, 320]         0.00%
│    │    │    └─Mlp (mlp): 4-149                       [1, 1024, 320]       --                   [1, 1024, 320]            --
│    │    │    │    └─Linear (fc1): 5-320               [1, 1024, 320]       --                   [1, 1024, 1280]        1.19%
│    │    │    │    └─DWConv (dwconv): 5-321            [1, 1024, 1280]      --                   [1, 1024, 1280]        0.04%
│    │    │    │    └─GELU (act): 5-322                 [1, 1024, 1280]      --                   [1, 1024, 1280]           --
│    │    │    │    └─Dropout (drop): 5-323             [1, 1024, 1280]      --                   [1, 1024, 1280]           --
│    │    │    │    └─Linear (fc2): 5-324               [1, 1024, 1280]      --                   [1, 1024, 320]         1.19%
│    │    │    │    └─Dropout (drop): 5-325             [1, 1024, 320]       --                   [1, 1024, 320]       (recursive)
│    │    │    └─DropPath (drop_path): 4-150            [1, 1024, 320]       --                   [1, 1024, 320]       (recursive)
│    │    └─Block (4): 3-40                             [1, 320, 32, 32]     --                   [1, 320, 32, 32]          --
│    │    │    └─LayerNorm (norm1): 4-151               [1, 1024, 320]       --                   [1, 1024, 320]         0.00%
│    │    │    └─Attention (attn): 4-152                [1, 1024, 320]       --                   [1, 1024, 320]            --
│    │    │    │    └─Linear (q): 5-326                 [1, 1024, 320]       --                   [1, 1024, 320]         0.30%
│    │    │    │    └─Conv2d (sr): 5-327                [1, 320, 32, 32]     [2, 2]               [1, 320, 16, 16]       1.19%
│    │    │    │    └─LayerNorm (norm): 5-328           [1, 256, 320]        --                   [1, 256, 320]          0.00%
│    │    │    │    └─Linear (kv): 5-329                [1, 256, 320]        --                   [1, 256, 640]          0.59%
│    │    │    │    └─Dropout (attn_drop): 5-330        [1, 5, 1024, 256]    --                   [1, 5, 1024, 256]         --
│    │    │    │    └─Linear (proj): 5-331              [1, 1024, 320]       --                   [1, 1024, 320]         0.30%
│    │    │    │    └─Dropout (proj_drop): 5-332        [1, 1024, 320]       --                   [1, 1024, 320]            --
│    │    │    └─DropPath (drop_path): 4-153            [1, 1024, 320]       --                   [1, 1024, 320]            --
│    │    │    └─LayerNorm (norm2): 4-154               [1, 1024, 320]       --                   [1, 1024, 320]         0.00%
│    │    │    └─Mlp (mlp): 4-155                       [1, 1024, 320]       --                   [1, 1024, 320]            --
│    │    │    │    └─Linear (fc1): 5-333               [1, 1024, 320]       --                   [1, 1024, 1280]        1.19%
│    │    │    │    └─DWConv (dwconv): 5-334            [1, 1024, 1280]      --                   [1, 1024, 1280]        0.04%
│    │    │    │    └─GELU (act): 5-335                 [1, 1024, 1280]      --                   [1, 1024, 1280]           --
│    │    │    │    └─Dropout (drop): 5-336             [1, 1024, 1280]      --                   [1, 1024, 1280]           --
│    │    │    │    └─Linear (fc2): 5-337               [1, 1024, 1280]      --                   [1, 1024, 320]         1.19%
│    │    │    │    └─Dropout (drop): 5-338             [1, 1024, 320]       --                   [1, 1024, 320]       (recursive)
│    │    │    └─DropPath (drop_path): 4-156            [1, 1024, 320]       --                   [1, 1024, 320]       (recursive)
│    │    └─Block (5): 3-41                             [1, 320, 32, 32]     --                   [1, 320, 32, 32]          --
│    │    │    └─LayerNorm (norm1): 4-157               [1, 1024, 320]       --                   [1, 1024, 320]         0.00%
│    │    │    └─Attention (attn): 4-158                [1, 1024, 320]       --                   [1, 1024, 320]            --
│    │    │    │    └─Linear (q): 5-339                 [1, 1024, 320]       --                   [1, 1024, 320]         0.30%
│    │    │    │    └─Conv2d (sr): 5-340                [1, 320, 32, 32]     [2, 2]               [1, 320, 16, 16]       1.19%
│    │    │    │    └─LayerNorm (norm): 5-341           [1, 256, 320]        --                   [1, 256, 320]          0.00%
│    │    │    │    └─Linear (kv): 5-342                [1, 256, 320]        --                   [1, 256, 640]          0.59%
│    │    │    │    └─Dropout (attn_drop): 5-343        [1, 5, 1024, 256]    --                   [1, 5, 1024, 256]         --
│    │    │    │    └─Linear (proj): 5-344              [1, 1024, 320]       --                   [1, 1024, 320]         0.30%
│    │    │    │    └─Dropout (proj_drop): 5-345        [1, 1024, 320]       --                   [1, 1024, 320]            --
│    │    │    └─DropPath (drop_path): 4-159            [1, 1024, 320]       --                   [1, 1024, 320]            --
│    │    │    └─LayerNorm (norm2): 4-160               [1, 1024, 320]       --                   [1, 1024, 320]         0.00%
│    │    │    └─Mlp (mlp): 4-161                       [1, 1024, 320]       --                   [1, 1024, 320]            --
│    │    │    │    └─Linear (fc1): 5-346               [1, 1024, 320]       --                   [1, 1024, 1280]        1.19%
│    │    │    │    └─DWConv (dwconv): 5-347            [1, 1024, 1280]      --                   [1, 1024, 1280]        0.04%
│    │    │    │    └─GELU (act): 5-348                 [1, 1024, 1280]      --                   [1, 1024, 1280]           --
│    │    │    │    └─Dropout (drop): 5-349             [1, 1024, 1280]      --                   [1, 1024, 1280]           --
│    │    │    │    └─Linear (fc2): 5-350               [1, 1024, 1280]      --                   [1, 1024, 320]         1.19%
│    │    │    │    └─Dropout (drop): 5-351             [1, 1024, 320]       --                   [1, 1024, 320]       (recursive)
│    │    │    └─DropPath (drop_path): 4-162            [1, 1024, 320]       --                   [1, 1024, 320]       (recursive)
│    └─LayerNorm (norm3): 2-21                          [1, 320, 32, 32]     --                   [1, 320, 32, 32]       0.00%
│    └─OverlapPatchEmbed (patch_embed3): 2-22           [1, 128, 64, 64]     --                   [1, 320, 32, 32]     (recursive)
│    │    └─Conv2d (proj): 3-42                         [1, 128, 64, 64]     [3, 3]               [1, 320, 32, 32]     (recursive)
│    │    └─LayerNorm (norm): 3-43                      [1, 320, 32, 32]     --                   [1, 320, 32, 32]     (recursive)
│    └─Sequential (block3): 2-23                        [1, 320, 32, 32]     --                   [1, 320, 32, 32]     (recursive)
│    │    └─Block (0): 3-44                             [1, 320, 32, 32]     --                   [1, 320, 32, 32]     (recursive)
│    │    │    └─LayerNorm (norm1): 4-163               [1, 1024, 320]       --                   [1, 1024, 320]       (recursive)
│    │    │    └─Attention (attn): 4-164                [1, 1024, 320]       --                   [1, 1024, 320]       (recursive)
│    │    │    │    └─Linear (q): 5-352                 [1, 1024, 320]       --                   [1, 1024, 320]       (recursive)
│    │    │    │    └─Conv2d (sr): 5-353                [1, 320, 32, 32]     [2, 2]               [1, 320, 16, 16]     (recursive)
│    │    │    │    └─LayerNorm (norm): 5-354           [1, 256, 320]        --                   [1, 256, 320]        (recursive)
│    │    │    │    └─Linear (kv): 5-355                [1, 256, 320]        --                   [1, 256, 640]        (recursive)
│    │    │    │    └─Dropout (attn_drop): 5-356        [1, 5, 1024, 256]    --                   [1, 5, 1024, 256]    (recursive)
│    │    │    │    └─Linear (proj): 5-357              [1, 1024, 320]       --                   [1, 1024, 320]       (recursive)
│    │    │    │    └─Dropout (proj_drop): 5-358        [1, 1024, 320]       --                   [1, 1024, 320]       (recursive)
│    │    │    └─DropPath (drop_path): 4-165            [1, 1024, 320]       --                   [1, 1024, 320]       (recursive)
│    │    │    └─LayerNorm (norm2): 4-166               [1, 1024, 320]       --                   [1, 1024, 320]       (recursive)
│    │    │    └─Mlp (mlp): 4-167                       [1, 1024, 320]       --                   [1, 1024, 320]       (recursive)
│    │    │    │    └─Linear (fc1): 5-359               [1, 1024, 320]       --                   [1, 1024, 1280]      (recursive)
│    │    │    │    └─DWConv (dwconv): 5-360            [1, 1024, 1280]      --                   [1, 1024, 1280]      (recursive)
│    │    │    │    └─GELU (act): 5-361                 [1, 1024, 1280]      --                   [1, 1024, 1280]      (recursive)
│    │    │    │    └─Dropout (drop): 5-362             [1, 1024, 1280]      --                   [1, 1024, 1280]      (recursive)
│    │    │    │    └─Linear (fc2): 5-363               [1, 1024, 1280]      --                   [1, 1024, 320]       (recursive)
│    │    │    │    └─Dropout (drop): 5-364             [1, 1024, 320]       --                   [1, 1024, 320]       (recursive)
│    │    │    └─DropPath (drop_path): 4-168            [1, 1024, 320]       --                   [1, 1024, 320]       (recursive)
│    │    └─Block (1): 3-45                             [1, 320, 32, 32]     --                   [1, 320, 32, 32]     (recursive)
│    │    │    └─LayerNorm (norm1): 4-169               [1, 1024, 320]       --                   [1, 1024, 320]       (recursive)
│    │    │    └─Attention (attn): 4-170                [1, 1024, 320]       --                   [1, 1024, 320]       (recursive)
│    │    │    │    └─Linear (q): 5-365                 [1, 1024, 320]       --                   [1, 1024, 320]       (recursive)
│    │    │    │    └─Conv2d (sr): 5-366                [1, 320, 32, 32]     [2, 2]               [1, 320, 16, 16]     (recursive)
│    │    │    │    └─LayerNorm (norm): 5-367           [1, 256, 320]        --                   [1, 256, 320]        (recursive)
│    │    │    │    └─Linear (kv): 5-368                [1, 256, 320]        --                   [1, 256, 640]        (recursive)
│    │    │    │    └─Dropout (attn_drop): 5-369        [1, 5, 1024, 256]    --                   [1, 5, 1024, 256]    (recursive)
│    │    │    │    └─Linear (proj): 5-370              [1, 1024, 320]       --                   [1, 1024, 320]       (recursive)
│    │    │    │    └─Dropout (proj_drop): 5-371        [1, 1024, 320]       --                   [1, 1024, 320]       (recursive)
│    │    │    └─DropPath (drop_path): 4-171            [1, 1024, 320]       --                   [1, 1024, 320]       (recursive)
│    │    │    └─LayerNorm (norm2): 4-172               [1, 1024, 320]       --                   [1, 1024, 320]       (recursive)
│    │    │    └─Mlp (mlp): 4-173                       [1, 1024, 320]       --                   [1, 1024, 320]       (recursive)
│    │    │    │    └─Linear (fc1): 5-372               [1, 1024, 320]       --                   [1, 1024, 1280]      (recursive)
│    │    │    │    └─DWConv (dwconv): 5-373            [1, 1024, 1280]      --                   [1, 1024, 1280]      (recursive)
│    │    │    │    └─GELU (act): 5-374                 [1, 1024, 1280]      --                   [1, 1024, 1280]      (recursive)
│    │    │    │    └─Dropout (drop): 5-375             [1, 1024, 1280]      --                   [1, 1024, 1280]      (recursive)
│    │    │    │    └─Linear (fc2): 5-376               [1, 1024, 1280]      --                   [1, 1024, 320]       (recursive)
│    │    │    │    └─Dropout (drop): 5-377             [1, 1024, 320]       --                   [1, 1024, 320]       (recursive)
│    │    │    └─DropPath (drop_path): 4-174            [1, 1024, 320]       --                   [1, 1024, 320]       (recursive)
│    │    └─Block (2): 3-46                             [1, 320, 32, 32]     --                   [1, 320, 32, 32]     (recursive)
│    │    │    └─LayerNorm (norm1): 4-175               [1, 1024, 320]       --                   [1, 1024, 320]       (recursive)
│    │    │    └─Attention (attn): 4-176                [1, 1024, 320]       --                   [1, 1024, 320]       (recursive)
│    │    │    │    └─Linear (q): 5-378                 [1, 1024, 320]       --                   [1, 1024, 320]       (recursive)
│    │    │    │    └─Conv2d (sr): 5-379                [1, 320, 32, 32]     [2, 2]               [1, 320, 16, 16]     (recursive)
│    │    │    │    └─LayerNorm (norm): 5-380           [1, 256, 320]        --                   [1, 256, 320]        (recursive)
│    │    │    │    └─Linear (kv): 5-381                [1, 256, 320]        --                   [1, 256, 640]        (recursive)
│    │    │    │    └─Dropout (attn_drop): 5-382        [1, 5, 1024, 256]    --                   [1, 5, 1024, 256]    (recursive)
│    │    │    │    └─Linear (proj): 5-383              [1, 1024, 320]       --                   [1, 1024, 320]       (recursive)
│    │    │    │    └─Dropout (proj_drop): 5-384        [1, 1024, 320]       --                   [1, 1024, 320]       (recursive)
│    │    │    └─DropPath (drop_path): 4-177            [1, 1024, 320]       --                   [1, 1024, 320]       (recursive)
│    │    │    └─LayerNorm (norm2): 4-178               [1, 1024, 320]       --                   [1, 1024, 320]       (recursive)
│    │    │    └─Mlp (mlp): 4-179                       [1, 1024, 320]       --                   [1, 1024, 320]       (recursive)
│    │    │    │    └─Linear (fc1): 5-385               [1, 1024, 320]       --                   [1, 1024, 1280]      (recursive)
│    │    │    │    └─DWConv (dwconv): 5-386            [1, 1024, 1280]      --                   [1, 1024, 1280]      (recursive)
│    │    │    │    └─GELU (act): 5-387                 [1, 1024, 1280]      --                   [1, 1024, 1280]      (recursive)
│    │    │    │    └─Dropout (drop): 5-388             [1, 1024, 1280]      --                   [1, 1024, 1280]      (recursive)
│    │    │    │    └─Linear (fc2): 5-389               [1, 1024, 1280]      --                   [1, 1024, 320]       (recursive)
│    │    │    │    └─Dropout (drop): 5-390             [1, 1024, 320]       --                   [1, 1024, 320]       (recursive)
│    │    │    └─DropPath (drop_path): 4-180            [1, 1024, 320]       --                   [1, 1024, 320]       (recursive)
│    │    └─Block (3): 3-47                             [1, 320, 32, 32]     --                   [1, 320, 32, 32]     (recursive)
│    │    │    └─LayerNorm (norm1): 4-181               [1, 1024, 320]       --                   [1, 1024, 320]       (recursive)
│    │    │    └─Attention (attn): 4-182                [1, 1024, 320]       --                   [1, 1024, 320]       (recursive)
│    │    │    │    └─Linear (q): 5-391                 [1, 1024, 320]       --                   [1, 1024, 320]       (recursive)
│    │    │    │    └─Conv2d (sr): 5-392                [1, 320, 32, 32]     [2, 2]               [1, 320, 16, 16]     (recursive)
│    │    │    │    └─LayerNorm (norm): 5-393           [1, 256, 320]        --                   [1, 256, 320]        (recursive)
│    │    │    │    └─Linear (kv): 5-394                [1, 256, 320]        --                   [1, 256, 640]        (recursive)
│    │    │    │    └─Dropout (attn_drop): 5-395        [1, 5, 1024, 256]    --                   [1, 5, 1024, 256]    (recursive)
│    │    │    │    └─Linear (proj): 5-396              [1, 1024, 320]       --                   [1, 1024, 320]       (recursive)
│    │    │    │    └─Dropout (proj_drop): 5-397        [1, 1024, 320]       --                   [1, 1024, 320]       (recursive)
│    │    │    └─DropPath (drop_path): 4-183            [1, 1024, 320]       --                   [1, 1024, 320]       (recursive)
│    │    │    └─LayerNorm (norm2): 4-184               [1, 1024, 320]       --                   [1, 1024, 320]       (recursive)
│    │    │    └─Mlp (mlp): 4-185                       [1, 1024, 320]       --                   [1, 1024, 320]       (recursive)
│    │    │    │    └─Linear (fc1): 5-398               [1, 1024, 320]       --                   [1, 1024, 1280]      (recursive)
│    │    │    │    └─DWConv (dwconv): 5-399            [1, 1024, 1280]      --                   [1, 1024, 1280]      (recursive)
│    │    │    │    └─GELU (act): 5-400                 [1, 1024, 1280]      --                   [1, 1024, 1280]      (recursive)
│    │    │    │    └─Dropout (drop): 5-401             [1, 1024, 1280]      --                   [1, 1024, 1280]      (recursive)
│    │    │    │    └─Linear (fc2): 5-402               [1, 1024, 1280]      --                   [1, 1024, 320]       (recursive)
│    │    │    │    └─Dropout (drop): 5-403             [1, 1024, 320]       --                   [1, 1024, 320]       (recursive)
│    │    │    └─DropPath (drop_path): 4-186            [1, 1024, 320]       --                   [1, 1024, 320]       (recursive)
│    │    └─Block (4): 3-48                             [1, 320, 32, 32]     --                   [1, 320, 32, 32]     (recursive)
│    │    │    └─LayerNorm (norm1): 4-187               [1, 1024, 320]       --                   [1, 1024, 320]       (recursive)
│    │    │    └─Attention (attn): 4-188                [1, 1024, 320]       --                   [1, 1024, 320]       (recursive)
│    │    │    │    └─Linear (q): 5-404                 [1, 1024, 320]       --                   [1, 1024, 320]       (recursive)
│    │    │    │    └─Conv2d (sr): 5-405                [1, 320, 32, 32]     [2, 2]               [1, 320, 16, 16]     (recursive)
│    │    │    │    └─LayerNorm (norm): 5-406           [1, 256, 320]        --                   [1, 256, 320]        (recursive)
│    │    │    │    └─Linear (kv): 5-407                [1, 256, 320]        --                   [1, 256, 640]        (recursive)
│    │    │    │    └─Dropout (attn_drop): 5-408        [1, 5, 1024, 256]    --                   [1, 5, 1024, 256]    (recursive)
│    │    │    │    └─Linear (proj): 5-409              [1, 1024, 320]       --                   [1, 1024, 320]       (recursive)
│    │    │    │    └─Dropout (proj_drop): 5-410        [1, 1024, 320]       --                   [1, 1024, 320]       (recursive)
│    │    │    └─DropPath (drop_path): 4-189            [1, 1024, 320]       --                   [1, 1024, 320]       (recursive)
│    │    │    └─LayerNorm (norm2): 4-190               [1, 1024, 320]       --                   [1, 1024, 320]       (recursive)
│    │    │    └─Mlp (mlp): 4-191                       [1, 1024, 320]       --                   [1, 1024, 320]       (recursive)
│    │    │    │    └─Linear (fc1): 5-411               [1, 1024, 320]       --                   [1, 1024, 1280]      (recursive)
│    │    │    │    └─DWConv (dwconv): 5-412            [1, 1024, 1280]      --                   [1, 1024, 1280]      (recursive)
│    │    │    │    └─GELU (act): 5-413                 [1, 1024, 1280]      --                   [1, 1024, 1280]      (recursive)
│    │    │    │    └─Dropout (drop): 5-414             [1, 1024, 1280]      --                   [1, 1024, 1280]      (recursive)
│    │    │    │    └─Linear (fc2): 5-415               [1, 1024, 1280]      --                   [1, 1024, 320]       (recursive)
│    │    │    │    └─Dropout (drop): 5-416             [1, 1024, 320]       --                   [1, 1024, 320]       (recursive)
│    │    │    └─DropPath (drop_path): 4-192            [1, 1024, 320]       --                   [1, 1024, 320]       (recursive)
│    │    └─Block (5): 3-49                             [1, 320, 32, 32]     --                   [1, 320, 32, 32]     (recursive)
│    │    │    └─LayerNorm (norm1): 4-193               [1, 1024, 320]       --                   [1, 1024, 320]       (recursive)
│    │    │    └─Attention (attn): 4-194                [1, 1024, 320]       --                   [1, 1024, 320]       (recursive)
│    │    │    │    └─Linear (q): 5-417                 [1, 1024, 320]       --                   [1, 1024, 320]       (recursive)
│    │    │    │    └─Conv2d (sr): 5-418                [1, 320, 32, 32]     [2, 2]               [1, 320, 16, 16]     (recursive)
│    │    │    │    └─LayerNorm (norm): 5-419           [1, 256, 320]        --                   [1, 256, 320]        (recursive)
│    │    │    │    └─Linear (kv): 5-420                [1, 256, 320]        --                   [1, 256, 640]        (recursive)
│    │    │    │    └─Dropout (attn_drop): 5-421        [1, 5, 1024, 256]    --                   [1, 5, 1024, 256]    (recursive)
│    │    │    │    └─Linear (proj): 5-422              [1, 1024, 320]       --                   [1, 1024, 320]       (recursive)
│    │    │    │    └─Dropout (proj_drop): 5-423        [1, 1024, 320]       --                   [1, 1024, 320]       (recursive)
│    │    │    └─DropPath (drop_path): 4-195            [1, 1024, 320]       --                   [1, 1024, 320]       (recursive)
│    │    │    └─LayerNorm (norm2): 4-196               [1, 1024, 320]       --                   [1, 1024, 320]       (recursive)
│    │    │    └─Mlp (mlp): 4-197                       [1, 1024, 320]       --                   [1, 1024, 320]       (recursive)
│    │    │    │    └─Linear (fc1): 5-424               [1, 1024, 320]       --                   [1, 1024, 1280]      (recursive)
│    │    │    │    └─DWConv (dwconv): 5-425            [1, 1024, 1280]      --                   [1, 1024, 1280]      (recursive)
│    │    │    │    └─GELU (act): 5-426                 [1, 1024, 1280]      --                   [1, 1024, 1280]      (recursive)
│    │    │    │    └─Dropout (drop): 5-427             [1, 1024, 1280]      --                   [1, 1024, 1280]      (recursive)
│    │    │    │    └─Linear (fc2): 5-428               [1, 1024, 1280]      --                   [1, 1024, 320]       (recursive)
│    │    │    │    └─Dropout (drop): 5-429             [1, 1024, 320]       --                   [1, 1024, 320]       (recursive)
│    │    │    └─DropPath (drop_path): 4-198            [1, 1024, 320]       --                   [1, 1024, 320]       (recursive)
│    └─LayerNorm (norm3): 2-24                          [1, 320, 32, 32]     --                   [1, 320, 32, 32]     (recursive)
│    └─OverlapPatchEmbed (patch_embed3): 2-25           [1, 128, 64, 64]     --                   [1, 320, 32, 32]     (recursive)
│    │    └─Conv2d (proj): 3-50                         [1, 128, 64, 64]     [3, 3]               [1, 320, 32, 32]     (recursive)
│    │    └─LayerNorm (norm): 3-51                      [1, 320, 32, 32]     --                   [1, 320, 32, 32]     (recursive)
│    └─Sequential (block3): 2-26                        [1, 320, 32, 32]     --                   [1, 320, 32, 32]     (recursive)
│    │    └─Block (0): 3-52                             [1, 320, 32, 32]     --                   [1, 320, 32, 32]     (recursive)
│    │    │    └─LayerNorm (norm1): 4-199               [1, 1024, 320]       --                   [1, 1024, 320]       (recursive)
│    │    │    └─Attention (attn): 4-200                [1, 1024, 320]       --                   [1, 1024, 320]       (recursive)
│    │    │    │    └─Linear (q): 5-430                 [1, 1024, 320]       --                   [1, 1024, 320]       (recursive)
│    │    │    │    └─Conv2d (sr): 5-431                [1, 320, 32, 32]     [2, 2]               [1, 320, 16, 16]     (recursive)
│    │    │    │    └─LayerNorm (norm): 5-432           [1, 256, 320]        --                   [1, 256, 320]        (recursive)
│    │    │    │    └─Linear (kv): 5-433                [1, 256, 320]        --                   [1, 256, 640]        (recursive)
│    │    │    │    └─Dropout (attn_drop): 5-434        [1, 5, 1024, 256]    --                   [1, 5, 1024, 256]    (recursive)
│    │    │    │    └─Linear (proj): 5-435              [1, 1024, 320]       --                   [1, 1024, 320]       (recursive)
│    │    │    │    └─Dropout (proj_drop): 5-436        [1, 1024, 320]       --                   [1, 1024, 320]       (recursive)
│    │    │    └─DropPath (drop_path): 4-201            [1, 1024, 320]       --                   [1, 1024, 320]       (recursive)
│    │    │    └─LayerNorm (norm2): 4-202               [1, 1024, 320]       --                   [1, 1024, 320]       (recursive)
│    │    │    └─Mlp (mlp): 4-203                       [1, 1024, 320]       --                   [1, 1024, 320]       (recursive)
│    │    │    │    └─Linear (fc1): 5-437               [1, 1024, 320]       --                   [1, 1024, 1280]      (recursive)
│    │    │    │    └─DWConv (dwconv): 5-438            [1, 1024, 1280]      --                   [1, 1024, 1280]      (recursive)
│    │    │    │    └─GELU (act): 5-439                 [1, 1024, 1280]      --                   [1, 1024, 1280]      (recursive)
│    │    │    │    └─Dropout (drop): 5-440             [1, 1024, 1280]      --                   [1, 1024, 1280]      (recursive)
│    │    │    │    └─Linear (fc2): 5-441               [1, 1024, 1280]      --                   [1, 1024, 320]       (recursive)
│    │    │    │    └─Dropout (drop): 5-442             [1, 1024, 320]       --                   [1, 1024, 320]       (recursive)
│    │    │    └─DropPath (drop_path): 4-204            [1, 1024, 320]       --                   [1, 1024, 320]       (recursive)
│    │    └─Block (1): 3-53                             [1, 320, 32, 32]     --                   [1, 320, 32, 32]     (recursive)
│    │    │    └─LayerNorm (norm1): 4-205               [1, 1024, 320]       --                   [1, 1024, 320]       (recursive)
│    │    │    └─Attention (attn): 4-206                [1, 1024, 320]       --                   [1, 1024, 320]       (recursive)
│    │    │    │    └─Linear (q): 5-443                 [1, 1024, 320]       --                   [1, 1024, 320]       (recursive)
│    │    │    │    └─Conv2d (sr): 5-444                [1, 320, 32, 32]     [2, 2]               [1, 320, 16, 16]     (recursive)
│    │    │    │    └─LayerNorm (norm): 5-445           [1, 256, 320]        --                   [1, 256, 320]        (recursive)
│    │    │    │    └─Linear (kv): 5-446                [1, 256, 320]        --                   [1, 256, 640]        (recursive)
│    │    │    │    └─Dropout (attn_drop): 5-447        [1, 5, 1024, 256]    --                   [1, 5, 1024, 256]    (recursive)
│    │    │    │    └─Linear (proj): 5-448              [1, 1024, 320]       --                   [1, 1024, 320]       (recursive)
│    │    │    │    └─Dropout (proj_drop): 5-449        [1, 1024, 320]       --                   [1, 1024, 320]       (recursive)
│    │    │    └─DropPath (drop_path): 4-207            [1, 1024, 320]       --                   [1, 1024, 320]       (recursive)
│    │    │    └─LayerNorm (norm2): 4-208               [1, 1024, 320]       --                   [1, 1024, 320]       (recursive)
│    │    │    └─Mlp (mlp): 4-209                       [1, 1024, 320]       --                   [1, 1024, 320]       (recursive)
│    │    │    │    └─Linear (fc1): 5-450               [1, 1024, 320]       --                   [1, 1024, 1280]      (recursive)
│    │    │    │    └─DWConv (dwconv): 5-451            [1, 1024, 1280]      --                   [1, 1024, 1280]      (recursive)
│    │    │    │    └─GELU (act): 5-452                 [1, 1024, 1280]      --                   [1, 1024, 1280]      (recursive)
│    │    │    │    └─Dropout (drop): 5-453             [1, 1024, 1280]      --                   [1, 1024, 1280]      (recursive)
│    │    │    │    └─Linear (fc2): 5-454               [1, 1024, 1280]      --                   [1, 1024, 320]       (recursive)
│    │    │    │    └─Dropout (drop): 5-455             [1, 1024, 320]       --                   [1, 1024, 320]       (recursive)
│    │    │    └─DropPath (drop_path): 4-210            [1, 1024, 320]       --                   [1, 1024, 320]       (recursive)
│    │    └─Block (2): 3-54                             [1, 320, 32, 32]     --                   [1, 320, 32, 32]     (recursive)
│    │    │    └─LayerNorm (norm1): 4-211               [1, 1024, 320]       --                   [1, 1024, 320]       (recursive)
│    │    │    └─Attention (attn): 4-212                [1, 1024, 320]       --                   [1, 1024, 320]       (recursive)
│    │    │    │    └─Linear (q): 5-456                 [1, 1024, 320]       --                   [1, 1024, 320]       (recursive)
│    │    │    │    └─Conv2d (sr): 5-457                [1, 320, 32, 32]     [2, 2]               [1, 320, 16, 16]     (recursive)
│    │    │    │    └─LayerNorm (norm): 5-458           [1, 256, 320]        --                   [1, 256, 320]        (recursive)
│    │    │    │    └─Linear (kv): 5-459                [1, 256, 320]        --                   [1, 256, 640]        (recursive)
│    │    │    │    └─Dropout (attn_drop): 5-460        [1, 5, 1024, 256]    --                   [1, 5, 1024, 256]    (recursive)
│    │    │    │    └─Linear (proj): 5-461              [1, 1024, 320]       --                   [1, 1024, 320]       (recursive)
│    │    │    │    └─Dropout (proj_drop): 5-462        [1, 1024, 320]       --                   [1, 1024, 320]       (recursive)
│    │    │    └─DropPath (drop_path): 4-213            [1, 1024, 320]       --                   [1, 1024, 320]       (recursive)
│    │    │    └─LayerNorm (norm2): 4-214               [1, 1024, 320]       --                   [1, 1024, 320]       (recursive)
│    │    │    └─Mlp (mlp): 4-215                       [1, 1024, 320]       --                   [1, 1024, 320]       (recursive)
│    │    │    │    └─Linear (fc1): 5-463               [1, 1024, 320]       --                   [1, 1024, 1280]      (recursive)
│    │    │    │    └─DWConv (dwconv): 5-464            [1, 1024, 1280]      --                   [1, 1024, 1280]      (recursive)
│    │    │    │    └─GELU (act): 5-465                 [1, 1024, 1280]      --                   [1, 1024, 1280]      (recursive)
│    │    │    │    └─Dropout (drop): 5-466             [1, 1024, 1280]      --                   [1, 1024, 1280]      (recursive)
│    │    │    │    └─Linear (fc2): 5-467               [1, 1024, 1280]      --                   [1, 1024, 320]       (recursive)
│    │    │    │    └─Dropout (drop): 5-468             [1, 1024, 320]       --                   [1, 1024, 320]       (recursive)
│    │    │    └─DropPath (drop_path): 4-216            [1, 1024, 320]       --                   [1, 1024, 320]       (recursive)
│    │    └─Block (3): 3-55                             [1, 320, 32, 32]     --                   [1, 320, 32, 32]     (recursive)
│    │    │    └─LayerNorm (norm1): 4-217               [1, 1024, 320]       --                   [1, 1024, 320]       (recursive)
│    │    │    └─Attention (attn): 4-218                [1, 1024, 320]       --                   [1, 1024, 320]       (recursive)
│    │    │    │    └─Linear (q): 5-469                 [1, 1024, 320]       --                   [1, 1024, 320]       (recursive)
│    │    │    │    └─Conv2d (sr): 5-470                [1, 320, 32, 32]     [2, 2]               [1, 320, 16, 16]     (recursive)
│    │    │    │    └─LayerNorm (norm): 5-471           [1, 256, 320]        --                   [1, 256, 320]        (recursive)
│    │    │    │    └─Linear (kv): 5-472                [1, 256, 320]        --                   [1, 256, 640]        (recursive)
│    │    │    │    └─Dropout (attn_drop): 5-473        [1, 5, 1024, 256]    --                   [1, 5, 1024, 256]    (recursive)
│    │    │    │    └─Linear (proj): 5-474              [1, 1024, 320]       --                   [1, 1024, 320]       (recursive)
│    │    │    │    └─Dropout (proj_drop): 5-475        [1, 1024, 320]       --                   [1, 1024, 320]       (recursive)
│    │    │    └─DropPath (drop_path): 4-219            [1, 1024, 320]       --                   [1, 1024, 320]       (recursive)
│    │    │    └─LayerNorm (norm2): 4-220               [1, 1024, 320]       --                   [1, 1024, 320]       (recursive)
│    │    │    └─Mlp (mlp): 4-221                       [1, 1024, 320]       --                   [1, 1024, 320]       (recursive)
│    │    │    │    └─Linear (fc1): 5-476               [1, 1024, 320]       --                   [1, 1024, 1280]      (recursive)
│    │    │    │    └─DWConv (dwconv): 5-477            [1, 1024, 1280]      --                   [1, 1024, 1280]      (recursive)
│    │    │    │    └─GELU (act): 5-478                 [1, 1024, 1280]      --                   [1, 1024, 1280]      (recursive)
│    │    │    │    └─Dropout (drop): 5-479             [1, 1024, 1280]      --                   [1, 1024, 1280]      (recursive)
│    │    │    │    └─Linear (fc2): 5-480               [1, 1024, 1280]      --                   [1, 1024, 320]       (recursive)
│    │    │    │    └─Dropout (drop): 5-481             [1, 1024, 320]       --                   [1, 1024, 320]       (recursive)
│    │    │    └─DropPath (drop_path): 4-222            [1, 1024, 320]       --                   [1, 1024, 320]       (recursive)
│    │    └─Block (4): 3-56                             [1, 320, 32, 32]     --                   [1, 320, 32, 32]     (recursive)
│    │    │    └─LayerNorm (norm1): 4-223               [1, 1024, 320]       --                   [1, 1024, 320]       (recursive)
│    │    │    └─Attention (attn): 4-224                [1, 1024, 320]       --                   [1, 1024, 320]       (recursive)
│    │    │    │    └─Linear (q): 5-482                 [1, 1024, 320]       --                   [1, 1024, 320]       (recursive)
│    │    │    │    └─Conv2d (sr): 5-483                [1, 320, 32, 32]     [2, 2]               [1, 320, 16, 16]     (recursive)
│    │    │    │    └─LayerNorm (norm): 5-484           [1, 256, 320]        --                   [1, 256, 320]        (recursive)
│    │    │    │    └─Linear (kv): 5-485                [1, 256, 320]        --                   [1, 256, 640]        (recursive)
│    │    │    │    └─Dropout (attn_drop): 5-486        [1, 5, 1024, 256]    --                   [1, 5, 1024, 256]    (recursive)
│    │    │    │    └─Linear (proj): 5-487              [1, 1024, 320]       --                   [1, 1024, 320]       (recursive)
│    │    │    │    └─Dropout (proj_drop): 5-488        [1, 1024, 320]       --                   [1, 1024, 320]       (recursive)
│    │    │    └─DropPath (drop_path): 4-225            [1, 1024, 320]       --                   [1, 1024, 320]       (recursive)
│    │    │    └─LayerNorm (norm2): 4-226               [1, 1024, 320]       --                   [1, 1024, 320]       (recursive)
│    │    │    └─Mlp (mlp): 4-227                       [1, 1024, 320]       --                   [1, 1024, 320]       (recursive)
│    │    │    │    └─Linear (fc1): 5-489               [1, 1024, 320]       --                   [1, 1024, 1280]      (recursive)
│    │    │    │    └─DWConv (dwconv): 5-490            [1, 1024, 1280]      --                   [1, 1024, 1280]      (recursive)
│    │    │    │    └─GELU (act): 5-491                 [1, 1024, 1280]      --                   [1, 1024, 1280]      (recursive)
│    │    │    │    └─Dropout (drop): 5-492             [1, 1024, 1280]      --                   [1, 1024, 1280]      (recursive)
│    │    │    │    └─Linear (fc2): 5-493               [1, 1024, 1280]      --                   [1, 1024, 320]       (recursive)
│    │    │    │    └─Dropout (drop): 5-494             [1, 1024, 320]       --                   [1, 1024, 320]       (recursive)
│    │    │    └─DropPath (drop_path): 4-228            [1, 1024, 320]       --                   [1, 1024, 320]       (recursive)
│    │    └─Block (5): 3-57                             [1, 320, 32, 32]     --                   [1, 320, 32, 32]     (recursive)
│    │    │    └─LayerNorm (norm1): 4-229               [1, 1024, 320]       --                   [1, 1024, 320]       (recursive)
│    │    │    └─Attention (attn): 4-230                [1, 1024, 320]       --                   [1, 1024, 320]       (recursive)
│    │    │    │    └─Linear (q): 5-495                 [1, 1024, 320]       --                   [1, 1024, 320]       (recursive)
│    │    │    │    └─Conv2d (sr): 5-496                [1, 320, 32, 32]     [2, 2]               [1, 320, 16, 16]     (recursive)
│    │    │    │    └─LayerNorm (norm): 5-497           [1, 256, 320]        --                   [1, 256, 320]        (recursive)
│    │    │    │    └─Linear (kv): 5-498                [1, 256, 320]        --                   [1, 256, 640]        (recursive)
│    │    │    │    └─Dropout (attn_drop): 5-499        [1, 5, 1024, 256]    --                   [1, 5, 1024, 256]    (recursive)
│    │    │    │    └─Linear (proj): 5-500              [1, 1024, 320]       --                   [1, 1024, 320]       (recursive)
│    │    │    │    └─Dropout (proj_drop): 5-501        [1, 1024, 320]       --                   [1, 1024, 320]       (recursive)
│    │    │    └─DropPath (drop_path): 4-231            [1, 1024, 320]       --                   [1, 1024, 320]       (recursive)
│    │    │    └─LayerNorm (norm2): 4-232               [1, 1024, 320]       --                   [1, 1024, 320]       (recursive)
│    │    │    └─Mlp (mlp): 4-233                       [1, 1024, 320]       --                   [1, 1024, 320]       (recursive)
│    │    │    │    └─Linear (fc1): 5-502               [1, 1024, 320]       --                   [1, 1024, 1280]      (recursive)
│    │    │    │    └─DWConv (dwconv): 5-503            [1, 1024, 1280]      --                   [1, 1024, 1280]      (recursive)
│    │    │    │    └─GELU (act): 5-504                 [1, 1024, 1280]      --                   [1, 1024, 1280]      (recursive)
│    │    │    │    └─Dropout (drop): 5-505             [1, 1024, 1280]      --                   [1, 1024, 1280]      (recursive)
│    │    │    │    └─Linear (fc2): 5-506               [1, 1024, 1280]      --                   [1, 1024, 320]       (recursive)
│    │    │    │    └─Dropout (drop): 5-507             [1, 1024, 320]       --                   [1, 1024, 320]       (recursive)
│    │    │    └─DropPath (drop_path): 4-234            [1, 1024, 320]       --                   [1, 1024, 320]       (recursive)
│    └─LayerNorm (norm3): 2-27                          [1, 320, 32, 32]     --                   [1, 320, 32, 32]     (recursive)
│    └─NonLocalBlock (cross_attention_prev_3): 2-28     [1, 320, 32, 32]     --                   [1, 320, 32, 32]       0.00%
│    │    └─Conv2d (query_conv): 3-58                   [4, 320, 16, 16]     [1, 1]               [4, 160, 16, 16]       0.15%
│    │    └─Conv2d (key_conv): 3-59                     [4, 320, 16, 16]     [1, 1]               [4, 160, 16, 16]       0.15%
│    │    └─Conv2d (value_conv): 3-60                   [4, 320, 16, 16]     [1, 1]               [4, 160, 16, 16]       0.15%
│    │    └─Sequential (W_z): 3-61                      [1, 160, 32, 32]     --                   [1, 320, 32, 32]          --
│    │    │    └─Conv2d (0): 4-235                      [1, 160, 32, 32]     [1, 1]               [1, 320, 32, 32]       0.15%
│    │    │    └─BatchNorm2d (1): 4-236                 [1, 320, 32, 32]     --                   [1, 320, 32, 32]       0.00%
│    └─NonLocalBlock (cross_attention_self_3): 2-29     [1, 320, 32, 32]     --                   [1, 320, 32, 32]       0.00%
│    │    └─Conv2d (query_conv): 3-62                   [4, 320, 16, 16]     [1, 1]               [4, 160, 16, 16]       0.15%
│    │    └─Conv2d (key_conv): 3-63                     [4, 320, 16, 16]     [1, 1]               [4, 160, 16, 16]       0.15%
│    │    └─Conv2d (value_conv): 3-64                   [4, 320, 16, 16]     [1, 1]               [4, 160, 16, 16]       0.15%
│    │    └─Sequential (W_z): 3-65                      [1, 160, 32, 32]     --                   [1, 320, 32, 32]          --
│    │    │    └─Conv2d (0): 4-237                      [1, 160, 32, 32]     [1, 1]               [1, 320, 32, 32]       0.15%
│    │    │    └─BatchNorm2d (1): 4-238                 [1, 320, 32, 32]     --                   [1, 320, 32, 32]       0.00%
│    └─NonLocalBlock (cross_attention_next_3): 2-30     [1, 320, 32, 32]     --                   [1, 320, 32, 32]       0.00%
│    │    └─Conv2d (query_conv): 3-66                   [4, 320, 16, 16]     [1, 1]               [4, 160, 16, 16]       0.15%
│    │    └─Conv2d (key_conv): 3-67                     [4, 320, 16, 16]     [1, 1]               [4, 160, 16, 16]       0.15%
│    │    └─Conv2d (value_conv): 3-68                   [4, 320, 16, 16]     [1, 1]               [4, 160, 16, 16]       0.15%
│    │    └─Sequential (W_z): 3-69                      [1, 160, 32, 32]     --                   [1, 320, 32, 32]          --
│    │    │    └─Conv2d (0): 4-239                      [1, 160, 32, 32]     [1, 1]               [1, 320, 32, 32]       0.15%
│    │    │    └─BatchNorm2d (1): 4-240                 [1, 320, 32, 32]     --                   [1, 320, 32, 32]       0.00%
│    └─Conv2d (compress_3): 2-31                        [1, 960, 32, 32]     [1, 1]               [1, 320, 32, 32]       0.89%
│    └─DoubleConv (double_conv_3): 2-32                 [1, 320, 32, 32]     --                   [1, 320, 32, 32]          --
│    │    └─Sequential (double_conv): 3-70              [1, 320, 32, 32]     --                   [1, 320, 32, 32]          --
│    │    │    └─Conv2d (0): 4-241                      [1, 320, 32, 32]     [3, 3]               [1, 320, 32, 32]       2.67%
│    │    │    └─BatchNorm2d (1): 4-242                 [1, 320, 32, 32]     --                   [1, 320, 32, 32]       0.00%
│    │    │    └─ReLU (2): 4-243                        [1, 320, 32, 32]     --                   [1, 320, 32, 32]          --
│    │    │    └─Conv2d (3): 4-244                      [1, 320, 32, 32]     [3, 3]               [1, 320, 32, 32]       2.67%
│    │    │    └─BatchNorm2d (4): 4-245                 [1, 320, 32, 32]     --                   [1, 320, 32, 32]       0.00%
│    │    │    └─ReLU (5): 4-246                        [1, 320, 32, 32]     --                   [1, 320, 32, 32]          --
│    └─OverlapPatchEmbed (patch_embed4): 2-33           [1, 320, 32, 32]     --                   [1, 512, 16, 16]          --
│    │    └─Conv2d (proj): 3-71                         [1, 320, 32, 32]     [3, 3]               [1, 512, 16, 16]       4.27%
│    │    └─LayerNorm (norm): 3-72                      [1, 512, 16, 16]     --                   [1, 512, 16, 16]       0.00%
│    └─Sequential (block4): 2-34                        [1, 512, 16, 16]     --                   [1, 512, 16, 16]          --
│    │    └─Block (0): 3-73                             [1, 512, 16, 16]     --                   [1, 512, 16, 16]          --
│    │    │    └─LayerNorm (norm1): 4-247               [1, 256, 512]        --                   [1, 256, 512]          0.00%
│    │    │    └─Attention (attn): 4-248                [1, 256, 512]        --                   [1, 256, 512]             --
│    │    │    │    └─Linear (q): 5-508                 [1, 256, 512]        --                   [1, 256, 512]          0.76%
│    │    │    │    └─Linear (kv): 5-509                [1, 256, 512]        --                   [1, 256, 1024]         1.52%
│    │    │    │    └─Dropout (attn_drop): 5-510        [1, 8, 256, 256]     --                   [1, 8, 256, 256]          --
│    │    │    │    └─Linear (proj): 5-511              [1, 256, 512]        --                   [1, 256, 512]          0.76%
│    │    │    │    └─Dropout (proj_drop): 5-512        [1, 256, 512]        --                   [1, 256, 512]             --
│    │    │    └─DropPath (drop_path): 4-249            [1, 256, 512]        --                   [1, 256, 512]             --
│    │    │    └─LayerNorm (norm2): 4-250               [1, 256, 512]        --                   [1, 256, 512]          0.00%
│    │    │    └─Mlp (mlp): 4-251                       [1, 256, 512]        --                   [1, 256, 512]             --
│    │    │    │    └─Linear (fc1): 5-513               [1, 256, 512]        --                   [1, 256, 2048]         3.04%
│    │    │    │    └─DWConv (dwconv): 5-514            [1, 256, 2048]       --                   [1, 256, 2048]         0.06%
│    │    │    │    └─GELU (act): 5-515                 [1, 256, 2048]       --                   [1, 256, 2048]            --
│    │    │    │    └─Dropout (drop): 5-516             [1, 256, 2048]       --                   [1, 256, 2048]            --
│    │    │    │    └─Linear (fc2): 5-517               [1, 256, 2048]       --                   [1, 256, 512]          3.03%
│    │    │    │    └─Dropout (drop): 5-518             [1, 256, 512]        --                   [1, 256, 512]        (recursive)
│    │    │    └─DropPath (drop_path): 4-252            [1, 256, 512]        --                   [1, 256, 512]        (recursive)
│    │    └─Block (1): 3-74                             [1, 512, 16, 16]     --                   [1, 512, 16, 16]          --
│    │    │    └─LayerNorm (norm1): 4-253               [1, 256, 512]        --                   [1, 256, 512]          0.00%
│    │    │    └─Attention (attn): 4-254                [1, 256, 512]        --                   [1, 256, 512]             --
│    │    │    │    └─Linear (q): 5-519                 [1, 256, 512]        --                   [1, 256, 512]          0.76%
│    │    │    │    └─Linear (kv): 5-520                [1, 256, 512]        --                   [1, 256, 1024]         1.52%
│    │    │    │    └─Dropout (attn_drop): 5-521        [1, 8, 256, 256]     --                   [1, 8, 256, 256]          --
│    │    │    │    └─Linear (proj): 5-522              [1, 256, 512]        --                   [1, 256, 512]          0.76%
│    │    │    │    └─Dropout (proj_drop): 5-523        [1, 256, 512]        --                   [1, 256, 512]             --
│    │    │    └─DropPath (drop_path): 4-255            [1, 256, 512]        --                   [1, 256, 512]             --
│    │    │    └─LayerNorm (norm2): 4-256               [1, 256, 512]        --                   [1, 256, 512]          0.00%
│    │    │    └─Mlp (mlp): 4-257                       [1, 256, 512]        --                   [1, 256, 512]             --
│    │    │    │    └─Linear (fc1): 5-524               [1, 256, 512]        --                   [1, 256, 2048]         3.04%
│    │    │    │    └─DWConv (dwconv): 5-525            [1, 256, 2048]       --                   [1, 256, 2048]         0.06%
│    │    │    │    └─GELU (act): 5-526                 [1, 256, 2048]       --                   [1, 256, 2048]            --
│    │    │    │    └─Dropout (drop): 5-527             [1, 256, 2048]       --                   [1, 256, 2048]            --
│    │    │    │    └─Linear (fc2): 5-528               [1, 256, 2048]       --                   [1, 256, 512]          3.03%
│    │    │    │    └─Dropout (drop): 5-529             [1, 256, 512]        --                   [1, 256, 512]        (recursive)
│    │    │    └─DropPath (drop_path): 4-258            [1, 256, 512]        --                   [1, 256, 512]        (recursive)
│    │    └─Block (2): 3-75                             [1, 512, 16, 16]     --                   [1, 512, 16, 16]          --
│    │    │    └─LayerNorm (norm1): 4-259               [1, 256, 512]        --                   [1, 256, 512]          0.00%
│    │    │    └─Attention (attn): 4-260                [1, 256, 512]        --                   [1, 256, 512]             --
│    │    │    │    └─Linear (q): 5-530                 [1, 256, 512]        --                   [1, 256, 512]          0.76%
│    │    │    │    └─Linear (kv): 5-531                [1, 256, 512]        --                   [1, 256, 1024]         1.52%
│    │    │    │    └─Dropout (attn_drop): 5-532        [1, 8, 256, 256]     --                   [1, 8, 256, 256]          --
│    │    │    │    └─Linear (proj): 5-533              [1, 256, 512]        --                   [1, 256, 512]          0.76%
│    │    │    │    └─Dropout (proj_drop): 5-534        [1, 256, 512]        --                   [1, 256, 512]             --
│    │    │    └─DropPath (drop_path): 4-261            [1, 256, 512]        --                   [1, 256, 512]             --
│    │    │    └─LayerNorm (norm2): 4-262               [1, 256, 512]        --                   [1, 256, 512]          0.00%
│    │    │    └─Mlp (mlp): 4-263                       [1, 256, 512]        --                   [1, 256, 512]             --
│    │    │    │    └─Linear (fc1): 5-535               [1, 256, 512]        --                   [1, 256, 2048]         3.04%
│    │    │    │    └─DWConv (dwconv): 5-536            [1, 256, 2048]       --                   [1, 256, 2048]         0.06%
│    │    │    │    └─GELU (act): 5-537                 [1, 256, 2048]       --                   [1, 256, 2048]            --
│    │    │    │    └─Dropout (drop): 5-538             [1, 256, 2048]       --                   [1, 256, 2048]            --
│    │    │    │    └─Linear (fc2): 5-539               [1, 256, 2048]       --                   [1, 256, 512]          3.03%
│    │    │    │    └─Dropout (drop): 5-540             [1, 256, 512]        --                   [1, 256, 512]        (recursive)
│    │    │    └─DropPath (drop_path): 4-264            [1, 256, 512]        --                   [1, 256, 512]        (recursive)
│    └─LayerNorm (norm4): 2-35                          [1, 512, 16, 16]     --                   [1, 512, 16, 16]       0.00%
│    └─OverlapPatchEmbed (patch_embed4): 2-36           [1, 320, 32, 32]     --                   [1, 512, 16, 16]     (recursive)
│    │    └─Conv2d (proj): 3-76                         [1, 320, 32, 32]     [3, 3]               [1, 512, 16, 16]     (recursive)
│    │    └─LayerNorm (norm): 3-77                      [1, 512, 16, 16]     --                   [1, 512, 16, 16]     (recursive)
│    └─Sequential (block4): 2-37                        [1, 512, 16, 16]     --                   [1, 512, 16, 16]     (recursive)
│    │    └─Block (0): 3-78                             [1, 512, 16, 16]     --                   [1, 512, 16, 16]     (recursive)
│    │    │    └─LayerNorm (norm1): 4-265               [1, 256, 512]        --                   [1, 256, 512]        (recursive)
│    │    │    └─Attention (attn): 4-266                [1, 256, 512]        --                   [1, 256, 512]        (recursive)
│    │    │    │    └─Linear (q): 5-541                 [1, 256, 512]        --                   [1, 256, 512]        (recursive)
│    │    │    │    └─Linear (kv): 5-542                [1, 256, 512]        --                   [1, 256, 1024]       (recursive)
│    │    │    │    └─Dropout (attn_drop): 5-543        [1, 8, 256, 256]     --                   [1, 8, 256, 256]     (recursive)
│    │    │    │    └─Linear (proj): 5-544              [1, 256, 512]        --                   [1, 256, 512]        (recursive)
│    │    │    │    └─Dropout (proj_drop): 5-545        [1, 256, 512]        --                   [1, 256, 512]        (recursive)
│    │    │    └─DropPath (drop_path): 4-267            [1, 256, 512]        --                   [1, 256, 512]        (recursive)
│    │    │    └─LayerNorm (norm2): 4-268               [1, 256, 512]        --                   [1, 256, 512]        (recursive)
│    │    │    └─Mlp (mlp): 4-269                       [1, 256, 512]        --                   [1, 256, 512]        (recursive)
│    │    │    │    └─Linear (fc1): 5-546               [1, 256, 512]        --                   [1, 256, 2048]       (recursive)
│    │    │    │    └─DWConv (dwconv): 5-547            [1, 256, 2048]       --                   [1, 256, 2048]       (recursive)
│    │    │    │    └─GELU (act): 5-548                 [1, 256, 2048]       --                   [1, 256, 2048]       (recursive)
│    │    │    │    └─Dropout (drop): 5-549             [1, 256, 2048]       --                   [1, 256, 2048]       (recursive)
│    │    │    │    └─Linear (fc2): 5-550               [1, 256, 2048]       --                   [1, 256, 512]        (recursive)
│    │    │    │    └─Dropout (drop): 5-551             [1, 256, 512]        --                   [1, 256, 512]        (recursive)
│    │    │    └─DropPath (drop_path): 4-270            [1, 256, 512]        --                   [1, 256, 512]        (recursive)
│    │    └─Block (1): 3-79                             [1, 512, 16, 16]     --                   [1, 512, 16, 16]     (recursive)
│    │    │    └─LayerNorm (norm1): 4-271               [1, 256, 512]        --                   [1, 256, 512]        (recursive)
│    │    │    └─Attention (attn): 4-272                [1, 256, 512]        --                   [1, 256, 512]        (recursive)
│    │    │    │    └─Linear (q): 5-552                 [1, 256, 512]        --                   [1, 256, 512]        (recursive)
│    │    │    │    └─Linear (kv): 5-553                [1, 256, 512]        --                   [1, 256, 1024]       (recursive)
│    │    │    │    └─Dropout (attn_drop): 5-554        [1, 8, 256, 256]     --                   [1, 8, 256, 256]     (recursive)
│    │    │    │    └─Linear (proj): 5-555              [1, 256, 512]        --                   [1, 256, 512]        (recursive)
│    │    │    │    └─Dropout (proj_drop): 5-556        [1, 256, 512]        --                   [1, 256, 512]        (recursive)
│    │    │    └─DropPath (drop_path): 4-273            [1, 256, 512]        --                   [1, 256, 512]        (recursive)
│    │    │    └─LayerNorm (norm2): 4-274               [1, 256, 512]        --                   [1, 256, 512]        (recursive)
│    │    │    └─Mlp (mlp): 4-275                       [1, 256, 512]        --                   [1, 256, 512]        (recursive)
│    │    │    │    └─Linear (fc1): 5-557               [1, 256, 512]        --                   [1, 256, 2048]       (recursive)
│    │    │    │    └─DWConv (dwconv): 5-558            [1, 256, 2048]       --                   [1, 256, 2048]       (recursive)
│    │    │    │    └─GELU (act): 5-559                 [1, 256, 2048]       --                   [1, 256, 2048]       (recursive)
│    │    │    │    └─Dropout (drop): 5-560             [1, 256, 2048]       --                   [1, 256, 2048]       (recursive)
│    │    │    │    └─Linear (fc2): 5-561               [1, 256, 2048]       --                   [1, 256, 512]        (recursive)
│    │    │    │    └─Dropout (drop): 5-562             [1, 256, 512]        --                   [1, 256, 512]        (recursive)
│    │    │    └─DropPath (drop_path): 4-276            [1, 256, 512]        --                   [1, 256, 512]        (recursive)
│    │    └─Block (2): 3-80                             [1, 512, 16, 16]     --                   [1, 512, 16, 16]     (recursive)
│    │    │    └─LayerNorm (norm1): 4-277               [1, 256, 512]        --                   [1, 256, 512]        (recursive)
│    │    │    └─Attention (attn): 4-278                [1, 256, 512]        --                   [1, 256, 512]        (recursive)
│    │    │    │    └─Linear (q): 5-563                 [1, 256, 512]        --                   [1, 256, 512]        (recursive)
│    │    │    │    └─Linear (kv): 5-564                [1, 256, 512]        --                   [1, 256, 1024]       (recursive)
│    │    │    │    └─Dropout (attn_drop): 5-565        [1, 8, 256, 256]     --                   [1, 8, 256, 256]     (recursive)
│    │    │    │    └─Linear (proj): 5-566              [1, 256, 512]        --                   [1, 256, 512]        (recursive)
│    │    │    │    └─Dropout (proj_drop): 5-567        [1, 256, 512]        --                   [1, 256, 512]        (recursive)
│    │    │    └─DropPath (drop_path): 4-279            [1, 256, 512]        --                   [1, 256, 512]        (recursive)
│    │    │    └─LayerNorm (norm2): 4-280               [1, 256, 512]        --                   [1, 256, 512]        (recursive)
│    │    │    └─Mlp (mlp): 4-281                       [1, 256, 512]        --                   [1, 256, 512]        (recursive)
│    │    │    │    └─Linear (fc1): 5-568               [1, 256, 512]        --                   [1, 256, 2048]       (recursive)
│    │    │    │    └─DWConv (dwconv): 5-569            [1, 256, 2048]       --                   [1, 256, 2048]       (recursive)
│    │    │    │    └─GELU (act): 5-570                 [1, 256, 2048]       --                   [1, 256, 2048]       (recursive)
│    │    │    │    └─Dropout (drop): 5-571             [1, 256, 2048]       --                   [1, 256, 2048]       (recursive)
│    │    │    │    └─Linear (fc2): 5-572               [1, 256, 2048]       --                   [1, 256, 512]        (recursive)
│    │    │    │    └─Dropout (drop): 5-573             [1, 256, 512]        --                   [1, 256, 512]        (recursive)
│    │    │    └─DropPath (drop_path): 4-282            [1, 256, 512]        --                   [1, 256, 512]        (recursive)
│    └─LayerNorm (norm4): 2-38                          [1, 512, 16, 16]     --                   [1, 512, 16, 16]     (recursive)
│    └─OverlapPatchEmbed (patch_embed4): 2-39           [1, 320, 32, 32]     --                   [1, 512, 16, 16]     (recursive)
│    │    └─Conv2d (proj): 3-81                         [1, 320, 32, 32]     [3, 3]               [1, 512, 16, 16]     (recursive)
│    │    └─LayerNorm (norm): 3-82                      [1, 512, 16, 16]     --                   [1, 512, 16, 16]     (recursive)
│    └─Sequential (block4): 2-40                        [1, 512, 16, 16]     --                   [1, 512, 16, 16]     (recursive)
│    │    └─Block (0): 3-83                             [1, 512, 16, 16]     --                   [1, 512, 16, 16]     (recursive)
│    │    │    └─LayerNorm (norm1): 4-283               [1, 256, 512]        --                   [1, 256, 512]        (recursive)
│    │    │    └─Attention (attn): 4-284                [1, 256, 512]        --                   [1, 256, 512]        (recursive)
│    │    │    │    └─Linear (q): 5-574                 [1, 256, 512]        --                   [1, 256, 512]        (recursive)
│    │    │    │    └─Linear (kv): 5-575                [1, 256, 512]        --                   [1, 256, 1024]       (recursive)
│    │    │    │    └─Dropout (attn_drop): 5-576        [1, 8, 256, 256]     --                   [1, 8, 256, 256]     (recursive)
│    │    │    │    └─Linear (proj): 5-577              [1, 256, 512]        --                   [1, 256, 512]        (recursive)
│    │    │    │    └─Dropout (proj_drop): 5-578        [1, 256, 512]        --                   [1, 256, 512]        (recursive)
│    │    │    └─DropPath (drop_path): 4-285            [1, 256, 512]        --                   [1, 256, 512]        (recursive)
│    │    │    └─LayerNorm (norm2): 4-286               [1, 256, 512]        --                   [1, 256, 512]        (recursive)
│    │    │    └─Mlp (mlp): 4-287                       [1, 256, 512]        --                   [1, 256, 512]        (recursive)
│    │    │    │    └─Linear (fc1): 5-579               [1, 256, 512]        --                   [1, 256, 2048]       (recursive)
│    │    │    │    └─DWConv (dwconv): 5-580            [1, 256, 2048]       --                   [1, 256, 2048]       (recursive)
│    │    │    │    └─GELU (act): 5-581                 [1, 256, 2048]       --                   [1, 256, 2048]       (recursive)
│    │    │    │    └─Dropout (drop): 5-582             [1, 256, 2048]       --                   [1, 256, 2048]       (recursive)
│    │    │    │    └─Linear (fc2): 5-583               [1, 256, 2048]       --                   [1, 256, 512]        (recursive)
│    │    │    │    └─Dropout (drop): 5-584             [1, 256, 512]        --                   [1, 256, 512]        (recursive)
│    │    │    └─DropPath (drop_path): 4-288            [1, 256, 512]        --                   [1, 256, 512]        (recursive)
│    │    └─Block (1): 3-84                             [1, 512, 16, 16]     --                   [1, 512, 16, 16]     (recursive)
│    │    │    └─LayerNorm (norm1): 4-289               [1, 256, 512]        --                   [1, 256, 512]        (recursive)
│    │    │    └─Attention (attn): 4-290                [1, 256, 512]        --                   [1, 256, 512]        (recursive)
│    │    │    │    └─Linear (q): 5-585                 [1, 256, 512]        --                   [1, 256, 512]        (recursive)
│    │    │    │    └─Linear (kv): 5-586                [1, 256, 512]        --                   [1, 256, 1024]       (recursive)
│    │    │    │    └─Dropout (attn_drop): 5-587        [1, 8, 256, 256]     --                   [1, 8, 256, 256]     (recursive)
│    │    │    │    └─Linear (proj): 5-588              [1, 256, 512]        --                   [1, 256, 512]        (recursive)
│    │    │    │    └─Dropout (proj_drop): 5-589        [1, 256, 512]        --                   [1, 256, 512]        (recursive)
│    │    │    └─DropPath (drop_path): 4-291            [1, 256, 512]        --                   [1, 256, 512]        (recursive)
│    │    │    └─LayerNorm (norm2): 4-292               [1, 256, 512]        --                   [1, 256, 512]        (recursive)
│    │    │    └─Mlp (mlp): 4-293                       [1, 256, 512]        --                   [1, 256, 512]        (recursive)
│    │    │    │    └─Linear (fc1): 5-590               [1, 256, 512]        --                   [1, 256, 2048]       (recursive)
│    │    │    │    └─DWConv (dwconv): 5-591            [1, 256, 2048]       --                   [1, 256, 2048]       (recursive)
│    │    │    │    └─GELU (act): 5-592                 [1, 256, 2048]       --                   [1, 256, 2048]       (recursive)
│    │    │    │    └─Dropout (drop): 5-593             [1, 256, 2048]       --                   [1, 256, 2048]       (recursive)
│    │    │    │    └─Linear (fc2): 5-594               [1, 256, 2048]       --                   [1, 256, 512]        (recursive)
│    │    │    │    └─Dropout (drop): 5-595             [1, 256, 512]        --                   [1, 256, 512]        (recursive)
│    │    │    └─DropPath (drop_path): 4-294            [1, 256, 512]        --                   [1, 256, 512]        (recursive)
│    │    └─Block (2): 3-85                             [1, 512, 16, 16]     --                   [1, 512, 16, 16]     (recursive)
│    │    │    └─LayerNorm (norm1): 4-295               [1, 256, 512]        --                   [1, 256, 512]        (recursive)
│    │    │    └─Attention (attn): 4-296                [1, 256, 512]        --                   [1, 256, 512]        (recursive)
│    │    │    │    └─Linear (q): 5-596                 [1, 256, 512]        --                   [1, 256, 512]        (recursive)
│    │    │    │    └─Linear (kv): 5-597                [1, 256, 512]        --                   [1, 256, 1024]       (recursive)
│    │    │    │    └─Dropout (attn_drop): 5-598        [1, 8, 256, 256]     --                   [1, 8, 256, 256]     (recursive)
│    │    │    │    └─Linear (proj): 5-599              [1, 256, 512]        --                   [1, 256, 512]        (recursive)
│    │    │    │    └─Dropout (proj_drop): 5-600        [1, 256, 512]        --                   [1, 256, 512]        (recursive)
│    │    │    └─DropPath (drop_path): 4-297            [1, 256, 512]        --                   [1, 256, 512]        (recursive)
│    │    │    └─LayerNorm (norm2): 4-298               [1, 256, 512]        --                   [1, 256, 512]        (recursive)
│    │    │    └─Mlp (mlp): 4-299                       [1, 256, 512]        --                   [1, 256, 512]        (recursive)
│    │    │    │    └─Linear (fc1): 5-601               [1, 256, 512]        --                   [1, 256, 2048]       (recursive)
│    │    │    │    └─DWConv (dwconv): 5-602            [1, 256, 2048]       --                   [1, 256, 2048]       (recursive)
│    │    │    │    └─GELU (act): 5-603                 [1, 256, 2048]       --                   [1, 256, 2048]       (recursive)
│    │    │    │    └─Dropout (drop): 5-604             [1, 256, 2048]       --                   [1, 256, 2048]       (recursive)
│    │    │    │    └─Linear (fc2): 5-605               [1, 256, 2048]       --                   [1, 256, 512]        (recursive)
│    │    │    │    └─Dropout (drop): 5-606             [1, 256, 512]        --                   [1, 256, 512]        (recursive)
│    │    │    └─DropPath (drop_path): 4-300            [1, 256, 512]        --                   [1, 256, 512]        (recursive)
│    └─LayerNorm (norm4): 2-41                          [1, 512, 16, 16]     --                   [1, 512, 16, 16]     (recursive)
│    └─NonLocalBlock (cross_attention_prev_4): 2-42     [1, 512, 16, 16]     --                   [1, 512, 16, 16]       0.00%
│    │    └─Conv2d (query_conv): 3-86                   [1, 512, 16, 16]     [1, 1]               [1, 256, 16, 16]       0.38%
│    │    └─Conv2d (key_conv): 3-87                     [1, 512, 16, 16]     [1, 1]               [1, 256, 16, 16]       0.38%
│    │    └─Conv2d (value_conv): 3-88                   [1, 512, 16, 16]     [1, 1]               [1, 256, 16, 16]       0.38%
│    │    └─Sequential (W_z): 3-89                      [1, 256, 16, 16]     --                   [1, 512, 16, 16]          --
│    │    │    └─Conv2d (0): 4-301                      [1, 256, 16, 16]     [1, 1]               [1, 512, 16, 16]       0.38%
│    │    │    └─BatchNorm2d (1): 4-302                 [1, 512, 16, 16]     --                   [1, 512, 16, 16]       0.00%
│    └─NonLocalBlock (cross_attention_self_4): 2-43     [1, 512, 16, 16]     --                   [1, 512, 16, 16]       0.00%
│    │    └─Conv2d (query_conv): 3-90                   [1, 512, 16, 16]     [1, 1]               [1, 256, 16, 16]       0.38%
│    │    └─Conv2d (key_conv): 3-91                     [1, 512, 16, 16]     [1, 1]               [1, 256, 16, 16]       0.38%
│    │    └─Conv2d (value_conv): 3-92                   [1, 512, 16, 16]     [1, 1]               [1, 256, 16, 16]       0.38%
│    │    └─Sequential (W_z): 3-93                      [1, 256, 16, 16]     --                   [1, 512, 16, 16]          --
│    │    │    └─Conv2d (0): 4-303                      [1, 256, 16, 16]     [1, 1]               [1, 512, 16, 16]       0.38%
│    │    │    └─BatchNorm2d (1): 4-304                 [1, 512, 16, 16]     --                   [1, 512, 16, 16]       0.00%
│    └─NonLocalBlock (cross_attention_next_4): 2-44     [1, 512, 16, 16]     --                   [1, 512, 16, 16]       0.00%
│    │    └─Conv2d (query_conv): 3-94                   [1, 512, 16, 16]     [1, 1]               [1, 256, 16, 16]       0.38%
│    │    └─Conv2d (key_conv): 3-95                     [1, 512, 16, 16]     [1, 1]               [1, 256, 16, 16]       0.38%
│    │    └─Conv2d (value_conv): 3-96                   [1, 512, 16, 16]     [1, 1]               [1, 256, 16, 16]       0.38%
│    │    └─Sequential (W_z): 3-97                      [1, 256, 16, 16]     --                   [1, 512, 16, 16]          --
│    │    │    └─Conv2d (0): 4-305                      [1, 256, 16, 16]     [1, 1]               [1, 512, 16, 16]       0.38%
│    │    │    └─BatchNorm2d (1): 4-306                 [1, 512, 16, 16]     --                   [1, 512, 16, 16]       0.00%
│    └─Conv2d (compress_4): 2-45                        [1, 1536, 16, 16]    [1, 1]               [1, 512, 16, 16]       2.27%
│    └─DoubleConv (double_conv_4): 2-46                 [1, 512, 16, 16]     --                   [1, 512, 16, 16]          --
│    │    └─Sequential (double_conv): 3-98              [1, 512, 16, 16]     --                   [1, 512, 16, 16]          --
│    │    │    └─Conv2d (0): 4-307                      [1, 512, 16, 16]     [3, 3]               [1, 512, 16, 16]       6.82%
│    │    │    └─BatchNorm2d (1): 4-308                 [1, 512, 16, 16]     --                   [1, 512, 16, 16]       0.00%
│    │    │    └─ReLU (2): 4-309                        [1, 512, 16, 16]     --                   [1, 512, 16, 16]          --
│    │    │    └─Conv2d (3): 4-310                      [1, 512, 16, 16]     [3, 3]               [1, 512, 16, 16]       6.82%
│    │    │    └─BatchNorm2d (4): 4-311                 [1, 512, 16, 16]     --                   [1, 512, 16, 16]       0.00%
│    │    │    └─ReLU (5): 4-312                        [1, 512, 16, 16]     --                   [1, 512, 16, 16]          --
├─SegformerDecoder (decoder): 1-2                       [1, 3, 512, 512]     --                   [1, 256, 128, 128]        --
│    └─ModuleList (mlp_stage): 2-47                     --                   --                   --                        --
│    │    └─MLP (0): 3-99                               [1, 512, 16, 16]     --                   [1, 256, 16, 16]          --
│    │    │    └─Linear (linear): 4-313                 [1, 256, 512]        --                   [1, 256, 256]          0.38%
│    │    └─MLP (1): 3-100                              [1, 320, 32, 32]     --                   [1, 256, 32, 32]          --
│    │    │    └─Linear (linear): 4-314                 [1, 1024, 320]       --                   [1, 1024, 256]         0.24%
│    │    └─MLP (2): 3-101                              [1, 128, 64, 64]     --                   [1, 256, 64, 64]          --
│    │    │    └─Linear (linear): 4-315                 [1, 4096, 128]       --                   [1, 4096, 256]         0.10%
│    │    └─MLP (3): 3-102                              [1, 64, 128, 128]    --                   [1, 256, 128, 128]        --
│    │    │    └─Linear (linear): 4-316                 [1, 16384, 64]       --                   [1, 16384, 256]        0.05%
│    └─Conv2dReLU (fuse_stage): 2-48                    [1, 1024, 128, 128]  --                   [1, 256, 128, 128]        --
│    │    └─Conv2d (0): 3-103                           [1, 1024, 128, 128]  [1, 1]               [1, 256, 128, 128]     0.76%
│    │    └─BatchNorm2d (1): 3-104                      [1, 256, 128, 128]   --                   [1, 256, 128, 128]     0.00%
│    │    └─ReLU (2): 3-105                             [1, 256, 128, 128]   --                   [1, 256, 128, 128]        --
├─SegmentationHead (segmentation_head): 1-3             [1, 256, 128, 128]   --                   [1, 5, 512, 512]          --
│    └─Conv2d (0): 2-49                                 [1, 256, 128, 128]   [1, 1]               [1, 5, 128, 128]       0.00%
│    └─UpsamplingBilinear2d (1): 2-50                   [1, 5, 128, 128]     --                   [1, 5, 512, 512]          --
│    └─Activation (2): 2-51                             [1, 5, 512, 512]     --                   [1, 5, 512, 512]          --
│    │    └─Identity (activation): 3-106                [1, 5, 512, 512]     --                   [1, 5, 512, 512]          --
=======================================================================================================================================
Total params: 34,573,125
Trainable params: 34,573,125
Non-trainable params: 0
Total mult-adds (G): 16.56
=======================================================================================================================================
Input size (MB): 3.15
Forward/backward pass size (MB): 2770.73
…
