======================================================================================================================================================
Layer (type (var_name):depth-idx)                                      Input Shape          Kernel Shape         Output Shape         Param %
======================================================================================================================================================
Unet (Unet)                                                            [1, 3, 512, 512]     --                   [1, 5, 512, 512]          --
├─EfficientNetSAEncoder (encoder): 1-1                                 [1, 3, 512, 512]     --                   [1, 1, 512, 512]       3.06%
│    └─Conv2dStaticSamePadding (_conv_stem): 2-1                       [1, 1, 512, 512]     [3, 3]               [1, 48, 256, 256]      0.00%
│    │    └─ZeroPad2d (static_padding): 3-1                            [1, 1, 512, 512]     --                   [1, 1, 513, 513]          --
│    └─BatchNorm2d (_bn0): 2-2                                         [1, 48, 256, 256]    --                   [1, 48, 256, 256]      0.00%
│    └─MemoryEfficientSwish (_swish): 2-3                              [1, 48, 256, 256]    --                   [1, 48, 256, 256]         --
│    └─Conv2dStaticSamePadding (_conv_stem): 2-4                       [1, 1, 512, 512]     [3, 3]               [1, 48, 256, 256]    (recursive)
│    │    └─ZeroPad2d (static_padding): 3-2                            [1, 1, 512, 512]     --                   [1, 1, 513, 513]     (recursive)
│    └─BatchNorm2d (_bn0): 2-5                                         [1, 48, 256, 256]    --                   [1, 48, 256, 256]    (recursive)
│    └─MemoryEfficientSwish (_swish): 2-6                              [1, 48, 256, 256]    --                   [1, 48, 256, 256]    (recursive)
│    └─Conv2dStaticSamePadding (_conv_stem): 2-7                       [1, 1, 512, 512]     [3, 3]               [1, 48, 256, 256]    (recursive)
│    │    └─ZeroPad2d (static_padding): 3-3                            [1, 1, 512, 512]     --                   [1, 1, 513, 513]     (recursive)
│    └─BatchNorm2d (_bn0): 2-8                                         [1, 48, 256, 256]    --                   [1, 48, 256, 256]    (recursive)
│    └─MemoryEfficientSwish (_swish): 2-9                              [1, 48, 256, 256]    --                   [1, 48, 256, 256]    (recursive)
│    └─ModuleList (_blocks): 2-16                                      --                   --                   --                   (recursive)
│    │    └─MBConvBlock (0): 3-4                                       [1, 48, 256, 256]    --                   [1, 24, 256, 256]         --
│    │    │    └─Conv2dStaticSamePadding (_depthwise_conv): 4-1        [1, 48, 256, 256]    [3, 3]               [1, 48, 256, 256]      0.00%
│    │    │    │    └─ZeroPad2d (static_padding): 5-1                  [1, 48, 256, 256]    --                   [1, 48, 258, 258]         --
│    │    │    └─BatchNorm2d (_bn1): 4-2                               [1, 48, 256, 256]    --                   [1, 48, 256, 256]      0.00%
│    │    │    └─MemoryEfficientSwish (_swish): 4-3                    [1, 48, 256, 256]    --                   [1, 48, 256, 256]         --
│    │    │    └─Conv2dStaticSamePadding (_se_reduce): 4-4             [1, 48, 1, 1]        [1, 1]               [1, 12, 1, 1]          0.00%
│    │    │    │    └─Identity (static_padding): 5-2                   [1, 48, 1, 1]        --                   [1, 48, 1, 1]             --
│    │    │    └─MemoryEfficientSwish (_swish): 4-5                    [1, 12, 1, 1]        --                   [1, 12, 1, 1]        (recursive)
│    │    │    └─Conv2dStaticSamePadding (_se_expand): 4-6             [1, 12, 1, 1]        [1, 1]               [1, 48, 1, 1]          0.00%
│    │    │    │    └─Identity (static_padding): 5-3                   [1, 12, 1, 1]        --                   [1, 12, 1, 1]             --
│    │    │    └─Conv2dStaticSamePadding (_project_conv): 4-7          [1, 48, 256, 256]    [1, 1]               [1, 24, 256, 256]      0.00%
│    │    │    │    └─Identity (static_padding): 5-4                   [1, 48, 256, 256]    --                   [1, 48, 256, 256]         --
│    │    │    └─BatchNorm2d (_bn2): 4-8                               [1, 24, 256, 256]    --                   [1, 24, 256, 256]      0.00%
│    │    └─MBConvBlock (0): 3-5                                       [1, 48, 256, 256]    --                   [1, 24, 256, 256]    (recursive)
│    │    │    └─Conv2dStaticSamePadding (_depthwise_conv): 4-9        [1, 48, 256, 256]    [3, 3]               [1, 48, 256, 256]    (recursive)
│    │    │    │    └─ZeroPad2d (static_padding): 5-5                  [1, 48, 256, 256]    --                   [1, 48, 258, 258]    (recursive)
│    │    │    └─BatchNorm2d (_bn1): 4-10                              [1, 48, 256, 256]    --                   [1, 48, 256, 256]    (recursive)
│    │    │    └─MemoryEfficientSwish (_swish): 4-11                   [1, 48, 256, 256]    --                   [1, 48, 256, 256]    (recursive)
│    │    │    └─Conv2dStaticSamePadding (_se_reduce): 4-12            [1, 48, 1, 1]        [1, 1]               [1, 12, 1, 1]        (recursive)
│    │    │    │    └─Identity (static_padding): 5-6                   [1, 48, 1, 1]        --                   [1, 48, 1, 1]        (recursive)
│    │    │    └─MemoryEfficientSwish (_swish): 4-13                   [1, 12, 1, 1]        --                   [1, 12, 1, 1]        (recursive)
│    │    │    └─Conv2dStaticSamePadding (_se_expand): 4-14            [1, 12, 1, 1]        [1, 1]               [1, 48, 1, 1]        (recursive)
│    │    │    │    └─Identity (static_padding): 5-7                   [1, 12, 1, 1]        --                   [1, 12, 1, 1]        (recursive)
│    │    │    └─Conv2dStaticSamePadding (_project_conv): 4-15         [1, 48, 256, 256]    [1, 1]               [1, 24, 256, 256]    (recursive)
│    │    │    │    └─Identity (static_padding): 5-8                   [1, 48, 256, 256]    --                   [1, 48, 256, 256]    (recursive)
│    │    │    └─BatchNorm2d (_bn2): 4-16                              [1, 24, 256, 256]    --                   [1, 24, 256, 256]    (recursive)
│    │    └─MBConvBlock (0): 3-6                                       [1, 48, 256, 256]    --                   [1, 24, 256, 256]    (recursive)
│    │    │    └─Conv2dStaticSamePadding (_depthwise_conv): 4-17       [1, 48, 256, 256]    [3, 3]               [1, 48, 256, 256]    (recursive)
│    │    │    │    └─ZeroPad2d (static_padding): 5-9                  [1, 48, 256, 256]    --                   [1, 48, 258, 258]    (recursive)
│    │    │    └─BatchNorm2d (_bn1): 4-18                              [1, 48, 256, 256]    --                   [1, 48, 256, 256]    (recursive)
│    │    │    └─MemoryEfficientSwish (_swish): 4-19                   [1, 48, 256, 256]    --                   [1, 48, 256, 256]    (recursive)
│    │    │    └─Conv2dStaticSamePadding (_se_reduce): 4-20            [1, 48, 1, 1]        [1, 1]               [1, 12, 1, 1]        (recursive)
│    │    │    │    └─Identity (static_padding): 5-10                  [1, 48, 1, 1]        --                   [1, 48, 1, 1]        (recursive)
│    │    │    └─MemoryEfficientSwish (_swish): 4-21                   [1, 12, 1, 1]        --                   [1, 12, 1, 1]        (recursive)
│    │    │    └─Conv2dStaticSamePadding (_se_expand): 4-22            [1, 12, 1, 1]        [1, 1]               [1, 48, 1, 1]        (recursive)
│    │    │    │    └─Identity (static_padding): 5-11                  [1, 12, 1, 1]        --                   [1, 12, 1, 1]        (recursive)
│    │    │    └─Conv2dStaticSamePadding (_project_conv): 4-23         [1, 48, 256, 256]    [1, 1]               [1, 24, 256, 256]    (recursive)
│    │    │    │    └─Identity (static_padding): 5-12                  [1, 48, 256, 256]    --                   [1, 48, 256, 256]    (recursive)
│    │    │    └─BatchNorm2d (_bn2): 4-24                              [1, 24, 256, 256]    --                   [1, 24, 256, 256]    (recursive)
│    │    └─MBConvBlock (1): 3-7                                       [1, 24, 256, 256]    --                   [1, 24, 256, 256]         --
│    │    │    └─Conv2dStaticSamePadding (_depthwise_conv): 4-25       [1, 24, 256, 256]    [3, 3]               [1, 24, 256, 256]      0.00%
│    │    │    │    └─ZeroPad2d (static_padding): 5-13                 [1, 24, 256, 256]    --                   [1, 24, 258, 258]         --
│    │    │    └─BatchNorm2d (_bn1): 4-26                              [1, 24, 256, 256]    --                   [1, 24, 256, 256]      0.00%
│    │    │    └─MemoryEfficientSwish (_swish): 4-27                   [1, 24, 256, 256]    --                   [1, 24, 256, 256]         --
│    │    │    └─Conv2dStaticSamePadding (_se_reduce): 4-28            [1, 24, 1, 1]        [1, 1]               [1, 6, 1, 1]           0.00%
│    │    │    │    └─Identity (static_padding): 5-14                  [1, 24, 1, 1]        --                   [1, 24, 1, 1]             --
│    │    │    └─MemoryEfficientSwish (_swish): 4-29                   [1, 6, 1, 1]         --                   [1, 6, 1, 1]         (recursive)
│    │    │    └─Conv2dStaticSamePadding (_se_expand): 4-30            [1, 6, 1, 1]         [1, 1]               [1, 24, 1, 1]          0.00%
│    │    │    │    └─Identity (static_padding): 5-15                  [1, 6, 1, 1]         --                   [1, 6, 1, 1]              --
│    │    │    └─Conv2dStaticSamePadding (_project_conv): 4-31         [1, 24, 256, 256]    [1, 1]               [1, 24, 256, 256]      0.00%
│    │    │    │    └─Identity (static_padding): 5-16                  [1, 24, 256, 256]    --                   [1, 24, 256, 256]         --
│    │    │    └─BatchNorm2d (_bn2): 4-32                              [1, 24, 256, 256]    --                   [1, 24, 256, 256]      0.00%
│    │    └─MBConvBlock (1): 3-8                                       [1, 24, 256, 256]    --                   [1, 24, 256, 256]    (recursive)
│    │    │    └─Conv2dStaticSamePadding (_depthwise_conv): 4-33       [1, 24, 256, 256]    [3, 3]               [1, 24, 256, 256]    (recursive)
│    │    │    │    └─ZeroPad2d (static_padding): 5-17                 [1, 24, 256, 256]    --                   [1, 24, 258, 258]    (recursive)
│    │    │    └─BatchNorm2d (_bn1): 4-34                              [1, 24, 256, 256]    --                   [1, 24, 256, 256]    (recursive)
│    │    │    └─MemoryEfficientSwish (_swish): 4-35                   [1, 24, 256, 256]    --                   [1, 24, 256, 256]    (recursive)
│    │    │    └─Conv2dStaticSamePadding (_se_reduce): 4-36            [1, 24, 1, 1]        [1, 1]               [1, 6, 1, 1]         (recursive)
│    │    │    │    └─Identity (static_padding): 5-18                  [1, 24, 1, 1]        --                   [1, 24, 1, 1]        (recursive)
│    │    │    └─MemoryEfficientSwish (_swish): 4-37                   [1, 6, 1, 1]         --                   [1, 6, 1, 1]         (recursive)
│    │    │    └─Conv2dStaticSamePadding (_se_expand): 4-38            [1, 6, 1, 1]         [1, 1]               [1, 24, 1, 1]        (recursive)
│    │    │    │    └─Identity (static_padding): 5-19                  [1, 6, 1, 1]         --                   [1, 6, 1, 1]         (recursive)
│    │    │    └─Conv2dStaticSamePadding (_project_conv): 4-39         [1, 24, 256, 256]    [1, 1]               [1, 24, 256, 256]    (recursive)
│    │    │    │    └─Identity (static_padding): 5-20                  [1, 24, 256, 256]    --                   [1, 24, 256, 256]    (recursive)
│    │    │    └─BatchNorm2d (_bn2): 4-40                              [1, 24, 256, 256]    --                   [1, 24, 256, 256]    (recursive)
│    │    └─MBConvBlock (1): 3-9                                       [1, 24, 256, 256]    --                   [1, 24, 256, 256]    (recursive)
│    │    │    └─Conv2dStaticSamePadding (_depthwise_conv): 4-41       [1, 24, 256, 256]    [3, 3]               [1, 24, 256, 256]    (recursive)
│    │    │    │    └─ZeroPad2d (static_padding): 5-21                 [1, 24, 256, 256]    --                   [1, 24, 258, 258]    (recursive)
│    │    │    └─BatchNorm2d (_bn1): 4-42                              [1, 24, 256, 256]    --                   [1, 24, 256, 256]    (recursive)
│    │    │    └─MemoryEfficientSwish (_swish): 4-43                   [1, 24, 256, 256]    --                   [1, 24, 256, 256]    (recursive)
│    │    │    └─Conv2dStaticSamePadding (_se_reduce): 4-44            [1, 24, 1, 1]        [1, 1]               [1, 6, 1, 1]         (recursive)
│    │    │    │    └─Identity (static_padding): 5-22                  [1, 24, 1, 1]        --                   [1, 24, 1, 1]        (recursive)
│    │    │    └─MemoryEfficientSwish (_swish): 4-45                   [1, 6, 1, 1]         --                   [1, 6, 1, 1]         (recursive)
│    │    │    └─Conv2dStaticSamePadding (_se_expand): 4-46            [1, 6, 1, 1]         [1, 1]               [1, 24, 1, 1]        (recursive)
│    │    │    │    └─Identity (static_padding): 5-23                  [1, 6, 1, 1]         --                   [1, 6, 1, 1]         (recursive)
│    │    │    └─Conv2dStaticSamePadding (_project_conv): 4-47         [1, 24, 256, 256]    [1, 1]               [1, 24, 256, 256]    (recursive)
│    │    │    │    └─Identity (static_padding): 5-24                  [1, 24, 256, 256]    --                   [1, 24, 256, 256]    (recursive)
│    │    │    └─BatchNorm2d (_bn2): 4-48                              [1, 24, 256, 256]    --                   [1, 24, 256, 256]    (recursive)
│    │    └─MBConvBlock (2): 3-10                                      [1, 24, 256, 256]    --                   [1, 32, 128, 128]         --
│    │    │    └─Conv2dStaticSamePadding (_expand_conv): 4-49          [1, 24, 256, 256]    [1, 1]               [1, 144, 256, 256]     0.01%
│    │    │    │    └─Identity (static_padding): 5-25                  [1, 24, 256, 256]    --                   [1, 24, 256, 256]         --
│    │    │    └─BatchNorm2d (_bn0): 4-50                              [1, 144, 256, 256]   --                   [1, 144, 256, 256]     0.00%
│    │    │    └─MemoryEfficientSwish (_swish): 4-51                   [1, 144, 256, 256]   --                   [1, 144, 256, 256]        --
│    │    │    └─Conv2dStaticSamePadding (_depthwise_conv): 4-52       [1, 144, 256, 256]   [3, 3]               [1, 144, 128, 128]     0.00%
│    │    │    │    └─ZeroPad2d (static_padding): 5-26                 [1, 144, 256, 256]   --                   [1, 144, 257, 257]        --
│    │    │    └─BatchNorm2d (_bn1): 4-53                              [1, 144, 128, 128]   --                   [1, 144, 128, 128]     0.00%
│    │    │    └─MemoryEfficientSwish (_swish): 4-54                   [1, 144, 128, 128]   --                   [1, 144, 128, 128]   (recursive)
│    │    │    └─Conv2dStaticSamePadding (_se_reduce): 4-55            [1, 144, 1, 1]       [1, 1]               [1, 6, 1, 1]           0.00%
│    │    │    │    └─Identity (static_padding): 5-27                  [1, 144, 1, 1]       --                   [1, 144, 1, 1]            --
│    │    │    └─MemoryEfficientSwish (_swish): 4-56                   [1, 6, 1, 1]         --                   [1, 6, 1, 1]         (recursive)
│    │    │    └─Conv2dStaticSamePadding (_se_expand): 4-57            [1, 6, 1, 1]         [1, 1]               [1, 144, 1, 1]         0.00%
│    │    │    │    └─Identity (static_padding): 5-28                  [1, 6, 1, 1]         --                   [1, 6, 1, 1]              --
│    │    │    └─Conv2dStaticSamePadding (_project_conv): 4-58         [1, 144, 128, 128]   [1, 1]               [1, 32, 128, 128]      0.02%
│    │    │    │    └─Identity (static_padding): 5-29                  [1, 144, 128, 128]   --                   [1, 144, 128, 128]        --
│    │    │    └─BatchNorm2d (_bn2): 4-59                              [1, 32, 128, 128]    --                   [1, 32, 128, 128]      0.00%
│    │    └─MBConvBlock (2): 3-11                                      [1, 24, 256, 256]    --                   [1, 32, 128, 128]    (recursive)
│    │    │    └─Conv2dStaticSamePadding (_expand_conv): 4-60          [1, 24, 256, 256]    [1, 1]               [1, 144, 256, 256]   (recursive)
│    │    │    │    └─Identity (static_padding): 5-30                  [1, 24, 256, 256]    --                   [1, 24, 256, 256]    (recursive)
│    │    │    └─BatchNorm2d (_bn0): 4-61                              [1, 144, 256, 256]   --                   [1, 144, 256, 256]   (recursive)
│    │    │    └─MemoryEfficientSwish (_swish): 4-62                   [1, 144, 256, 256]   --                   [1, 144, 256, 256]   (recursive)
│    │    │    └─Conv2dStaticSamePadding (_depthwise_conv): 4-63       [1, 144, 256, 256]   [3, 3]               [1, 144, 128, 128]   (recursive)
│    │    │    │    └─ZeroPad2d (static_padding): 5-31                 [1, 144, 256, 256]   --                   [1, 144, 257, 257]   (recursive)
│    │    │    └─BatchNorm2d (_bn1): 4-64                              [1, 144, 128, 128]   --                   [1, 144, 128, 128]   (recursive)
│    │    │    └─MemoryEfficientSwish (_swish): 4-65                   [1, 144, 128, 128]   --                   [1, 144, 128, 128]   (recursive)
│    │    │    └─Conv2dStaticSamePadding (_se_reduce): 4-66            [1, 144, 1, 1]       [1, 1]               [1, 6, 1, 1]         (recursive)
│    │    │    │    └─Identity (static_padding): 5-32                  [1, 144, 1, 1]       --                   [1, 144, 1, 1]       (recursive)
│    │    │    └─MemoryEfficientSwish (_swish): 4-67                   [1, 6, 1, 1]         --                   [1, 6, 1, 1]         (recursive)
│    │    │    └─Conv2dStaticSamePadding (_se_expand): 4-68            [1, 6, 1, 1]         [1, 1]               [1, 144, 1, 1]       (recursive)
│    │    │    │    └─Identity (static_padding): 5-33                  [1, 6, 1, 1]         --                   [1, 6, 1, 1]         (recursive)
│    │    │    └─Conv2dStaticSamePadding (_project_conv): 4-69         [1, 144, 128, 128]   [1, 1]               [1, 32, 128, 128]    (recursive)
│    │    │    │    └─Identity (static_padding): 5-34                  [1, 144, 128, 128]   --                   [1, 144, 128, 128]   (recursive)
│    │    │    └─BatchNorm2d (_bn2): 4-70                              [1, 32, 128, 128]    --                   [1, 32, 128, 128]    (recursive)
│    │    └─MBConvBlock (2): 3-12                                      [1, 24, 256, 256]    --                   [1, 32, 128, 128]    (recursive)
│    │    │    └─Conv2dStaticSamePadding (_expand_conv): 4-71          [1, 24, 256, 256]    [1, 1]               [1, 144, 256, 256]   (recursive)
│    │    │    │    └─Identity (static_padding): 5-35                  [1, 24, 256, 256]    --                   [1, 24, 256, 256]    (recursive)
│    │    │    └─BatchNorm2d (_bn0): 4-72                              [1, 144, 256, 256]   --                   [1, 144, 256, 256]   (recursive)
│    │    │    └─MemoryEfficientSwish (_swish): 4-73                   [1, 144, 256, 256]   --                   [1, 144, 256, 256]   (recursive)
│    │    │    └─Conv2dStaticSamePadding (_depthwise_conv): 4-74       [1, 144, 256, 256]   [3, 3]               [1, 144, 128, 128]   (recursive)
│    │    │    │    └─ZeroPad2d (static_padding): 5-36                 [1, 144, 256, 256]   --                   [1, 144, 257, 257]   (recursive)
│    │    │    └─BatchNorm2d (_bn1): 4-75                              [1, 144, 128, 128]   --                   [1, 144, 128, 128]   (recursive)
│    │    │    └─MemoryEfficientSwish (_swish): 4-76                   [1, 144, 128, 128]   --                   [1, 144, 128, 128]   (recursive)
│    │    │    └─Conv2dStaticSamePadding (_se_reduce): 4-77            [1, 144, 1, 1]       [1, 1]               [1, 6, 1, 1]         (recursive)
│    │    │    │    └─Identity (static_padding): 5-37                  [1, 144, 1, 1]       --                   [1, 144, 1, 1]       (recursive)
│    │    │    └─MemoryEfficientSwish (_swish): 4-78                   [1, 6, 1, 1]         --                   [1, 6, 1, 1]         (recursive)
│    │    │    └─Conv2dStaticSamePadding (_se_expand): 4-79            [1, 6, 1, 1]         [1, 1]               [1, 144, 1, 1]       (recursive)
│    │    │    │    └─Identity (static_padding): 5-38                  [1, 6, 1, 1]         --                   [1, 6, 1, 1]         (recursive)
│    │    │    └─Conv2dStaticSamePadding (_project_conv): 4-80         [1, 144, 128, 128]   [1, 1]               [1, 32, 128, 128]    (recursive)
│    │    │    │    └─Identity (static_padding): 5-39                  [1, 144, 128, 128]   --                   [1, 144, 128, 128]   (recursive)
│    │    │    └─BatchNorm2d (_bn2): 4-81                              [1, 32, 128, 128]    --                   [1, 32, 128, 128]    (recursive)
│    │    └─MBConvBlock (3): 3-13                                      [1, 32, 128, 128]    --                   [1, 32, 128, 128]         --
│    │    │    └─Conv2dStaticSamePadding (_expand_conv): 4-82          [1, 32, 128, 128]    [1, 1]               [1, 192, 128, 128]     0.02%
│    │    │    │    └─Identity (static_padding): 5-40                  [1, 32, 128, 128]    --                   [1, 32, 128, 128]         --
│    │    │    └─BatchNorm2d (_bn0): 4-83                              [1, 192, 128, 128]   --                   [1, 192, 128, 128]     0.00%
│    │    │    └─MemoryEfficientSwish (_swish): 4-84                   [1, 192, 128, 128]   --                   [1, 192, 128, 128]        --
│    │    │    └─Conv2dStaticSamePadding (_depthwise_conv): 4-85       [1, 192, 128, 128]   [3, 3]               [1, 192, 128, 128]     0.01%
│    │    │    │    └─ZeroPad2d (static_padding): 5-41                 [1, 192, 128, 128]   --                   [1, 192, 130, 130]        --
│    │    │    └─BatchNorm2d (_bn1): 4-86                              [1, 192, 128, 128]   --                   [1, 192, 128, 128]     0.00%
│    │    │    └─MemoryEfficientSwish (_swish): 4-87                   [1, 192, 128, 128]   --                   [1, 192, 128, 128]   (recursive)
│    │    │    └─Conv2dStaticSamePadding (_se_reduce): 4-88            [1, 192, 1, 1]       [1, 1]               [1, 8, 1, 1]           0.01%
│    │    │    │    └─Identity (static_padding): 5-42                  [1, 192, 1, 1]       --                   [1, 192, 1, 1]            --
│    │    │    └─MemoryEfficientSwish (_swish): 4-89                   [1, 8, 1, 1]         --                   [1, 8, 1, 1]         (recursive)
│    │    │    └─Conv2dStaticSamePadding (_se_expand): 4-90            [1, 8, 1, 1]         [1, 1]               [1, 192, 1, 1]         0.01%
│    │    │    │    └─Identity (static_padding): 5-43                  [1, 8, 1, 1]         --                   [1, 8, 1, 1]              --
│    │    │    └─Conv2dStaticSamePadding (_project_conv): 4-91         [1, 192, 128, 128]   [1, 1]               [1, 32, 128, 128]      0.02%
│    │    │    │    └─Identity (static_padding): 5-44                  [1, 192, 128, 128]   --                   [1, 192, 128, 128]        --
│    │    │    └─BatchNorm2d (_bn2): 4-92                              [1, 32, 128, 128]    --                   [1, 32, 128, 128]      0.00%
│    │    └─MBConvBlock (3): 3-14                                      [1, 32, 128, 128]    --                   [1, 32, 128, 128]    (recursive)
│    │    │    └─Conv2dStaticSamePadding (_expand_conv): 4-93          [1, 32, 128, 128]    [1, 1]               [1, 192, 128, 128]   (recursive)
│    │    │    │    └─Identity (static_padding): 5-45                  [1, 32, 128, 128]    --                   [1, 32, 128, 128]    (recursive)
│    │    │    └─BatchNorm2d (_bn0): 4-94                              [1, 192, 128, 128]   --                   [1, 192, 128, 128]   (recursive)
│    │    │    └─MemoryEfficientSwish (_swish): 4-95                   [1, 192, 128, 128]   --                   [1, 192, 128, 128]   (recursive)
│    │    │    └─Conv2dStaticSamePadding (_depthwise_conv): 4-96       [1, 192, 128, 128]   [3, 3]               [1, 192, 128, 128]   (recursive)
│    │    │    │    └─ZeroPad2d (static_padding): 5-46                 [1, 192, 128, 128]   --                   [1, 192, 130, 130]   (recursive)
│    │    │    └─BatchNorm2d (_bn1): 4-97                              [1, 192, 128, 128]   --                   [1, 192, 128, 128]   (recursive)
│    │    │    └─MemoryEfficientSwish (_swish): 4-98                   [1, 192, 128, 128]   --                   [1, 192, 128, 128]   (recursive)
│    │    │    └─Conv2dStaticSamePadding (_se_reduce): 4-99            [1, 192, 1, 1]       [1, 1]               [1, 8, 1, 1]         (recursive)
│    │    │    │    └─Identity (static_padding): 5-47                  [1, 192, 1, 1]       --                   [1, 192, 1, 1]       (recursive)
│    │    │    └─MemoryEfficientSwish (_swish): 4-100                  [1, 8, 1, 1]         --                   [1, 8, 1, 1]         (recursive)
│    │    │    └─Conv2dStaticSamePadding (_se_expand): 4-101           [1, 8, 1, 1]         [1, 1]               [1, 192, 1, 1]       (recursive)
│    │    │    │    └─Identity (static_padding): 5-48                  [1, 8, 1, 1]         --                   [1, 8, 1, 1]         (recursive)
│    │    │    └─Conv2dStaticSamePadding (_project_conv): 4-102        [1, 192, 128, 128]   [1, 1]               [1, 32, 128, 128]    (recursive)
│    │    │    │    └─Identity (static_padding): 5-49                  [1, 192, 128, 128]   --                   [1, 192, 128, 128]   (recursive)
│    │    │    └─BatchNorm2d (_bn2): 4-103                             [1, 32, 128, 128]    --                   [1, 32, 128, 128]    (recursive)
│    │    └─MBConvBlock (3): 3-15                                      [1, 32, 128, 128]    --                   [1, 32, 128, 128]    (recursive)
│    │    │    └─Conv2dStaticSamePadding (_expand_conv): 4-104         [1, 32, 128, 128]    [1, 1]               [1, 192, 128, 128]   (recursive)
│    │    │    │    └─Identity (static_padding): 5-50                  [1, 32, 128, 128]    --                   [1, 32, 128, 128]    (recursive)
│    │    │    └─BatchNorm2d (_bn0): 4-105                             [1, 192, 128, 128]   --                   [1, 192, 128, 128]   (recursive)
│    │    │    └─MemoryEfficientSwish (_swish): 4-106                  [1, 192, 128, 128]   --                   [1, 192, 128, 128]   (recursive)
│    │    │    └─Conv2dStaticSamePadding (_depthwise_conv): 4-107      [1, 192, 128, 128]   [3, 3]               [1, 192, 128, 128]   (recursive)
│    │    │    │    └─ZeroPad2d (static_padding): 5-51                 [1, 192, 128, 128]   --                   [1, 192, 130, 130]   (recursive)
│    │    │    └─BatchNorm2d (_bn1): 4-108                             [1, 192, 128, 128]   --                   [1, 192, 128, 128]   (recursive)
│    │    │    └─MemoryEfficientSwish (_swish): 4-109                  [1, 192, 128, 128]   --                   [1, 192, 128, 128]   (recursive)
│    │    │    └─Conv2dStaticSamePadding (_se_reduce): 4-110           [1, 192, 1, 1]       [1, 1]               [1, 8, 1, 1]         (recursive)
│    │    │    │    └─Identity (static_padding): 5-52                  [1, 192, 1, 1]       --                   [1, 192, 1, 1]       (recursive)
│    │    │    └─MemoryEfficientSwish (_swish): 4-111                  [1, 8, 1, 1]         --                   [1, 8, 1, 1]         (recursive)
│    │    │    └─Conv2dStaticSamePadding (_se_expand): 4-112           [1, 8, 1, 1]         [1, 1]               [1, 192, 1, 1]       (recursive)
│    │    │    │    └─Identity (static_padding): 5-53                  [1, 8, 1, 1]         --                   [1, 8, 1, 1]         (recursive)
│    │    │    └─Conv2dStaticSamePadding (_project_conv): 4-113        [1, 192, 128, 128]   [1, 1]               [1, 32, 128, 128]    (recursive)
│    │    │    │    └─Identity (static_padding): 5-54                  [1, 192, 128, 128]   --                   [1, 192, 128, 128]   (recursive)
│    │    │    └─BatchNorm2d (_bn2): 4-114                             [1, 32, 128, 128]    --                   [1, 32, 128, 128]    (recursive)
│    │    └─MBConvBlock (4): 3-16                                      [1, 32, 128, 128]    --                   [1, 32, 128, 128]         --
│    │    │    └─Conv2dStaticSamePadding (_expand_conv): 4-115         [1, 32, 128, 128]    [1, 1]               [1, 192, 128, 128]     0.02%
│    │    │    │    └─Identity (static_padding): 5-55                  [1, 32, 128, 128]    --                   [1, 32, 128, 128]         --
│    │    │    └─BatchNorm2d (_bn0): 4-116                             [1, 192, 128, 128]   --                   [1, 192, 128, 128]     0.00%
│    │    │    └─MemoryEfficientSwish (_swish): 4-117                  [1, 192, 128, 128]   --                   [1, 192, 128, 128]        --
│    │    │    └─Conv2dStaticSamePadding (_depthwise_conv): 4-118      [1, 192, 128, 128]   [3, 3]               [1, 192, 128, 128]     0.01%
│    │    │    │    └─ZeroPad2d (static_padding): 5-56                 [1, 192, 128, 128]   --                   [1, 192, 130, 130]        --
│    │    │    └─BatchNorm2d (_bn1): 4-119                             [1, 192, 128, 128]   --                   [1, 192, 128, 128]     0.00%
│    │    │    └─MemoryEfficientSwish (_swish): 4-120                  [1, 192, 128, 128]   --                   [1, 192, 128, 128]   (recursive)
│    │    │    └─Conv2dStaticSamePadding (_se_reduce): 4-121           [1, 192, 1, 1]       [1, 1]               [1, 8, 1, 1]           0.01%
│    │    │    │    └─Identity (static_padding): 5-57                  [1, 192, 1, 1]       --                   [1, 192, 1, 1]            --
│    │    │    └─MemoryEfficientSwish (_swish): 4-122                  [1, 8, 1, 1]         --                   [1, 8, 1, 1]         (recursive)
│    │    │    └─Conv2dStaticSamePadding (_se_expand): 4-123           [1, 8, 1, 1]         [1, 1]               [1, 192, 1, 1]         0.01%
│    │    │    │    └─Identity (static_padding): 5-58                  [1, 8, 1, 1]         --                   [1, 8, 1, 1]              --
│    │    │    └─Conv2dStaticSamePadding (_project_conv): 4-124        [1, 192, 128, 128]   [1, 1]               [1, 32, 128, 128]      0.02%
│    │    │    │    └─Identity (static_padding): 5-59                  [1, 192, 128, 128]   --                   [1, 192, 128, 128]        --
│    │    │    └─BatchNorm2d (_bn2): 4-125                             [1, 32, 128, 128]    --                   [1, 32, 128, 128]      0.00%
│    │    └─MBConvBlock (4): 3-17                                      [1, 32, 128, 128]    --                   [1, 32, 128, 128]    (recursive)
│    │    │    └─Conv2dStaticSamePadding (_expand_conv): 4-126         [1, 32, 128, 128]    [1, 1]               [1, 192, 128, 128]   (recursive)
│    │    │    │    └─Identity (static_padding): 5-60                  [1, 32, 128, 128]    --                   [1, 32, 128, 128]    (recursive)
│    │    │    └─BatchNorm2d (_bn0): 4-127                             [1, 192, 128, 128]   --                   [1, 192, 128, 128]   (recursive)
│    │    │    └─MemoryEfficientSwish (_swish): 4-128                  [1, 192, 128, 128]   --                   [1, 192, 128, 128]   (recursive)
│    │    │    └─Conv2dStaticSamePadding (_depthwise_conv): 4-129      [1, 192, 128, 128]   [3, 3]               [1, 192, 128, 128]   (recursive)
│    │    │    │    └─ZeroPad2d (static_padding): 5-61                 [1, 192, 128, 128]   --                   [1, 192, 130, 130]   (recursive)
│    │    │    └─BatchNorm2d (_bn1): 4-130                             [1, 192, 128, 128]   --                   [1, 192, 128, 128]   (recursive)
│    │    │    └─MemoryEfficientSwish (_swish): 4-131                  [1, 192, 128, 128]   --                   [1, 192, 128, 128]   (recursive)
│    │    │    └─Conv2dStaticSamePadding (_se_reduce): 4-132           [1, 192, 1, 1]       [1, 1]               [1, 8, 1, 1]         (recursive)
│    │    │    │    └─Identity (static_padding): 5-62                  [1, 192, 1, 1]       --                   [1, 192, 1, 1]       (recursive)
│    │    │    └─MemoryEfficientSwish (_swish): 4-133                  [1, 8, 1, 1]         --                   [1, 8, 1, 1]         (recursive)
│    │    │    └─Conv2dStaticSamePadding (_se_expand): 4-134           [1, 8, 1, 1]         [1, 1]               [1, 192, 1, 1]       (recursive)
│    │    │    │    └─Identity (static_padding): 5-63                  [1, 8, 1, 1]         --                   [1, 8, 1, 1]         (recursive)
│    │    │    └─Conv2dStaticSamePadding (_project_conv): 4-135        [1, 192, 128, 128]   [1, 1]               [1, 32, 128, 128]    (recursive)
│    │    │    │    └─Identity (static_padding): 5-64                  [1, 192, 128, 128]   --                   [1, 192, 128, 128]   (recursive)
│    │    │    └─BatchNorm2d (_bn2): 4-136                             [1, 32, 128, 128]    --                   [1, 32, 128, 128]    (recursive)
│    │    └─MBConvBlock (4): 3-18                                      [1, 32, 128, 128]    --                   [1, 32, 128, 128]    (recursive)
│    │    │    └─Conv2dStaticSamePadding (_expand_conv): 4-137         [1, 32, 128, 128]    [1, 1]               [1, 192, 128, 128]   (recursive)
│    │    │    │    └─Identity (static_padding): 5-65                  [1, 32, 128, 128]    --                   [1, 32, 128, 128]    (recursive)
│    │    │    └─BatchNorm2d (_bn0): 4-138                             [1, 192, 128, 128]   --                   [1, 192, 128, 128]   (recursive)
│    │    │    └─MemoryEfficientSwish (_swish): 4-139                  [1, 192, 128, 128]   --                   [1, 192, 128, 128]   (recursive)
│    │    │    └─Conv2dStaticSamePadding (_depthwise_conv): 4-140      [1, 192, 128, 128]   [3, 3]               [1, 192, 128, 128]   (recursive)
│    │    │    │    └─ZeroPad2d (static_padding): 5-66                 [1, 192, 128, 128]   --                   [1, 192, 130, 130]   (recursive)
│    │    │    └─BatchNorm2d (_bn1): 4-141                             [1, 192, 128, 128]   --                   [1, 192, 128, 128]   (recursive)
│    │    │    └─MemoryEfficientSwish (_swish): 4-142                  [1, 192, 128, 128]   --                   [1, 192, 128, 128]   (recursive)
│    │    │    └─Conv2dStaticSamePadding (_se_reduce): 4-143           [1, 192, 1, 1]       [1, 1]               [1, 8, 1, 1]         (recursive)
│    │    │    │    └─Identity (static_padding): 5-67                  [1, 192, 1, 1]       --                   [1, 192, 1, 1]       (recursive)
│    │    │    └─MemoryEfficientSwish (_swish): 4-144                  [1, 8, 1, 1]         --                   [1, 8, 1, 1]         (recursive)
│    │    │    └─Conv2dStaticSamePadding (_se_expand): 4-145           [1, 8, 1, 1]         [1, 1]               [1, 192, 1, 1]       (recursive)
│    │    │    │    └─Identity (static_padding): 5-68                  [1, 8, 1, 1]         --                   [1, 8, 1, 1]         (recursive)
│    │    │    └─Conv2dStaticSamePadding (_project_conv): 4-146        [1, 192, 128, 128]   [1, 1]               [1, 32, 128, 128]    (recursive)
│    │    │    │    └─Identity (static_padding): 5-69                  [1, 192, 128, 128]   --                   [1, 192, 128, 128]   (recursive)
│    │    │    └─BatchNorm2d (_bn2): 4-147                             [1, 32, 128, 128]    --                   [1, 32, 128, 128]    (recursive)
│    │    └─MBConvBlock (5): 3-19                                      [1, 32, 128, 128]    --                   [1, 32, 128, 128]         --
│    │    │    └─Conv2dStaticSamePadding (_expand_conv): 4-148         [1, 32, 128, 128]    [1, 1]               [1, 192, 128, 128]     0.02%
│    │    │    │    └─Identity (static_padding): 5-70                  [1, 32, 128, 128]    --                   [1, 32, 128, 128]         --
│    │    │    └─BatchNorm2d (_bn0): 4-149                             [1, 192, 128, 128]   --                   [1, 192, 128, 128]     0.00%
│    │    │    └─MemoryEfficientSwish (_swish): 4-150                  [1, 192, 128, 128]   --                   [1, 192, 128, 128]        --
│    │    │    └─Conv2dStaticSamePadding (_depthwise_conv): 4-151      [1, 192, 128, 128]   [3, 3]               [1, 192, 128, 128]     0.01%
│    │    │    │    └─ZeroPad2d (static_padding): 5-71                 [1, 192, 128, 128]   --                   [1, 192, 130, 130]        --
│    │    │    └─BatchNorm2d (_bn1): 4-152                             [1, 192, 128, 128]   --                   [1, 192, 128, 128]     0.00%
│    │    │    └─MemoryEfficientSwish (_swish): 4-153                  [1, 192, 128, 128]   --                   [1, 192, 128, 128]   (recursive)
│    │    │    └─Conv2dStaticSamePadding (_se_reduce): 4-154           [1, 192, 1, 1]       [1, 1]               [1, 8, 1, 1]           0.01%
│    │    │    │    └─Identity (static_padding): 5-72                  [1, 192, 1, 1]       --                   [1, 192, 1, 1]            --
│    │    │    └─MemoryEfficientSwish (_swish): 4-155                  [1, 8, 1, 1]         --                   [1, 8, 1, 1]         (recursive)
│    │    │    └─Conv2dStaticSamePadding (_se_expand): 4-156           [1, 8, 1, 1]         [1, 1]               [1, 192, 1, 1]         0.01%
│    │    │    │    └─Identity (static_padding): 5-73                  [1, 8, 1, 1]         --                   [1, 8, 1, 1]              --
│    │    │    └─Conv2dStaticSamePadding (_project_conv): 4-157        [1, 192, 128, 128]   [1, 1]               [1, 32, 128, 128]      0.02%
│    │    │    │    └─Identity (static_padding): 5-74                  [1, 192, 128, 128]   --                   [1, 192, 128, 128]        --
│    │    │    └─BatchNorm2d (_bn2): 4-158                             [1, 32, 128, 128]    --                   [1, 32, 128, 128]      0.00%
│    │    └─MBConvBlock (5): 3-20                                      [1, 32, 128, 128]    --                   [1, 32, 128, 128]    (recursive)
│    │    │    └─Conv2dStaticSamePadding (_expand_conv): 4-159         [1, 32, 128, 128]    [1, 1]               [1, 192, 128, 128]   (recursive)
│    │    │    │    └─Identity (static_padding): 5-75                  [1, 32, 128, 128]    --                   [1, 32, 128, 128]    (recursive)
│    │    │    └─BatchNorm2d (_bn0): 4-160                             [1, 192, 128, 128]   --                   [1, 192, 128, 128]   (recursive)
│    │    │    └─MemoryEfficientSwish (_swish): 4-161                  [1, 192, 128, 128]   --                   [1, 192, 128, 128]   (recursive)
│    │    │    └─Conv2dStaticSamePadding (_depthwise_conv): 4-162      [1, 192, 128, 128]   [3, 3]               [1, 192, 128, 128]   (recursive)
│    │    │    │    └─ZeroPad2d (static_padding): 5-76                 [1, 192, 128, 128]   --                   [1, 192, 130, 130]   (recursive)
│    │    │    └─BatchNorm2d (_bn1): 4-163                             [1, 192, 128, 128]   --                   [1, 192, 128, 128]   (recursive)
│    │    │    └─MemoryEfficientSwish (_swish): 4-164                  [1, 192, 128, 128]   --                   [1, 192, 128, 128]   (recursive)
│    │    │    └─Conv2dStaticSamePadding (_se_reduce): 4-165           [1, 192, 1, 1]       [1, 1]               [1, 8, 1, 1]         (recursive)
│    │    │    │    └─Identity (static_padding): 5-77                  [1, 192, 1, 1]       --                   [1, 192, 1, 1]       (recursive)
│    │    │    └─MemoryEfficientSwish (_swish): 4-166                  [1, 8, 1, 1]         --                   [1, 8, 1, 1]         (recursive)
│    │    │    └─Conv2dStaticSamePadding (_se_expand): 4-167           [1, 8, 1, 1]         [1, 1]               [1, 192, 1, 1]       (recursive)
│    │    │    │    └─Identity (static_padding): 5-78                  [1, 8, 1, 1]         --                   [1, 8, 1, 1]         (recursive)
│    │    │    └─Conv2dStaticSamePadding (_project_conv): 4-168        [1, 192, 128, 128]   [1, 1]               [1, 32, 128, 128]    (recursive)
│    │    │    │    └─Identity (static_padding): 5-79                  [1, 192, 128, 128]   --                   [1, 192, 128, 128]   (recursive)
│    │    │    └─BatchNorm2d (_bn2): 4-169                             [1, 32, 128, 128]    --                   [1, 32, 128, 128]    (recursive)
│    │    └─MBConvBlock (5): 3-21                                      [1, 32, 128, 128]    --                   [1, 32, 128, 128]    (recursive)
│    │    │    └─Conv2dStaticSamePadding (_expand_conv): 4-170         [1, 32, 128, 128]    [1, 1]               [1, 192, 128, 128]   (recursive)
│    │    │    │    └─Identity (static_padding): 5-80                  [1, 32, 128, 128]    --                   [1, 32, 128, 128]    (recursive)
│    │    │    └─BatchNorm2d (_bn0): 4-171                             [1, 192, 128, 128]   --                   [1, 192, 128, 128]   (recursive)
│    │    │    └─MemoryEfficientSwish (_swish): 4-172                  [1, 192, 128, 128]   --                   [1, 192, 128, 128]   (recursive)
│    │    │    └─Conv2dStaticSamePadding (_depthwise_conv): 4-173      [1, 192, 128, 128]   [3, 3]               [1, 192, 128, 128]   (recursive)
│    │    │    │    └─ZeroPad2d (static_padding): 5-81                 [1, 192, 128, 128]   --                   [1, 192, 130, 130]   (recursive)
│    │    │    └─BatchNorm2d (_bn1): 4-174                             [1, 192, 128, 128]   --                   [1, 192, 128, 128]   (recursive)
│    │    │    └─MemoryEfficientSwish (_swish): 4-175                  [1, 192, 128, 128]   --                   [1, 192, 128, 128]   (recursive)
│    │    │    └─Conv2dStaticSamePadding (_se_reduce): 4-176           [1, 192, 1, 1]       [1, 1]               [1, 8, 1, 1]         (recursive)
│    │    │    │    └─Identity (static_padding): 5-82                  [1, 192, 1, 1]       --                   [1, 192, 1, 1]       (recursive)
│    │    │    └─MemoryEfficientSwish (_swish): 4-177                  [1, 8, 1, 1]         --                   [1, 8, 1, 1]         (recursive)
│    │    │    └─Conv2dStaticSamePadding (_se_expand): 4-178           [1, 8, 1, 1]         [1, 1]               [1, 192, 1, 1]       (recursive)
│    │    │    │    └─Identity (static_padding): 5-83                  [1, 8, 1, 1]         --                   [1, 8, 1, 1]         (recursive)
│    │    │    └─Conv2dStaticSamePadding (_project_conv): 4-179        [1, 192, 128, 128]   [1, 1]               [1, 32, 128, 128]    (recursive)
│    │    │    │    └─Identity (static_padding): 5-84                  [1, 192, 128, 128]   --                   [1, 192, 128, 128]   (recursive)
│    │    │    └─BatchNorm2d (_bn2): 4-180                             [1, 32, 128, 128]    --                   [1, 32, 128, 128]    (recursive)
│    │    └─MBConvBlock (6): 3-22                                      [1, 32, 128, 128]    --                   [1, 56, 64, 64]           --
│    │    │    └─Conv2dStaticSamePadding (_expand_conv): 4-181         [1, 32, 128, 128]    [1, 1]               [1, 192, 128, 128]     0.02%
│    │    │    │    └─Identity (static_padding): 5-85                  [1, 32, 128, 128]    --                   [1, 32, 128, 128]         --
│    │    │    └─BatchNorm2d (_bn0): 4-182                             [1, 192, 128, 128]   --                   [1, 192, 128, 128]     0.00%
│    │    │    └─MemoryEfficientSwish (_swish): 4-183                  [1, 192, 128, 128]   --                   [1, 192, 128, 128]        --
│    │    │    └─Conv2dStaticSamePadding (_depthwise_conv): 4-184      [1, 192, 128, 128]   [5, 5]               [1, 192, 64, 64]       0.02%
│    │    │    │    └─ZeroPad2d (static_padding): 5-86                 [1, 192, 128, 128]   --                   [1, 192, 132, 132]        --
│    │    │    └─BatchNorm2d (_bn1): 4-185                             [1, 192, 64, 64]     --                   [1, 192, 64, 64]       0.00%
│    │    │    └─MemoryEfficientSwish (_swish): 4-186                  [1, 192, 64, 64]     --                   [1, 192, 64, 64]     (recursive)
│    │    │    └─Conv2dStaticSamePadding (_se_reduce): 4-187           [1, 192, 1, 1]       [1, 1]               [1, 8, 1, 1]           0.01%
│    │    │    │    └─Identity (static_padding): 5-87                  [1, 192, 1, 1]       --                   [1, 192, 1, 1]            --
│    │    │    └─MemoryEfficientSwish (_swish): 4-188                  [1, 8, 1, 1]         --                   [1, 8, 1, 1]         (recursive)
│    │    │    └─Conv2dStaticSamePadding (_se_expand): 4-189           [1, 8, 1, 1]         [1, 1]               [1, 192, 1, 1]         0.01%
│    │    │    │    └─Identity (static_padding): 5-88                  [1, 8, 1, 1]         --                   [1, 8, 1, 1]              --
│    │    │    └─Conv2dStaticSamePadding (_project_conv): 4-190        [1, 192, 64, 64]     [1, 1]               [1, 56, 64, 64]        0.04%
│    │    │    │    └─Identity (static_padding): 5-89                  [1, 192, 64, 64]     --                   [1, 192, 64, 64]          --
│    │    │    └─BatchNorm2d (_bn2): 4-191                             [1, 56, 64, 64]      --                   [1, 56, 64, 64]        0.00%
│    │    └─MBConvBlock (6): 3-23                                      [1, 32, 128, 128]    --                   [1, 56, 64, 64]      (recursive)
│    │    │    └─Conv2dStaticSamePadding (_expand_conv): 4-192         [1, 32, 128, 128]    [1, 1]               [1, 192, 128, 128]   (recursive)
│    │    │    │    └─Identity (static_padding): 5-90                  [1, 32, 128, 128]    --                   [1, 32, 128, 128]    (recursive)
│    │    │    └─BatchNorm2d (_bn0): 4-193                             [1, 192, 128, 128]   --                   [1, 192, 128, 128]   (recursive)
│    │    │    └─MemoryEfficientSwish (_swish): 4-194                  [1, 192, 128, 128]   --                   [1, 192, 128, 128]   (recursive)
│    │    │    └─Conv2dStaticSamePadding (_depthwise_conv): 4-195      [1, 192, 128, 128]   [5, 5]               [1, 192, 64, 64]     (recursive)
│    │    │    │    └─ZeroPad2d (static_padding): 5-91                 [1, 192, 128, 128]   --                   [1, 192, 132, 132]   (recursive)
│    │    │    └─BatchNorm2d (_bn1): 4-196                             [1, 192, 64, 64]     --                   [1, 192, 64, 64]     (recursive)
│    │    │    └─MemoryEfficientSwish (_swish): 4-197                  [1, 192, 64, 64]     --                   [1, 192, 64, 64]     (recursive)
│    │    │    └─Conv2dStaticSamePadding (_se_reduce): 4-198           [1, 192, 1, 1]       [1, 1]               [1, 8, 1, 1]         (recursive)
│    │    │    │    └─Identity (static_padding): 5-92                  [1, 192, 1, 1]       --                   [1, 192, 1, 1]       (recursive)
│    │    │    └─MemoryEfficientSwish (_swish): 4-199                  [1, 8, 1, 1]         --                   [1, 8, 1, 1]         (recursive)
│    │    │    └─Conv2dStaticSamePadding (_se_expand): 4-200           [1, 8, 1, 1]         [1, 1]               [1, 192, 1, 1]       (recursive)
│    │    │    │    └─Identity (static_padding): 5-93                  [1, 8, 1, 1]         --                   [1, 8, 1, 1]         (recursive)
│    │    │    └─Conv2dStaticSamePadding (_project_conv): 4-201        [1, 192, 64, 64]     [1, 1]               [1, 56, 64, 64]      (recursive)
│    │    │    │    └─Identity (static_padding): 5-94                  [1, 192, 64, 64]     --                   [1, 192, 64, 64]     (recursive)
│    │    │    └─BatchNorm2d (_bn2): 4-202                             [1, 56, 64, 64]      --                   [1, 56, 64, 64]      (recursive)
│    │    └─MBConvBlock (6): 3-24                                      [1, 32, 128, 128]    --                   [1, 56, 64, 64]      (recursive)
│    │    │    └─Conv2dStaticSamePadding (_expand_conv): 4-203         [1, 32, 128, 128]    [1, 1]               [1, 192, 128, 128]   (recursive)
│    │    │    │    └─Identity (static_padding): 5-95                  [1, 32, 128, 128]    --                   [1, 32, 128, 128]    (recursive)
│    │    │    └─BatchNorm2d (_bn0): 4-204                             [1, 192, 128, 128]   --                   [1, 192, 128, 128]   (recursive)
│    │    │    └─MemoryEfficientSwish (_swish): 4-205                  [1, 192, 128, 128]   --                   [1, 192, 128, 128]   (recursive)
│    │    │    └─Conv2dStaticSamePadding (_depthwise_conv): 4-206      [1, 192, 128, 128]   [5, 5]               [1, 192, 64, 64]     (recursive)
│    │    │    │    └─ZeroPad2d (static_padding): 5-96                 [1, 192, 128, 128]   --                   [1, 192, 132, 132]   (recursive)
│    │    │    └─BatchNorm2d (_bn1): 4-207                             [1, 192, 64, 64]     --                   [1, 192, 64, 64]     (recursive)
│    │    │    └─MemoryEfficientSwish (_swish): 4-208                  [1, 192, 64, 64]     --                   [1, 192, 64, 64]     (recursive)
│    │    │    └─Conv2dStaticSamePadding (_se_reduce): 4-209           [1, 192, 1, 1]       [1, 1]               [1, 8, 1, 1]         (recursive)
│    │    │    │    └─Identity (static_padding): 5-97                  [1, 192, 1, 1]       --                   [1, 192, 1, 1]       (recursive)
│    │    │    └─MemoryEfficientSwish (_swish): 4-210                  [1, 8, 1, 1]         --                   [1, 8, 1, 1]         (recursive)
│    │    │    └─Conv2dStaticSamePadding (_se_expand): 4-211           [1, 8, 1, 1]         [1, 1]               [1, 192, 1, 1]       (recursive)
│    │    │    │    └─Identity (static_padding): 5-98                  [1, 8, 1, 1]         --                   [1, 8, 1, 1]         (recursive)
│    │    │    └─Conv2dStaticSamePadding (_project_conv): 4-212        [1, 192, 64, 64]     [1, 1]               [1, 56, 64, 64]      (recursive)
│    │    │    │    └─Identity (static_padding): 5-99                  [1, 192, 64, 64]     --                   [1, 192, 64, 64]     (recursive)
│    │    │    └─BatchNorm2d (_bn2): 4-213                             [1, 56, 64, 64]      --                   [1, 56, 64, 64]      (recursive)
│    │    └─MBConvBlock (7): 3-25                                      [1, 56, 64, 64]      --                   [1, 56, 64, 64]           --
│    │    │    └─Conv2dStaticSamePadding (_expand_conv): 4-214         [1, 56, 64, 64]      [1, 1]               [1, 336, 64, 64]       0.07%
│    │    │    │    └─Identity (static_padding): 5-100                 [1, 56, 64, 64]      --                   [1, 56, 64, 64]           --
│    │    │    └─BatchNorm2d (_bn0): 4-215                             [1, 336, 64, 64]     --                   [1, 336, 64, 64]       0.00%
│    │    │    └─MemoryEfficientSwish (_swish): 4-216                  [1, 336, 64, 64]     --                   [1, 336, 64, 64]          --
│    │    │    └─Conv2dStaticSamePadding (_depthwise_conv): 4-217      [1, 336, 64, 64]     [5, 5]               [1, 336, 64, 64]       0.03%
│    │    │    │    └─ZeroPad2d (static_padding): 5-101                [1, 336, 64, 64]     --                   [1, 336, 68, 68]          --
│    │    │    └─BatchNorm2d (_bn1): 4-218                             [1, 336, 64, 64]     --                   [1, 336, 64, 64]       0.00%
│    │    │    └─MemoryEfficientSwish (_swish): 4-219                  [1, 336, 64, 64]     --                   [1, 336, 64, 64]     (recursive)
│    │    │    └─Conv2dStaticSamePadding (_se_reduce): 4-220           [1, 336, 1, 1]       [1, 1]               [1, 14, 1, 1]          0.02%
│    │    │    │    └─Identity (static_padding): 5-102                 [1, 336, 1, 1]       --                   [1, 336, 1, 1]            --
│    │    │    └─MemoryEfficientSwish (_swish): 4-221                  [1, 14, 1, 1]        --                   [1, 14, 1, 1]        (recursive)
│    │    │    └─Conv2dStaticSamePadding (_se_expand): 4-222           [1, 14, 1, 1]        [1, 1]               [1, 336, 1, 1]         0.02%
│    │    │    │    └─Identity (static_padding): 5-103                 [1, 14, 1, 1]        --                   [1, 14, 1, 1]             --
│    │    │    └─Conv2dStaticSamePadding (_project_conv): 4-223        [1, 336, 64, 64]     [1, 1]               [1, 56, 64, 64]        0.07%
│    │    │    │    └─Identity (static_padding): 5-104                 [1, 336, 64, 64]     --                   [1, 336, 64, 64]          --
│    │    │    └─BatchNorm2d (_bn2): 4-224                             [1, 56, 64, 64]      --                   [1, 56, 64, 64]        0.00%
│    │    └─MBConvBlock (7): 3-26                                      [1, 56, 64, 64]      --                   [1, 56, 64, 64]      (recursive)
│    │    │    └─Conv2dStaticSamePadding (_expand_conv): 4-225         [1, 56, 64, 64]      [1, 1]               [1, 336, 64, 64]     (recursive)
│    │    │    │    └─Identity (static_padding): 5-105                 [1, 56, 64, 64]      --                   [1, 56, 64, 64]      (recursive)
│    │    │    └─BatchNorm2d (_bn0): 4-226                             [1, 336, 64, 64]     --                   [1, 336, 64, 64]     (recursive)
│    │    │    └─MemoryEfficientSwish (_swish): 4-227                  [1, 336, 64, 64]     --                   [1, 336, 64, 64]     (recursive)
│    │    │    └─Conv2dStaticSamePadding (_depthwise_conv): 4-228      [1, 336, 64, 64]     [5, 5]               [1, 336, 64, 64]     (recursive)
│    │    │    │    └─ZeroPad2d (static_padding): 5-106                [1, 336, 64, 64]     --                   [1, 336, 68, 68]     (recursive)
│    │    │    └─BatchNorm2d (_bn1): 4-229                             [1, 336, 64, 64]     --                   [1, 336, 64, 64]     (recursive)
│    │    │    └─MemoryEfficientSwish (_swish): 4-230                  [1, 336, 64, 64]     --                   [1, 336, 64, 64]     (recursive)
│    │    │    └─Conv2dStaticSamePadding (_se_reduce): 4-231           [1, 336, 1, 1]       [1, 1]               [1, 14, 1, 1]        (recursive)
│    │    │    │    └─Identity (static_padding): 5-107                 [1, 336, 1, 1]       --                   [1, 336, 1, 1]       (recursive)
│    │    │    └─MemoryEfficientSwish (_swish): 4-232                  [1, 14, 1, 1]        --                   [1, 14, 1, 1]        (recursive)
│    │    │    └─Conv2dStaticSamePadding (_se_expand): 4-233           [1, 14, 1, 1]        [1, 1]               [1, 336, 1, 1]       (recursive)
│    │    │    │    └─Identity (static_padding): 5-108                 [1, 14, 1, 1]        --                   [1, 14, 1, 1]        (recursive)
│    │    │    └─Conv2dStaticSamePadding (_project_conv): 4-234        [1, 336, 64, 64]     [1, 1]               [1, 56, 64, 64]      (recursive)
│    │    │    │    └─Identity (static_padding): 5-109                 [1, 336, 64, 64]     --                   [1, 336, 64, 64]     (recursive)
│    │    │    └─BatchNorm2d (_bn2): 4-235                             [1, 56, 64, 64]      --                   [1, 56, 64, 64]      (recursive)
│    │    └─MBConvBlock (7): 3-27                                      [1, 56, 64, 64]      --                   [1, 56, 64, 64]      (recursive)
│    │    │    └─Conv2dStaticSamePadding (_expand_conv): 4-236         [1, 56, 64, 64]      [1, 1]               [1, 336, 64, 64]     (recursive)
│    │    │    │    └─Identity (static_padding): 5-110                 [1, 56, 64, 64]      --                   [1, 56, 64, 64]      (recursive)
│    │    │    └─BatchNorm2d (_bn0): 4-237                             [1, 336, 64, 64]     --                   [1, 336, 64, 64]     (recursive)
│    │    │    └─MemoryEfficientSwish (_swish): 4-238                  [1, 336, 64, 64]     --                   [1, 336, 64, 64]     (recursive)
│    │    │    └─Conv2dStaticSamePadding (_depthwise_conv): 4-239      [1, 336, 64, 64]     [5, 5]               [1, 336, 64, 64]     (recursive)
│    │    │    │    └─ZeroPad2d (static_padding): 5-111                [1, 336, 64, 64]     --                   [1, 336, 68, 68]     (recursive)
│    │    │    └─BatchNorm2d (_bn1): 4-240                             [1, 336, 64, 64]     --                   [1, 336, 64, 64]     (recursive)
│    │    │    └─MemoryEfficientSwish (_swish): 4-241                  [1, 336, 64, 64]     --                   [1, 336, 64, 64]     (recursive)
│    │    │    └─Conv2dStaticSamePadding (_se_reduce): 4-242           [1, 336, 1, 1]       [1, 1]               [1, 14, 1, 1]        (recursive)
│    │    │    │    └─Identity (static_padding): 5-112                 [1, 336, 1, 1]       --                   [1, 336, 1, 1]       (recursive)
│    │    │    └─MemoryEfficientSwish (_swish): 4-243                  [1, 14, 1, 1]        --                   [1, 14, 1, 1]        (recursive)
│    │    │    └─Conv2dStaticSamePadding (_se_expand): 4-244           [1, 14, 1, 1]        [1, 1]               [1, 336, 1, 1]       (recursive)
│    │    │    │    └─Identity (static_padding): 5-113                 [1, 14, 1, 1]        --                   [1, 14, 1, 1]        (recursive)
│    │    │    └─Conv2dStaticSamePadding (_project_conv): 4-245        [1, 336, 64, 64]     [1, 1]               [1, 56, 64, 64]      (recursive)
│    │    │    │    └─Identity (static_padding): 5-114                 [1, 336, 64, 64]     --                   [1, 336, 64, 64]     (recursive)
│    │    │    └─BatchNorm2d (_bn2): 4-246                             [1, 56, 64, 64]      --                   [1, 56, 64, 64]      (recursive)
│    │    └─MBConvBlock (8): 3-28                                      [1, 56, 64, 64]      --                   [1, 56, 64, 64]           --
│    │    │    └─Conv2dStaticSamePadding (_expand_conv): 4-247         [1, 56, 64, 64]      [1, 1]               [1, 336, 64, 64]       0.07%
│    │    │    │    └─Identity (static_padding): 5-115                 [1, 56, 64, 64]      --                   [1, 56, 64, 64]           --
│    │    │    └─BatchNorm2d (_bn0): 4-248                             [1, 336, 64, 64]     --                   [1, 336, 64, 64]       0.00%
│    │    │    └─MemoryEfficientSwish (_swish): 4-249                  [1, 336, 64, 64]     --                   [1, 336, 64, 64]          --
│    │    │    └─Conv2dStaticSamePadding (_depthwise_conv): 4-250      [1, 336, 64, 64]     [5, 5]               [1, 336, 64, 64]       0.03%
│    │    │    │    └─ZeroPad2d (static_padding): 5-116                [1, 336, 64, 64]     --                   [1, 336, 68, 68]          --
│    │    │    └─BatchNorm2d (_bn1): 4-251                             [1, 336, 64, 64]     --                   [1, 336, 64, 64]       0.00%
│    │    │    └─MemoryEfficientSwish (_swish): 4-252                  [1, 336, 64, 64]     --                   [1, 336, 64, 64]     (recursive)
│    │    │    └─Conv2dStaticSamePadding (_se_reduce): 4-253           [1, 336, 1, 1]       [1, 1]               [1, 14, 1, 1]          0.02%
│    │    │    │    └─Identity (static_padding): 5-117                 [1, 336, 1, 1]       --                   [1, 336, 1, 1]            --
│    │    │    └─MemoryEfficientSwish (_swish): 4-254                  [1, 14, 1, 1]        --                   [1, 14, 1, 1]        (recursive)
│    │    │    └─Conv2dStaticSamePadding (_se_expand): 4-255           [1, 14, 1, 1]        [1, 1]               [1, 336, 1, 1]         0.02%
│    │    │    │    └─Identity (static_padding): 5-118                 [1, 14, 1, 1]        --                   [1, 14, 1, 1]             --
│    │    │    └─Conv2dStaticSamePadding (_project_conv): 4-256        [1, 336, 64, 64]     [1, 1]               [1, 56, 64, 64]        0.07%
│    │    │    │    └─Identity (static_padding): 5-119                 [1, 336, 64, 64]     --                   [1, 336, 64, 64]          --
│    │    │    └─BatchNorm2d (_bn2): 4-257                             [1, 56, 64, 64]      --                   [1, 56, 64, 64]        0.00%
│    │    └─MBConvBlock (8): 3-29                                      [1, 56, 64, 64]      --                   [1, 56, 64, 64]      (recursive)
│    │    │    └─Conv2dStaticSamePadding (_expand_conv): 4-258         [1, 56, 64, 64]      [1, 1]               [1, 336, 64, 64]     (recursive)
│    │    │    │    └─Identity (static_padding): 5-120                 [1, 56, 64, 64]      --                   [1, 56, 64, 64]      (recursive)
│    │    │    └─BatchNorm2d (_bn0): 4-259                             [1, 336, 64, 64]     --                   [1, 336, 64, 64]     (recursive)
│    │    │    └─MemoryEfficientSwish (_swish): 4-260                  [1, 336, 64, 64]     --                   [1, 336, 64, 64]     (recursive)
│    │    │    └─Conv2dStaticSamePadding (_depthwise_conv): 4-261      [1, 336, 64, 64]     [5, 5]               [1, 336, 64, 64]     (recursive)
│    │    │    │    └─ZeroPad2d (static_padding): 5-121                [1, 336, 64, 64]     --                   [1, 336, 68, 68]     (recursive)
│    │    │    └─BatchNorm2d (_bn1): 4-262                             [1, 336, 64, 64]     --                   [1, 336, 64, 64]     (recursive)
│    │    │    └─MemoryEfficientSwish (_swish): 4-263                  [1, 336, 64, 64]     --                   [1, 336, 64, 64]     (recursive)
│    │    │    └─Conv2dStaticSamePadding (_se_reduce): 4-264           [1, 336, 1, 1]       [1, 1]               [1, 14, 1, 1]        (recursive)
│    │    │    │    └─Identity (static_padding): 5-122                 [1, 336, 1, 1]       --                   [1, 336, 1, 1]       (recursive)
│    │    │    └─MemoryEfficientSwish (_swish): 4-265                  [1, 14, 1, 1]        --                   [1, 14, 1, 1]        (recursive)
│    │    │    └─Conv2dStaticSamePadding (_se_expand): 4-266           [1, 14, 1, 1]        [1, 1]               [1, 336, 1, 1]       (recursive)
│    │    │    │    └─Identity (static_padding): 5-123                 [1, 14, 1, 1]        --                   [1, 14, 1, 1]        (recursive)
│    │    │    └─Conv2dStaticSamePadding (_project_conv): 4-267        [1, 336, 64, 64]     [1, 1]               [1, 56, 64, 64]      (recursive)
│    │    │    │    └─Identity (static_padding): 5-124                 [1, 336, 64, 64]     --                   [1, 336, 64, 64]     (recursive)
│    │    │    └─BatchNorm2d (_bn2): 4-268                             [1, 56, 64, 64]      --                   [1, 56, 64, 64]      (recursive)
│    │    └─MBConvBlock (8): 3-30                                      [1, 56, 64, 64]      --                   [1, 56, 64, 64]      (recursive)
│    │    │    └─Conv2dStaticSamePadding (_expand_conv): 4-269         [1, 56, 64, 64]      [1, 1]               [1, 336, 64, 64]     (recursive)
│    │    │    │    └─Identity (static_padding): 5-125                 [1, 56, 64, 64]      --                   [1, 56, 64, 64]      (recursive)
│    │    │    └─BatchNorm2d (_bn0): 4-270                             [1, 336, 64, 64]     --                   [1, 336, 64, 64]     (recursive)
│    │    │    └─MemoryEfficientSwish (_swish): 4-271                  [1, 336, 64, 64]     --                   [1, 336, 64, 64]     (recursive)
│    │    │    └─Conv2dStaticSamePadding (_depthwise_conv): 4-272      [1, 336, 64, 64]     [5, 5]               [1, 336, 64, 64]     (recursive)
│    │    │    │    └─ZeroPad2d (static_padding): 5-126                [1, 336, 64, 64]     --                   [1, 336, 68, 68]     (recursive)
│    │    │    └─BatchNorm2d (_bn1): 4-273                             [1, 336, 64, 64]     --                   [1, 336, 64, 64]     (recursive)
│    │    │    └─MemoryEfficientSwish (_swish): 4-274                  [1, 336, 64, 64]     --                   [1, 336, 64, 64]     (recursive)
│    │    │    └─Conv2dStaticSamePadding (_se_reduce): 4-275           [1, 336, 1, 1]       [1, 1]               [1, 14, 1, 1]        (recursive)
│    │    │    │    └─Identity (static_padding): 5-127                 [1, 336, 1, 1]       --                   [1, 336, 1, 1]       (recursive)
│    │    │    └─MemoryEfficientSwish (_swish): 4-276                  [1, 14, 1, 1]        --                   [1, 14, 1, 1]        (recursive)
│    │    │    └─Conv2dStaticSamePadding (_se_expand): 4-277           [1, 14, 1, 1]        [1, 1]               [1, 336, 1, 1]       (recursive)
│    │    │    │    └─Identity (static_padding): 5-128                 [1, 14, 1, 1]        --                   [1, 14, 1, 1]        (recursive)
│    │    │    └─Conv2dStaticSamePadding (_project_conv): 4-278        [1, 336, 64, 64]     [1, 1]               [1, 56, 64, 64]      (recursive)
│    │    │    │    └─Identity (static_padding): 5-129                 [1, 336, 64, 64]     --                   [1, 336, 64, 64]     (recursive)
│    │    │    └─BatchNorm2d (_bn2): 4-279                             [1, 56, 64, 64]      --                   [1, 56, 64, 64]      (recursive)
│    │    └─MBConvBlock (9): 3-31                                      [1, 56, 64, 64]      --                   [1, 56, 64, 64]           --
│    │    │    └─Conv2dStaticSamePadding (_expand_conv): 4-280         [1, 56, 64, 64]      [1, 1]               [1, 336, 64, 64]       0.07%
│    │    │    │    └─Identity (static_padding): 5-130                 [1, 56, 64, 64]      --                   [1, 56, 64, 64]           --
│    │    │    └─BatchNorm2d (_bn0): 4-281                             [1, 336, 64, 64]     --                   [1, 336, 64, 64]       0.00%
│    │    │    └─MemoryEfficientSwish (_swish): 4-282                  [1, 336, 64, 64]     --                   [1, 336, 64, 64]          --
│    │    │    └─Conv2dStaticSamePadding (_depthwise_conv): 4-283      [1, 336, 64, 64]     [5, 5]               [1, 336, 64, 64]       0.03%
│    │    │    │    └─ZeroPad2d (static_padding): 5-131                [1, 336, 64, 64]     --                   [1, 336, 68, 68]          --
│    │    │    └─BatchNorm2d (_bn1): 4-284                             [1, 336, 64, 64]     --                   [1, 336, 64, 64]       0.00%
│    │    │    └─MemoryEfficientSwish (_swish): 4-285                  [1, 336, 64, 64]     --                   [1, 336, 64, 64]     (recursive)
│    │    │    └─Conv2dStaticSamePadding (_se_reduce): 4-286           [1, 336, 1, 1]       [1, 1]               [1, 14, 1, 1]          0.02%
│    │    │    │    └─Identity (static_padding): 5-132                 [1, 336, 1, 1]       --                   [1, 336, 1, 1]            --
│    │    │    └─MemoryEfficientSwish (_swish): 4-287                  [1, 14, 1, 1]        --                   [1, 14, 1, 1]        (recursive)
│    │    │    └─Conv2dStaticSamePadding (_se_expand): 4-288           [1, 14, 1, 1]        [1, 1]               [1, 336, 1, 1]         0.02%
│    │    │    │    └─Identity (static_padding): 5-133                 [1, 14, 1, 1]        --                   [1, 14, 1, 1]             --
│    │    │    └─Conv2dStaticSamePadding (_project_conv): 4-289        [1, 336, 64, 64]     [1, 1]               [1, 56, 64, 64]        0.07%
│    │    │    │    └─Identity (static_padding): 5-134                 [1, 336, 64, 64]     --                   [1, 336, 64, 64]          --
│    │    │    └─BatchNorm2d (_bn2): 4-290                             [1, 56, 64, 64]      --                   [1, 56, 64, 64]        0.00%
│    │    └─MBConvBlock (9): 3-32                                      [1, 56, 64, 64]      --                   [1, 56, 64, 64]      (recursive)
│    │    │    └─Conv2dStaticSamePadding (_expand_conv): 4-291         [1, 56, 64, 64]      [1, 1]               [1, 336, 64, 64]     (recursive)
│    │    │    │    └─Identity (static_padding): 5-135                 [1, 56, 64, 64]      --                   [1, 56, 64, 64]      (recursive)
│    │    │    └─BatchNorm2d (_bn0): 4-292                             [1, 336, 64, 64]     --                   [1, 336, 64, 64]     (recursive)
│    │    │    └─MemoryEfficientSwish (_swish): 4-293                  [1, 336, 64, 64]     --                   [1, 336, 64, 64]     (recursive)
│    │    │    └─Conv2dStaticSamePadding (_depthwise_conv): 4-294      [1, 336, 64, 64]     [5, 5]               [1, 336, 64, 64]     (recursive)
│    │    │    │    └─ZeroPad2d (static_padding): 5-136                [1, 336, 64, 64]     --                   [1, 336, 68, 68]     (recursive)
│    │    │    └─BatchNorm2d (_bn1): 4-295                             [1, 336, 64, 64]     --                   [1, 336, 64, 64]     (recursive)
│    │    │    └─MemoryEfficientSwish (_swish): 4-296                  [1, 336, 64, 64]     --                   [1, 336, 64, 64]     (recursive)
│    │    │    └─Conv2dStaticSamePadding (_se_reduce): 4-297           [1, 336, 1, 1]       [1, 1]               [1, 14, 1, 1]        (recursive)
│    │    │    │    └─Identity (static_padding): 5-137                 [1, 336, 1, 1]       --                   [1, 336, 1, 1]       (recursive)
│    │    │    └─MemoryEfficientSwish (_swish): 4-298                  [1, 14, 1, 1]        --                   [1, 14, 1, 1]        (recursive)
│    │    │    └─Conv2dStaticSamePadding (_se_expand): 4-299           [1, 14, 1, 1]        [1, 1]               [1, 336, 1, 1]       (recursive)
│    │    │    │    └─Identity (static_padding): 5-138                 [1, 14, 1, 1]        --                   [1, 14, 1, 1]        (recursive)
│    │    │    └─Conv2dStaticSamePadding (_project_conv): 4-300        [1, 336, 64, 64]     [1, 1]               [1, 56, 64, 64]      (recursive)
│    │    │    │    └─Identity (static_padding): 5-139                 [1, 336, 64, 64]     --                   [1, 336, 64, 64]     (recursive)
│    │    │    └─BatchNorm2d (_bn2): 4-301                             [1, 56, 64, 64]      --                   [1, 56, 64, 64]      (recursive)
│    │    └─MBConvBlock (9): 3-33                                      [1, 56, 64, 64]      --                   [1, 56, 64, 64]      (recursive)
│    │    │    └─Conv2dStaticSamePadding (_expand_conv): 4-302         [1, 56, 64, 64]      [1, 1]               [1, 336, 64, 64]     (recursive)
│    │    │    │    └─Identity (static_padding): 5-140                 [1, 56, 64, 64]      --                   [1, 56, 64, 64]      (recursive)
│    │    │    └─BatchNorm2d (_bn0): 4-303                             [1, 336, 64, 64]     --                   [1, 336, 64, 64]     (recursive)
│    │    │    └─MemoryEfficientSwish (_swish): 4-304                  [1, 336, 64, 64]     --                   [1, 336, 64, 64]     (recursive)
│    │    │    └─Conv2dStaticSamePadding (_depthwise_conv): 4-305      [1, 336, 64, 64]     [5, 5]               [1, 336, 64, 64]     (recursive)
│    │    │    │    └─ZeroPad2d (static_padding): 5-141                [1, 336, 64, 64]     --                   [1, 336, 68, 68]     (recursive)
│    │    │    └─BatchNorm2d (_bn1): 4-306                             [1, 336, 64, 64]     --                   [1, 336, 64, 64]     (recursive)
│    │    │    └─MemoryEfficientSwish (_swish): 4-307                  [1, 336, 64, 64]     --                   [1, 336, 64, 64]     (recursive)
│    │    │    └─Conv2dStaticSamePadding (_se_reduce): 4-308           [1, 336, 1, 1]       [1, 1]               [1, 14, 1, 1]        (recursive)
│    │    │    │    └─Identity (static_padding): 5-142                 [1, 336, 1, 1]       --                   [1, 336, 1, 1]       (recursive)
│    │    │    └─MemoryEfficientSwish (_swish): 4-309                  [1, 14, 1, 1]        --                   [1, 14, 1, 1]        (recursive)
│    │    │    └─Conv2dStaticSamePadding (_se_expand): 4-310           [1, 14, 1, 1]        [1, 1]               [1, 336, 1, 1]       (recursive)
│    │    │    │    └─Identity (static_padding): 5-143                 [1, 14, 1, 1]        --                   [1, 14, 1, 1]        (recursive)
│    │    │    └─Conv2dStaticSamePadding (_project_conv): 4-311        [1, 336, 64, 64]     [1, 1]               [1, 56, 64, 64]      (recursive)
│    │    │    │    └─Identity (static_padding): 5-144                 [1, 336, 64, 64]     --                   [1, 336, 64, 64]     (recursive)
│    │    │    └─BatchNorm2d (_bn2): 4-312                             [1, 56, 64, 64]      --                   [1, 56, 64, 64]      (recursive)
│    │    └─MBConvBlock (10): 3-34                                     [1, 56, 64, 64]      --                   [1, 112, 32, 32]          --
│    │    │    └─Conv2dStaticSamePadding (_expand_conv): 4-313         [1, 56, 64, 64]      [1, 1]               [1, 336, 64, 64]       0.07%
│    │    │    │    └─Identity (static_padding): 5-145                 [1, 56, 64, 64]      --                   [1, 56, 64, 64]           --
│    │    │    └─BatchNorm2d (_bn0): 4-314                             [1, 336, 64, 64]     --                   [1, 336, 64, 64]       0.00%
│    │    │    └─MemoryEfficientSwish (_swish): 4-315                  [1, 336, 64, 64]     --                   [1, 336, 64, 64]          --
│    │    │    └─Conv2dStaticSamePadding (_depthwise_conv): 4-316      [1, 336, 64, 64]     [3, 3]               [1, 336, 32, 32]       0.01%
│    │    │    │    └─ZeroPad2d (static_padding): 5-146                [1, 336, 64, 64]     --                   [1, 336, 65, 65]          --
│    │    │    └─BatchNorm2d (_bn1): 4-317                             [1, 336, 32, 32]     --                   [1, 336, 32, 32]       0.00%
│    │    │    └─MemoryEfficientSwish (_swish): 4-318                  [1, 336, 32, 32]     --                   [1, 336, 32, 32]     (recursive)
│    │    │    └─Conv2dStaticSamePadding (_se_reduce): 4-319           [1, 336, 1, 1]       [1, 1]               [1, 14, 1, 1]          0.02%
│    │    │    │    └─Identity (static_padding): 5-147                 [1, 336, 1, 1]       --                   [1, 336, 1, 1]            --
│    │    │    └─MemoryEfficientSwish (_swish): 4-320                  [1, 14, 1, 1]        --                   [1, 14, 1, 1]        (recursive)
│    │    │    └─Conv2dStaticSamePadding (_se_expand): 4-321           [1, 14, 1, 1]        [1, 1]               [1, 336, 1, 1]         0.02%
│    │    │    │    └─Identity (static_padding): 5-148                 [1, 14, 1, 1]        --                   [1, 14, 1, 1]             --
│    │    │    └─Conv2dStaticSamePadding (_project_conv): 4-322        [1, 336, 32, 32]     [1, 1]               [1, 112, 32, 32]       0.14%
│    │    │    │    └─Identity (static_padding): 5-149                 [1, 336, 32, 32]     --                   [1, 336, 32, 32]          --
│    │    │    └─BatchNorm2d (_bn2): 4-323                             [1, 112, 32, 32]     --                   [1, 112, 32, 32]       0.00%
│    │    └─MBConvBlock (10): 3-35                                     [1, 56, 64, 64]      --                   [1, 112, 32, 32]     (recursive)
│    │    │    └─Conv2dStaticSamePadding (_expand_conv): 4-324         [1, 56, 64, 64]      [1, 1]               [1, 336, 64, 64]     (recursive)
│    │    │    │    └─Identity (static_padding): 5-150                 [1, 56, 64, 64]      --                   [1, 56, 64, 64]      (recursive)
│    │    │    └─BatchNorm2d (_bn0): 4-325                             [1, 336, 64, 64]     --                   [1, 336, 64, 64]     (recursive)
│    │    │    └─MemoryEfficientSwish (_swish): 4-326                  [1, 336, 64, 64]     --                   [1, 336, 64, 64]     (recursive)
│    │    │    └─Conv2dStaticSamePadding (_depthwise_conv): 4-327      [1, 336, 64, 64]     [3, 3]               [1, 336, 32, 32]     (recursive)
│    │    │    │    └─ZeroPad2d (static_padding): 5-151                [1, 336, 64, 64]     --                   [1, 336, 65, 65]     (recursive)
│    │    │    └─BatchNorm2d (_bn1): 4-328                             [1, 336, 32, 32]     --                   [1, 336, 32, 32]     (recursive)
│    │    │    └─MemoryEfficientSwish (_swish): 4-329                  [1, 336, 32, 32]     --                   [1, 336, 32, 32]     (recursive)
│    │    │    └─Conv2dStaticSamePadding (_se_reduce): 4-330           [1, 336, 1, 1]       [1, 1]               [1, 14, 1, 1]        (recursive)
│    │    │    │    └─Identity (static_padding): 5-152                 [1, 336, 1, 1]       --                   [1, 336, 1, 1]       (recursive)
│    │    │    └─MemoryEfficientSwish (_swish): 4-331                  [1, 14, 1, 1]        --                   [1, 14, 1, 1]        (recursive)
│    │    │    └─Conv2dStaticSamePadding (_se_expand): 4-332           [1, 14, 1, 1]        [1, 1]               [1, 336, 1, 1]       (recursive)
│    │    │    │    └─Identity (static_padding): 5-153                 [1, 14, 1, 1]        --                   [1, 14, 1, 1]        (recursive)
│    │    │    └─Conv2dStaticSamePadding (_project_conv): 4-333        [1, 336, 32, 32]     [1, 1]               [1, 112, 32, 32]     (recursive)
│    │    │    │    └─Identity (static_padding): 5-154                 [1, 336, 32, 32]     --                   [1, 336, 32, 32]     (recursive)
│    │    │    └─BatchNorm2d (_bn2): 4-334                             [1, 112, 32, 32]     --                   [1, 112, 32, 32]     (recursive)
│    │    └─MBConvBlock (10): 3-36                                     [1, 56, 64, 64]      --                   [1, 112, 32, 32]     (recursive)
│    │    │    └─Conv2dStaticSamePadding (_expand_conv): 4-335         [1, 56, 64, 64]      [1, 1]               [1, 336, 64, 64]     (recursive)
│    │    │    │    └─Identity (static_padding): 5-155                 [1, 56, 64, 64]      --                   [1, 56, 64, 64]      (recursive)
│    │    │    └─BatchNorm2d (_bn0): 4-336                             [1, 336, 64, 64]     --                   [1, 336, 64, 64]     (recursive)
│    │    │    └─MemoryEfficientSwish (_swish): 4-337                  [1, 336, 64, 64]     --                   [1, 336, 64, 64]     (recursive)
│    │    │    └─Conv2dStaticSamePadding (_depthwise_conv): 4-338      [1, 336, 64, 64]     [3, 3]               [1, 336, 32, 32]     (recursive)
│    │    │    │    └─ZeroPad2d (static_padding): 5-156                [1, 336, 64, 64]     --                   [1, 336, 65, 65]     (recursive)
│    │    │    └─BatchNorm2d (_bn1): 4-339                             [1, 336, 32, 32]     --                   [1, 336, 32, 32]     (recursive)
│    │    │    └─MemoryEfficientSwish (_swish): 4-340                  [1, 336, 32, 32]     --                   [1, 336, 32, 32]     (recursive)
│    │    │    └─Conv2dStaticSamePadding (_se_reduce): 4-341           [1, 336, 1, 1]       [1, 1]               [1, 14, 1, 1]        (recursive)
│    │    │    │    └─Identity (static_padding): 5-157                 [1, 336, 1, 1]       --                   [1, 336, 1, 1]       (recursive)
│    │    │    └─MemoryEfficientSwish (_swish): 4-342                  [1, 14, 1, 1]        --                   [1, 14, 1, 1]        (recursive)
│    │    │    └─Conv2dStaticSamePadding (_se_expand): 4-343           [1, 14, 1, 1]        [1, 1]               [1, 336, 1, 1]       (recursive)
│    │    │    │    └─Identity (static_padding): 5-158                 [1, 14, 1, 1]        --                   [1, 14, 1, 1]        (recursive)
│    │    │    └─Conv2dStaticSamePadding (_project_conv): 4-344        [1, 336, 32, 32]     [1, 1]               [1, 112, 32, 32]     (recursive)
│    │    │    │    └─Identity (static_padding): 5-159                 [1, 336, 32, 32]     --                   [1, 336, 32, 32]     (recursive)
│    │    │    └─BatchNorm2d (_bn2): 4-345                             [1, 112, 32, 32]     --                   [1, 112, 32, 32]     (recursive)
│    │    └─MBConvBlock (11): 3-37                                     [1, 112, 32, 32]     --                   [1, 112, 32, 32]          --
│    │    │    └─Conv2dStaticSamePadding (_expand_conv): 4-346         [1, 112, 32, 32]     [1, 1]               [1, 672, 32, 32]       0.29%
│    │    │    │    └─Identity (static_padding): 5-160                 [1, 112, 32, 32]     --                   [1, 112, 32, 32]          --
│    │    │    └─BatchNorm2d (_bn0): 4-347                             [1, 672, 32, 32]     --                   [1, 672, 32, 32]       0.01%
│    │    │    └─MemoryEfficientSwish (_swish): 4-348                  [1, 672, 32, 32]     --                   [1, 672, 32, 32]          --
│    │    │    └─Conv2dStaticSamePadding (_depthwise_conv): 4-349      [1, 672, 32, 32]     [3, 3]               [1, 672, 32, 32]       0.02%
│    │    │    │    └─ZeroPad2d (static_padding): 5-161                [1, 672, 32, 32]     --                   [1, 672, 34, 34]          --
│    │    │    └─BatchNorm2d (_bn1): 4-350                             [1, 672, 32, 32]     --                   [1, 672, 32, 32]       0.01%
│    │    │    └─MemoryEfficientSwish (_swish): 4-351                  [1, 672, 32, 32]     --                   [1, 672, 32, 32]     (recursive)
│    │    │    └─Conv2dStaticSamePadding (_se_reduce): 4-352           [1, 672, 1, 1]       [1, 1]               [1, 28, 1, 1]          0.07%
│    │    │    │    └─Identity (static_padding): 5-162                 [1, 672, 1, 1]       --                   [1, 672, 1, 1]            --
│    │    │    └─MemoryEfficientSwish (_swish): 4-353                  [1, 28, 1, 1]        --                   [1, 28, 1, 1]        (recursive)
│    │    │    └─Conv2dStaticSamePadding (_se_expand): 4-354           [1, 28, 1, 1]        [1, 1]               [1, 672, 1, 1]         0.07%
│    │    │    │    └─Identity (static_padding): 5-163                 [1, 28, 1, 1]        --                   [1, 28, 1, 1]             --
│    │    │    └─Conv2dStaticSamePadding (_project_conv): 4-355        [1, 672, 32, 32]     [1, 1]               [1, 112, 32, 32]       0.29%
│    │    │    │    └─Identity (static_padding): 5-164                 [1, 672, 32, 32]     --                   [1, 672, 32, 32]          --
│    │    │    └─BatchNorm2d (_bn2): 4-356                             [1, 112, 32, 32]     --                   [1, 112, 32, 32]       0.00%
│    │    └─MBConvBlock (11): 3-38                                     [1, 112, 32, 32]     --                   [1, 112, 32, 32]     (recursive)
│    │    │    └─Conv2dStaticSamePadding (_expand_conv): 4-357         [1, 112, 32, 32]     [1, 1]               [1, 672, 32, 32]     (recursive)
│    │    │    │    └─Identity (static_padding): 5-165                 [1, 112, 32, 32]     --                   [1, 112, 32, 32]     (recursive)
│    │    │    └─BatchNorm2d (_bn0): 4-358                             [1, 672, 32, 32]     --                   [1, 672, 32, 32]     (recursive)
│    │    │    └─MemoryEfficientSwish (_swish): 4-359                  [1, 672, 32, 32]     --                   [1, 672, 32, 32]     (recursive)
│    │    │    └─Conv2dStaticSamePadding (_depthwise_conv): 4-360      [1, 672, 32, 32]     [3, 3]               [1, 672, 32, 32]     (recursive)
│    │    │    │    └─ZeroPad2d (static_padding): 5-166                [1, 672, 32, 32]     --                   [1, 672, 34, 34]     (recursive)
│    │    │    └─BatchNorm2d (_bn1): 4-361                             [1, 672, 32, 32]     --                   [1, 672, 32, 32]     (recursive)
│    │    │    └─MemoryEfficientSwish (_swish): 4-362                  [1, 672, 32, 32]     --                   [1, 672, 32, 32]     (recursive)
│    │    │    └─Conv2dStaticSamePadding (_se_reduce): 4-363           [1, 672, 1, 1]       [1, 1]               [1, 28, 1, 1]        (recursive)
│    │    │    │    └─Identity (static_padding): 5-167                 [1, 672, 1, 1]       --                   [1, 672, 1, 1]       (recursive)
│    │    │    └─MemoryEfficientSwish (_swish): 4-364                  [1, 28, 1, 1]        --                   [1, 28, 1, 1]        (recursive)
│    │    │    └─Conv2dStaticSamePadding (_se_expand): 4-365           [1, 28, 1, 1]        [1, 1]               [1, 672, 1, 1]       (recursive)
│    │    │    │    └─Identity (static_padding): 5-168                 [1, 28, 1, 1]        --                   [1, 28, 1, 1]        (recursive)
│    │    │    └─Conv2dStaticSamePadding (_project_conv): 4-366        [1, 672, 32, 32]     [1, 1]               [1, 112, 32, 32]     (recursive)
│    │    │    │    └─Identity (static_padding): 5-169                 [1, 672, 32, 32]     --                   [1, 672, 32, 32]     (recursive)
│    │    │    └─BatchNorm2d (_bn2): 4-367                             [1, 112, 32, 32]     --                   [1, 112, 32, 32]     (recursive)
│    │    └─MBConvBlock (11): 3-39                                     [1, 112, 32, 32]     --                   [1, 112, 32, 32]     (recursive)
│    │    │    └─Conv2dStaticSamePadding (_expand_conv): 4-368         [1, 112, 32, 32]     [1, 1]               [1, 672, 32, 32]     (recursive)
│    │    │    │    └─Identity (static_padding): 5-170                 [1, 112, 32, 32]     --                   [1, 112, 32, 32]     (recursive)
│    │    │    └─BatchNorm2d (_bn0): 4-369                             [1, 672, 32, 32]     --                   [1, 672, 32, 32]     (recursive)
│    │    │    └─MemoryEfficientSwish (_swish): 4-370                  [1, 672, 32, 32]     --                   [1, 672, 32, 32]     (recursive)
│    │    │    └─Conv2dStaticSamePadding (_depthwise_conv): 4-371      [1, 672, 32, 32]     [3, 3]               [1, 672, 32, 32]     (recursive)
│    │    │    │    └─ZeroPad2d (static_padding): 5-171                [1, 672, 32, 32]     --                   [1, 672, 34, 34]     (recursive)
│    │    │    └─BatchNorm2d (_bn1): 4-372                             [1, 672, 32, 32]     --                   [1, 672, 32, 32]     (recursive)
│    │    │    └─MemoryEfficientSwish (_swish): 4-373                  [1, 672, 32, 32]     --                   [1, 672, 32, 32]     (recursive)
│    │    │    └─Conv2dStaticSamePadding (_se_reduce): 4-374           [1, 672, 1, 1]       [1, 1]               [1, 28, 1, 1]        (recursive)
│    │    │    │    └─Identity (static_padding): 5-172                 [1, 672, 1, 1]       --                   [1, 672, 1, 1]       (recursive)
│    │    │    └─MemoryEfficientSwish (_swish): 4-375                  [1, 28, 1, 1]        --                   [1, 28, 1, 1]        (recursive)
│    │    │    └─Conv2dStaticSamePadding (_se_expand): 4-376           [1, 28, 1, 1]        [1, 1]               [1, 672, 1, 1]       (recursive)
│    │    │    │    └─Identity (static_padding): 5-173                 [1, 28, 1, 1]        --                   [1, 28, 1, 1]        (recursive)
│    │    │    └─Conv2dStaticSamePadding (_project_conv): 4-377        [1, 672, 32, 32]     [1, 1]               [1, 112, 32, 32]     (recursive)
│    │    │    │    └─Identity (static_padding): 5-174                 [1, 672, 32, 32]     --                   [1, 672, 32, 32]     (recursive)
│    │    │    └─BatchNorm2d (_bn2): 4-378                             [1, 112, 32, 32]     --                   [1, 112, 32, 32]     (recursive)
│    │    └─MBConvBlock (12): 3-40                                     [1, 112, 32, 32]     --                   [1, 112, 32, 32]          --
│    │    │    └─Conv2dStaticSamePadding (_expand_conv): 4-379         [1, 112, 32, 32]     [1, 1]               [1, 672, 32, 32]       0.29%
│    │    │    │    └─Identity (static_padding): 5-175                 [1, 112, 32, 32]     --                   [1, 112, 32, 32]          --
│    │    │    └─BatchNorm2d (_bn0): 4-380                             [1, 672, 32, 32]     --                   [1, 672, 32, 32]       0.01%
│    │    │    └─MemoryEfficientSwish (_swish): 4-381                  [1, 672, 32, 32]     --                   [1, 672, 32, 32]          --
│    │    │    └─Conv2dStaticSamePadding (_depthwise_conv): 4-382      [1, 672, 32, 32]     [3, 3]               [1, 672, 32, 32]       0.02%
│    │    │    │    └─ZeroPad2d (static_padding): 5-176                [1, 672, 32, 32]     --                   [1, 672, 34, 34]          --
│    │    │    └─BatchNorm2d (_bn1): 4-383                             [1, 672, 32, 32]     --                   [1, 672, 32, 32]       0.01%
│    │    │    └─MemoryEfficientSwish (_swish): 4-384                  [1, 672, 32, 32]     --                   [1, 672, 32, 32]     (recursive)
│    │    │    └─Conv2dStaticSamePadding (_se_reduce): 4-385           [1, 672, 1, 1]       [1, 1]               [1, 28, 1, 1]          0.07%
│    │    │    │    └─Identity (static_padding): 5-177                 [1, 672, 1, 1]       --                   [1, 672, 1, 1]            --
│    │    │    └─MemoryEfficientSwish (_swish): 4-386                  [1, 28, 1, 1]        --                   [1, 28, 1, 1]        (recursive)
│    │    │    └─Conv2dStaticSamePadding (_se_expand): 4-387           [1, 28, 1, 1]        [1, 1]               [1, 672, 1, 1]         0.07%
│    │    │    │    └─Identity (static_padding): 5-178                 [1, 28, 1, 1]        --                   [1, 28, 1, 1]             --
│    │    │    └─Conv2dStaticSamePadding (_project_conv): 4-388        [1, 672, 32, 32]     [1, 1]               [1, 112, 32, 32]       0.29%
│    │    │    │    └─Identity (static_padding): 5-179                 [1, 672, 32, 32]     --                   [1, 672, 32, 32]          --
│    │    │    └─BatchNorm2d (_bn2): 4-389                             [1, 112, 32, 32]     --                   [1, 112, 32, 32]       0.00%
│    │    └─MBConvBlock (12): 3-41                                     [1, 112, 32, 32]     --                   [1, 112, 32, 32]     (recursive)
│    │    │    └─Conv2dStaticSamePadding (_expand_conv): 4-390         [1, 112, 32, 32]     [1, 1]               [1, 672, 32, 32]     (recursive)
│    │    │    │    └─Identity (static_padding): 5-180                 [1, 112, 32, 32]     --                   [1, 112, 32, 32]     (recursive)
│    │    │    └─BatchNorm2d (_bn0): 4-391                             [1, 672, 32, 32]     --                   [1, 672, 32, 32]     (recursive)
│    │    │    └─MemoryEfficientSwish (_swish): 4-392                  [1, 672, 32, 32]     --                   [1, 672, 32, 32]     (recursive)
│    │    │    └─Conv2dStaticSamePadding (_depthwise_conv): 4-393      [1, 672, 32, 32]     [3, 3]               [1, 672, 32, 32]     (recursive)
│    │    │    │    └─ZeroPad2d (static_padding): 5-181                [1, 672, 32, 32]     --                   [1, 672, 34, 34]     (recursive)
│    │    │    └─BatchNorm2d (_bn1): 4-394                             [1, 672, 32, 32]     --                   [1, 672, 32, 32]     (recursive)
│    │    │    └─MemoryEfficientSwish (_swish): 4-395                  [1, 672, 32, 32]     --                   [1, 672, 32, 32]     (recursive)
│    │    │    └─Conv2dStaticSamePadding (_se_reduce): 4-396           [1, 672, 1, 1]       [1, 1]               [1, 28, 1, 1]        (recursive)
│    │    │    │    └─Identity (static_padding): 5-182                 [1, 672, 1, 1]       --                   [1, 672, 1, 1]       (recursive)
│    │    │    └─MemoryEfficientSwish (_swish): 4-397                  [1, 28, 1, 1]        --                   [1, 28, 1, 1]        (recursive)
│    │    │    └─Conv2dStaticSamePadding (_se_expand): 4-398           [1, 28, 1, 1]        [1, 1]               [1, 672, 1, 1]       (recursive)
│    │    │    │    └─Identity (static_padding): 5-183                 [1, 28, 1, 1]        --                   [1, 28, 1, 1]        (recursive)
│    │    │    └─Conv2dStaticSamePadding (_project_conv): 4-399        [1, 672, 32, 32]     [1, 1]               [1, 112, 32, 32]     (recursive)
│    │    │    │    └─Identity (static_padding): 5-184                 [1, 672, 32, 32]     --                   [1, 672, 32, 32]     (recursive)
│    │    │    └─BatchNorm2d (_bn2): 4-400                             [1, 112, 32, 32]     --                   [1, 112, 32, 32]     (recursive)
│    │    └─MBConvBlock (12): 3-42                                     [1, 112, 32, 32]     --                   [1, 112, 32, 32]     (recursive)
│    │    │    └─Conv2dStaticSamePadding (_expand_conv): 4-401         [1, 112, 32, 32]     [1, 1]               [1, 672, 32, 32]     (recursive)
│    │    │    │    └─Identity (static_padding): 5-185                 [1, 112, 32, 32]     --                   [1, 112, 32, 32]     (recursive)
│    │    │    └─BatchNorm2d (_bn0): 4-402                             [1, 672, 32, 32]     --                   [1, 672, 32, 32]     (recursive)
│    │    │    └─MemoryEfficientSwish (_swish): 4-403                  [1, 672, 32, 32]     --                   [1, 672, 32, 32]     (recursive)
│    │    │    └─Conv2dStaticSamePadding (_depthwise_conv): 4-404      [1, 672, 32, 32]     [3, 3]               [1, 672, 32, 32]     (recursive)
│    │    │    │    └─ZeroPad2d (static_padding): 5-186                [1, 672, 32, 32]     --                   [1, 672, 34, 34]     (recursive)
│    │    │    └─BatchNorm2d (_bn1): 4-405                             [1, 672, 32, 32]     --                   [1, 672, 32, 32]     (recursive)
│    │    │    └─MemoryEfficientSwish (_swish): 4-406                  [1, 672, 32, 32]     --                   [1, 672, 32, 32]     (recursive)
│    │    │    └─Conv2dStaticSamePadding (_se_reduce): 4-407           [1, 672, 1, 1]       [1, 1]               [1, 28, 1, 1]        (recursive)
│    │    │    │    └─Identity (static_padding): 5-187                 [1, 672, 1, 1]       --                   [1, 672, 1, 1]       (recursive)
│    │    │    └─MemoryEfficientSwish (_swish): 4-408                  [1, 28, 1, 1]        --                   [1, 28, 1, 1]        (recursive)
│    │    │    └─Conv2dStaticSamePadding (_se_expand): 4-409           [1, 28, 1, 1]        [1, 1]               [1, 672, 1, 1]       (recursive)
│    │    │    │    └─Identity (static_padding): 5-188                 [1, 28, 1, 1]        --                   [1, 28, 1, 1]        (recursive)
│    │    │    └─Conv2dStaticSamePadding (_project_conv): 4-410        [1, 672, 32, 32]     [1, 1]               [1, 112, 32, 32]     (recursive)
│    │    │    │    └─Identity (static_padding): 5-189                 [1, 672, 32, 32]     --                   [1, 672, 32, 32]     (recursive)
│    │    │    └─BatchNorm2d (_bn2): 4-411                             [1, 112, 32, 32]     --                   [1, 112, 32, 32]     (recursive)
│    │    └─MBConvBlock (13): 3-43                                     [1, 112, 32, 32]     --                   [1, 112, 32, 32]          --
│    │    │    └─Conv2dStaticSamePadding (_expand_conv): 4-412         [1, 112, 32, 32]     [1, 1]               [1, 672, 32, 32]       0.29%
│    │    │    │    └─Identity (static_padding): 5-190                 [1, 112, 32, 32]     --                   [1, 112, 32, 32]          --
│    │    │    └─BatchNorm2d (_bn0): 4-413                             [1, 672, 32, 32]     --                   [1, 672, 32, 32]       0.01%
│    │    │    └─MemoryEfficientSwish (_swish): 4-414                  [1, 672, 32, 32]     --                   [1, 672, 32, 32]          --
│    │    │    └─Conv2dStaticSamePadding (_depthwise_conv): 4-415      [1, 672, 32, 32]     [3, 3]               [1, 672, 32, 32]       0.02%
│    │    │    │    └─ZeroPad2d (static_padding): 5-191                [1, 672, 32, 32]     --                   [1, 672, 34, 34]          --
│    │    │    └─BatchNorm2d (_bn1): 4-416                             [1, 672, 32, 32]     --                   [1, 672, 32, 32]       0.01%
│    │    │    └─MemoryEfficientSwish (_swish): 4-417                  [1, 672, 32, 32]     --                   [1, 672, 32, 32]     (recursive)
│    │    │    └─Conv2dStaticSamePadding (_se_reduce): 4-418           [1, 672, 1, 1]       [1, 1]               [1, 28, 1, 1]          0.07%
│    │    │    │    └─Identity (static_padding): 5-192                 [1, 672, 1, 1]       --                   [1, 672, 1, 1]            --
│    │    │    └─MemoryEfficientSwish (_swish): 4-419                  [1, 28, 1, 1]        --                   [1, 28, 1, 1]        (recursive)
│    │    │    └─Conv2dStaticSamePadding (_se_expand): 4-420           [1, 28, 1, 1]        [1, 1]               [1, 672, 1, 1]         0.07%
│    │    │    │    └─Identity (static_padding): 5-193                 [1, 28, 1, 1]        --                   [1, 28, 1, 1]             --
│    │    │    └─Conv2dStaticSamePadding (_project_conv): 4-421        [1, 672, 32, 32]     [1, 1]               [1, 112, 32, 32]       0.29%
│    │    │    │    └─Identity (static_padding): 5-194                 [1, 672, 32, 32]     --                   [1, 672, 32, 32]          --
│    │    │    └─BatchNorm2d (_bn2): 4-422                             [1, 112, 32, 32]     --                   [1, 112, 32, 32]       0.00%
│    │    └─MBConvBlock (13): 3-44                                     [1, 112, 32, 32]     --                   [1, 112, 32, 32]     (recursive)
│    │    │    └─Conv2dStaticSamePadding (_expand_conv): 4-423         [1, 112, 32, 32]     [1, 1]               [1, 672, 32, 32]     (recursive)
│    │    │    │    └─Identity (static_padding): 5-195                 [1, 112, 32, 32]     --                   [1, 112, 32, 32]     (recursive)
│    │    │    └─BatchNorm2d (_bn0): 4-424                             [1, 672, 32, 32]     --                   [1, 672, 32, 32]     (recursive)
│    │    │    └─MemoryEfficientSwish (_swish): 4-425                  [1, 672, 32, 32]     --                   [1, 672, 32, 32]     (recursive)
│    │    │    └─Conv2dStaticSamePadding (_depthwise_conv): 4-426      [1, 672, 32, 32]     [3, 3]               [1, 672, 32, 32]     (recursive)
│    │    │    │    └─ZeroPad2d (static_padding): 5-196                [1, 672, 32, 32]     --                   [1, 672, 34, 34]     (recursive)
│    │    │    └─BatchNorm2d (_bn1): 4-427                             [1, 672, 32, 32]     --                   [1, 672, 32, 32]     (recursive)
│    │    │    └─MemoryEfficientSwish (_swish): 4-428                  [1, 672, 32, 32]     --                   [1, 672, 32, 32]     (recursive)
│    │    │    └─Conv2dStaticSamePadding (_se_reduce): 4-429           [1, 672, 1, 1]       [1, 1]               [1, 28, 1, 1]        (recursive)
│    │    │    │    └─Identity (static_padding): 5-197                 [1, 672, 1, 1]       --                   [1, 672, 1, 1]       (recursive)
│    │    │    └─MemoryEfficientSwish (_swish): 4-430                  [1, 28, 1, 1]        --                   [1, 28, 1, 1]        (recursive)
│    │    │    └─Conv2dStaticSamePadding (_se_expand): 4-431           [1, 28, 1, 1]        [1, 1]               [1, 672, 1, 1]       (recursive)
│    │    │    │    └─Identity (static_padding): 5-198                 [1, 28, 1, 1]        --                   [1, 28, 1, 1]        (recursive)
│    │    │    └─Conv2dStaticSamePadding (_project_conv): 4-432        [1, 672, 32, 32]     [1, 1]               [1, 112, 32, 32]     (recursive)
│    │    │    │    └─Identity (static_padding): 5-199                 [1, 672, 32, 32]     --                   [1, 672, 32, 32]     (recursive)
│    │    │    └─BatchNorm2d (_bn2): 4-433                             [1, 112, 32, 32]     --                   [1, 112, 32, 32]     (recursive)
│    │    └─MBConvBlock (13): 3-45                                     [1, 112, 32, 32]     --                   [1, 112, 32, 32]     (recursive)
│    │    │    └─Conv2dStaticSamePadding (_expand_conv): 4-434         [1, 112, 32, 32]     [1, 1]               [1, 672, 32, 32]     (recursive)
│    │    │    │    └─Identity (static_padding): 5-200                 [1, 112, 32, 32]     --                   [1, 112, 32, 32]     (recursive)
│    │    │    └─BatchNorm2d (_bn0): 4-435                             [1, 672, 32, 32]     --                   [1, 672, 32, 32]     (recursive)
│    │    │    └─MemoryEfficientSwish (_swish): 4-436                  [1, 672, 32, 32]     --                   [1, 672, 32, 32]     (recursive)
│    │    │    └─Conv2dStaticSamePadding (_depthwise_conv): 4-437      [1, 672, 32, 32]     [3, 3]               [1, 672, 32, 32]     (recursive)
│    │    │    │    └─ZeroPad2d (static_padding): 5-201                [1, 672, 32, 32]     --                   [1, 672, 34, 34]     (recursive)
│    │    │    └─BatchNorm2d (_bn1): 4-438                             [1, 672, 32, 32]     --                   [1, 672, 32, 32]     (recursive)
│    │    │    └─MemoryEfficientSwish (_swish): 4-439                  [1, 672, 32, 32]     --                   [1, 672, 32, 32]     (recursive)
│    │    │    └─Conv2dStaticSamePadding (_se_reduce): 4-440           [1, 672, 1, 1]       [1, 1]               [1, 28, 1, 1]        (recursive)
│    │    │    │    └─Identity (static_padding): 5-202                 [1, 672, 1, 1]       --                   [1, 672, 1, 1]       (recursive)
│    │    │    └─MemoryEfficientSwish (_swish): 4-441                  [1, 28, 1, 1]        --                   [1, 28, 1, 1]        (recursive)
│    │    │    └─Conv2dStaticSamePadding (_se_expand): 4-442           [1, 28, 1, 1]        [1, 1]               [1, 672, 1, 1]       (recursive)
│    │    │    │    └─Identity (static_padding): 5-203                 [1, 28, 1, 1]        --                   [1, 28, 1, 1]        (recursive)
│    │    │    └─Conv2dStaticSamePadding (_project_conv): 4-443        [1, 672, 32, 32]     [1, 1]               [1, 112, 32, 32]     (recursive)
│    │    │    │    └─Identity (static_padding): 5-204                 [1, 672, 32, 32]     --                   [1, 672, 32, 32]     (recursive)
│    │    │    └─BatchNorm2d (_bn2): 4-444                             [1, 112, 32, 32]     --                   [1, 112, 32, 32]     (recursive)
│    │    └─MBConvBlock (14): 3-46                                     [1, 112, 32, 32]     --                   [1, 112, 32, 32]          --
│    │    │    └─Conv2dStaticSamePadding (_expand_conv): 4-445         [1, 112, 32, 32]     [1, 1]               [1, 672, 32, 32]       0.29%
│    │    │    │    └─Identity (static_padding): 5-205                 [1, 112, 32, 32]     --                   [1, 112, 32, 32]          --
│    │    │    └─BatchNorm2d (_bn0): 4-446                             [1, 672, 32, 32]     --                   [1, 672, 32, 32]       0.01%
│    │    │    └─MemoryEfficientSwish (_swish): 4-447                  [1, 672, 32, 32]     --                   [1, 672, 32, 32]          --
│    │    │    └─Conv2dStaticSamePadding (_depthwise_conv): 4-448      [1, 672, 32, 32]     [3, 3]               [1, 672, 32, 32]       0.02%
│    │    │    │    └─ZeroPad2d (static_padding): 5-206                [1, 672, 32, 32]     --                   [1, 672, 34, 34]          --
│    │    │    └─BatchNorm2d (_bn1): 4-449                             [1, 672, 32, 32]     --                   [1, 672, 32, 32]       0.01%
│    │    │    └─MemoryEfficientSwish (_swish): 4-450                  [1, 672, 32, 32]     --                   [1, 672, 32, 32]     (recursive)
│    │    │    └─Conv2dStaticSamePadding (_se_reduce): 4-451           [1, 672, 1, 1]       [1, 1]               [1, 28, 1, 1]          0.07%
│    │    │    │    └─Identity (static_padding): 5-207                 [1, 672, 1, 1]       --                   [1, 672, 1, 1]            --
│    │    │    └─MemoryEfficientSwish (_swish): 4-452                  [1, 28, 1, 1]        --                   [1, 28, 1, 1]        (recursive)
│    │    │    └─Conv2dStaticSamePadding (_se_expand): 4-453           [1, 28, 1, 1]        [1, 1]               [1, 672, 1, 1]         0.07%
│    │    │    │    └─Identity (static_padding): 5-208                 [1, 28, 1, 1]        --                   [1, 28, 1, 1]             --
│    │    │    └─Conv2dStaticSamePadding (_project_conv): 4-454        [1, 672, 32, 32]     [1, 1]               [1, 112, 32, 32]       0.29%
│    │    │    │    └─Identity (static_padding): 5-209                 [1, 672, 32, 32]     --                   [1, 672, 32, 32]          --
│    │    │    └─BatchNorm2d (_bn2): 4-455                             [1, 112, 32, 32]     --                   [1, 112, 32, 32]       0.00%
│    │    └─MBConvBlock (14): 3-47                                     [1, 112, 32, 32]     --                   [1, 112, 32, 32]     (recursive)
│    │    │    └─Conv2dStaticSamePadding (_expand_conv): 4-456         [1, 112, 32, 32]     [1, 1]               [1, 672, 32, 32]     (recursive)
│    │    │    │    └─Identity (static_padding): 5-210                 [1, 112, 32, 32]     --                   [1, 112, 32, 32]     (recursive)
│    │    │    └─BatchNorm2d (_bn0): 4-457                             [1, 672, 32, 32]     --                   [1, 672, 32, 32]     (recursive)
│    │    │    └─MemoryEfficientSwish (_swish): 4-458                  [1, 672, 32, 32]     --                   [1, 672, 32, 32]     (recursive)
│    │    │    └─Conv2dStaticSamePadding (_depthwise_conv): 4-459      [1, 672, 32, 32]     [3, 3]               [1, 672, 32, 32]     (recursive)
│    │    │    │    └─ZeroPad2d (static_padding): 5-211                [1, 672, 32, 32]     --                   [1, 672, 34, 34]     (recursive)
│    │    │    └─BatchNorm2d (_bn1): 4-460                             [1, 672, 32, 32]     --                   [1, 672, 32, 32]     (recursive)
│    │    │    └─MemoryEfficientSwish (_swish): 4-461                  [1, 672, 32, 32]     --                   [1, 672, 32, 32]     (recursive)
│    │    │    └─Conv2dStaticSamePadding (_se_reduce): 4-462           [1, 672, 1, 1]       [1, 1]               [1, 28, 1, 1]        (recursive)
│    │    │    │    └─Identity (static_padding): 5-212                 [1, 672, 1, 1]       --                   [1, 672, 1, 1]       (recursive)
│    │    │    └─MemoryEfficientSwish (_swish): 4-463                  [1, 28, 1, 1]        --                   [1, 28, 1, 1]        (recursive)
│    │    │    └─Conv2dStaticSamePadding (_se_expand): 4-464           [1, 28, 1, 1]        [1, 1]               [1, 672, 1, 1]       (recursive)
│    │    │    │    └─Identity (static_padding): 5-213                 [1, 28, 1, 1]        --                   [1, 28, 1, 1]        (recursive)
│    │    │    └─Conv2dStaticSamePadding (_project_conv): 4-465        [1, 672, 32, 32]     [1, 1]               [1, 112, 32, 32]     (recursive)
│    │    │    │    └─Identity (static_padding): 5-214                 [1, 672, 32, 32]     --                   [1, 672, 32, 32]     (recursive)
│    │    │    └─BatchNorm2d (_bn2): 4-466                             [1, 112, 32, 32]     --                   [1, 112, 32, 32]     (recursive)
│    │    └─MBConvBlock (14): 3-48                                     [1, 112, 32, 32]     --                   [1, 112, 32, 32]     (recursive)
│    │    │    └─Conv2dStaticSamePadding (_expand_conv): 4-467         [1, 112, 32, 32]     [1, 1]               [1, 672, 32, 32]     (recursive)
│    │    │    │    └─Identity (static_padding): 5-215                 [1, 112, 32, 32]     --                   [1, 112, 32, 32]     (recursive)
│    │    │    └─BatchNorm2d (_bn0): 4-468                             [1, 672, 32, 32]     --                   [1, 672, 32, 32]     (recursive)
│    │    │    └─MemoryEfficientSwish (_swish): 4-469                  [1, 672, 32, 32]     --                   [1, 672, 32, 32]     (recursive)
│    │    │    └─Conv2dStaticSamePadding (_depthwise_conv): 4-470      [1, 672, 32, 32]     [3, 3]               [1, 672, 32, 32]     (recursive)
│    │    │    │    └─ZeroPad2d (static_padding): 5-216                [1, 672, 32, 32]     --                   [1, 672, 34, 34]     (recursive)
│    │    │    └─BatchNorm2d (_bn1): 4-471                             [1, 672, 32, 32]     --                   [1, 672, 32, 32]     (recursive)
│    │    │    └─MemoryEfficientSwish (_swish): 4-472                  [1, 672, 32, 32]     --                   [1, 672, 32, 32]     (recursive)
│    │    │    └─Conv2dStaticSamePadding (_se_reduce): 4-473           [1, 672, 1, 1]       [1, 1]               [1, 28, 1, 1]        (recursive)
│    │    │    │    └─Identity (static_padding): 5-217                 [1, 672, 1, 1]       --                   [1, 672, 1, 1]       (recursive)
│    │    │    └─MemoryEfficientSwish (_swish): 4-474                  [1, 28, 1, 1]        --                   [1, 28, 1, 1]        (recursive)
│    │    │    └─Conv2dStaticSamePadding (_se_expand): 4-475           [1, 28, 1, 1]        [1, 1]               [1, 672, 1, 1]       (recursive)
│    │    │    │    └─Identity (static_padding): 5-218                 [1, 28, 1, 1]        --                   [1, 28, 1, 1]        (recursive)
│    │    │    └─Conv2dStaticSamePadding (_project_conv): 4-476        [1, 672, 32, 32]     [1, 1]               [1, 112, 32, 32]     (recursive)
│    │    │    │    └─Identity (static_padding): 5-219                 [1, 672, 32, 32]     --                   [1, 672, 32, 32]     (recursive)
│    │    │    └─BatchNorm2d (_bn2): 4-477                             [1, 112, 32, 32]     --                   [1, 112, 32, 32]     (recursive)
│    │    └─MBConvBlock (15): 3-49                                     [1, 112, 32, 32]     --                   [1, 112, 32, 32]          --
│    │    │    └─Conv2dStaticSamePadding (_expand_conv): 4-478         [1, 112, 32, 32]     [1, 1]               [1, 672, 32, 32]       0.29%
│    │    │    │    └─Identity (static_padding): 5-220                 [1, 112, 32, 32]     --                   [1, 112, 32, 32]          --
│    │    │    └─BatchNorm2d (_bn0): 4-479                             [1, 672, 32, 32]     --                   [1, 672, 32, 32]       0.01%
│    │    │    └─MemoryEfficientSwish (_swish): 4-480                  [1, 672, 32, 32]     --                   [1, 672, 32, 32]          --
│    │    │    └─Conv2dStaticSamePadding (_depthwise_conv): 4-481      [1, 672, 32, 32]     [3, 3]               [1, 672, 32, 32]       0.02%
│    │    │    │    └─ZeroPad2d (static_padding): 5-221                [1, 672, 32, 32]     --                   [1, 672, 34, 34]          --
│    │    │    └─BatchNorm2d (_bn1): 4-482                             [1, 672, 32, 32]     --                   [1, 672, 32, 32]       0.01%
│    │    │    └─MemoryEfficientSwish (_swish): 4-483                  [1, 672, 32, 32]     --                   [1, 672, 32, 32]     (recursive)
│    │    │    └─Conv2dStaticSamePadding (_se_reduce): 4-484           [1, 672, 1, 1]       [1, 1]               [1, 28, 1, 1]          0.07%
│    │    │    │    └─Identity (static_padding): 5-222                 [1, 672, 1, 1]       --                   [1, 672, 1, 1]            --
│    │    │    └─MemoryEfficientSwish (_swish): 4-485                  [1, 28, 1, 1]        --                   [1, 28, 1, 1]        (recursive)
│    │    │    └─Conv2dStaticSamePadding (_se_expand): 4-486           [1, 28, 1, 1]        [1, 1]               [1, 672, 1, 1]         0.07%
│    │    │    │    └─Identity (static_padding): 5-223                 [1, 28, 1, 1]        --                   [1, 28, 1, 1]             --
│    │    │    └─Conv2dStaticSamePadding (_project_conv): 4-487        [1, 672, 32, 32]     [1, 1]               [1, 112, 32, 32]       0.29%
│    │    │    │    └─Identity (static_padding): 5-224                 [1, 672, 32, 32]     --                   [1, 672, 32, 32]          --
│    │    │    └─BatchNorm2d (_bn2): 4-488                             [1, 112, 32, 32]     --                   [1, 112, 32, 32]       0.00%
│    │    └─MBConvBlock (15): 3-50                                     [1, 112, 32, 32]     --                   [1, 112, 32, 32]     (recursive)
│    │    │    └─Conv2dStaticSamePadding (_expand_conv): 4-489         [1, 112, 32, 32]     [1, 1]               [1, 672, 32, 32]     (recursive)
│    │    │    │    └─Identity (static_padding): 5-225                 [1, 112, 32, 32]     --                   [1, 112, 32, 32]     (recursive)
│    │    │    └─BatchNorm2d (_bn0): 4-490                             [1, 672, 32, 32]     --                   [1, 672, 32, 32]     (recursive)
│    │    │    └─MemoryEfficientSwish (_swish): 4-491                  [1, 672, 32, 32]     --                   [1, 672, 32, 32]     (recursive)
│    │    │    └─Conv2dStaticSamePadding (_depthwise_conv): 4-492      [1, 672, 32, 32]     [3, 3]               [1, 672, 32, 32]     (recursive)
│    │    │    │    └─ZeroPad2d (static_padding): 5-226                [1, 672, 32, 32]     --                   [1, 672, 34, 34]     (recursive)
│    │    │    └─BatchNorm2d (_bn1): 4-493                             [1, 672, 32, 32]     --                   [1, 672, 32, 32]     (recursive)
│    │    │    └─MemoryEfficientSwish (_swish): 4-494                  [1, 672, 32, 32]     --                   [1, 672, 32, 32]     (recursive)
│    │    │    └─Conv2dStaticSamePadding (_se_reduce): 4-495           [1, 672, 1, 1]       [1, 1]               [1, 28, 1, 1]        (recursive)
│    │    │    │    └─Identity (static_padding): 5-227                 [1, 672, 1, 1]       --                   [1, 672, 1, 1]       (recursive)
│    │    │    └─MemoryEfficientSwish (_swish): 4-496                  [1, 28, 1, 1]        --                   [1, 28, 1, 1]        (recursive)
│    │    │    └─Conv2dStaticSamePadding (_se_expand): 4-497           [1, 28, 1, 1]        [1, 1]               [1, 672, 1, 1]       (recursive)
│    │    │    │    └─Identity (static_padding): 5-228                 [1, 28, 1, 1]        --                   [1, 28, 1, 1]        (recursive)
│    │    │    └─Conv2dStaticSamePadding (_project_conv): 4-498        [1, 672, 32, 32]     [1, 1]               [1, 112, 32, 32]     (recursive)
│    │    │    │    └─Identity (static_padding): 5-229                 [1, 672, 32, 32]     --                   [1, 672, 32, 32]     (recursive)
│    │    │    └─BatchNorm2d (_bn2): 4-499                             [1, 112, 32, 32]     --                   [1, 112, 32, 32]     (recursive)
│    │    └─MBConvBlock (15): 3-51                                     [1, 112, 32, 32]     --                   [1, 112, 32, 32]     (recursive)
│    │    │    └─Conv2dStaticSamePadding (_expand_conv): 4-500         [1, 112, 32, 32]     [1, 1]               [1, 672, 32, 32]     (recursive)
│    │    │    │    └─Identity (static_padding): 5-230                 [1, 112, 32, 32]     --                   [1, 112, 32, 32]     (recursive)
│    │    │    └─BatchNorm2d (_bn0): 4-501                             [1, 672, 32, 32]     --                   [1, 672, 32, 32]     (recursive)
│    │    │    └─MemoryEfficientSwish (_swish): 4-502                  [1, 672, 32, 32]     --                   [1, 672, 32, 32]     (recursive)
│    │    │    └─Conv2dStaticSamePadding (_depthwise_conv): 4-503      [1, 672, 32, 32]     [3, 3]               [1, 672, 32, 32]     (recursive)
│    │    │    │    └─ZeroPad2d (static_padding): 5-231                [1, 672, 32, 32]     --                   [1, 672, 34, 34]     (recursive)
│    │    │    └─BatchNorm2d (_bn1): 4-504                             [1, 672, 32, 32]     --                   [1, 672, 32, 32]     (recursive)
│    │    │    └─MemoryEfficientSwish (_swish): 4-505                  [1, 672, 32, 32]     --                   [1, 672, 32, 32]     (recursive)
│    │    │    └─Conv2dStaticSamePadding (_se_reduce): 4-506           [1, 672, 1, 1]       [1, 1]               [1, 28, 1, 1]        (recursive)
│    │    │    │    └─Identity (static_padding): 5-232                 [1, 672, 1, 1]       --                   [1, 672, 1, 1]       (recursive)
│    │    │    └─MemoryEfficientSwish (_swish): 4-507                  [1, 28, 1, 1]        --                   [1, 28, 1, 1]        (recursive)
│    │    │    └─Conv2dStaticSamePadding (_se_expand): 4-508           [1, 28, 1, 1]        [1, 1]               [1, 672, 1, 1]       (recursive)
│    │    │    │    └─Identity (static_padding): 5-233                 [1, 28, 1, 1]        --                   [1, 28, 1, 1]        (recursive)
│    │    │    └─Conv2dStaticSamePadding (_project_conv): 4-509        [1, 672, 32, 32]     [1, 1]               [1, 112, 32, 32]     (recursive)
│    │    │    │    └─Identity (static_padding): 5-234                 [1, 672, 32, 32]     --                   [1, 672, 32, 32]     (recursive)
│    │    │    └─BatchNorm2d (_bn2): 4-510                             [1, 112, 32, 32]     --                   [1, 112, 32, 32]     (recursive)
│    │    └─MBConvBlock (16): 3-52                                     [1, 112, 32, 32]     --                   [1, 160, 32, 32]          --
│    │    │    └─Conv2dStaticSamePadding (_expand_conv): 4-511         [1, 112, 32, 32]     [1, 1]               [1, 672, 32, 32]       0.29%
│    │    │    │    └─Identity (static_padding): 5-235                 [1, 112, 32, 32]     --                   [1, 112, 32, 32]          --
│    │    │    └─BatchNorm2d (_bn0): 4-512                             [1, 672, 32, 32]     --                   [1, 672, 32, 32]       0.01%
│    │    │    └─MemoryEfficientSwish (_swish): 4-513                  [1, 672, 32, 32]     --                   [1, 672, 32, 32]          --
│    │    │    └─Conv2dStaticSamePadding (_depthwise_conv): 4-514      [1, 672, 32, 32]     [5, 5]               [1, 672, 32, 32]       0.06%
│    │    │    │    └─ZeroPad2d (static_padding): 5-236                [1, 672, 32, 32]     --                   [1, 672, 36, 36]          --
│    │    │    └─BatchNorm2d (_bn1): 4-515                             [1, 672, 32, 32]     --                   [1, 672, 32, 32]       0.01%
│    │    │    └─MemoryEfficientSwish (_swish): 4-516                  [1, 672, 32, 32]     --                   [1, 672, 32, 32]     (recursive)
│    │    │    └─Conv2dStaticSamePadding (_se_reduce): 4-517           [1, 672, 1, 1]       [1, 1]               [1, 28, 1, 1]          0.07%
│    │    │    │    └─Identity (static_padding): 5-237                 [1, 672, 1, 1]       --                   [1, 672, 1, 1]            --
│    │    │    └─MemoryEfficientSwish (_swish): 4-518                  [1, 28, 1, 1]        --                   [1, 28, 1, 1]        (recursive)
│    │    │    └─Conv2dStaticSamePadding (_se_expand): 4-519           [1, 28, 1, 1]        [1, 1]               [1, 672, 1, 1]         0.07%
│    │    │    │    └─Identity (static_padding): 5-238                 [1, 28, 1, 1]        --                   [1, 28, 1, 1]             --
│    │    │    └─Conv2dStaticSamePadding (_project_conv): 4-520        [1, 672, 32, 32]     [1, 1]               [1, 160, 32, 32]       0.41%
│    │    │    │    └─Identity (static_padding): 5-239                 [1, 672, 32, 32]     --                   [1, 672, 32, 32]          --
│    │    │    └─BatchNorm2d (_bn2): 4-521                             [1, 160, 32, 32]     --                   [1, 160, 32, 32]       0.00%
│    │    └─MBConvBlock (16): 3-53                                     [1, 112, 32, 32]     --                   [1, 160, 32, 32]     (recursive)
│    │    │    └─Conv2dStaticSamePadding (_expand_conv): 4-522         [1, 112, 32, 32]     [1, 1]               [1, 672, 32, 32]     (recursive)
│    │    │    │    └─Identity (static_padding): 5-240                 [1, 112, 32, 32]     --                   [1, 112, 32, 32]     (recursive)
│    │    │    └─BatchNorm2d (_bn0): 4-523                             [1, 672, 32, 32]     --                   [1, 672, 32, 32]     (recursive)
│    │    │    └─MemoryEfficientSwish (_swish): 4-524                  [1, 672, 32, 32]     --                   [1, 672, 32, 32]     (recursive)
│    │    │    └─Conv2dStaticSamePadding (_depthwise_conv): 4-525      [1, 672, 32, 32]     [5, 5]               [1, 672, 32, 32]     (recursive)
│    │    │    │    └─ZeroPad2d (static_padding): 5-241                [1, 672, 32, 32]     --                   [1, 672, 36, 36]     (recursive)
│    │    │    └─BatchNorm2d (_bn1): 4-526                             [1, 672, 32, 32]     --                   [1, 672, 32, 32]     (recursive)
│    │    │    └─MemoryEfficientSwish (_swish): 4-527                  [1, 672, 32, 32]     --                   [1, 672, 32, 32]     (recursive)
│    │    │    └─Conv2dStaticSamePadding (_se_reduce): 4-528           [1, 672, 1, 1]       [1, 1]               [1, 28, 1, 1]        (recursive)
│    │    │    │    └─Identity (static_padding): 5-242                 [1, 672, 1, 1]       --                   [1, 672, 1, 1]       (recursive)
│    │    │    └─MemoryEfficientSwish (_swish): 4-529                  [1, 28, 1, 1]        --                   [1, 28, 1, 1]        (recursive)
│    │    │    └─Conv2dStaticSamePadding (_se_expand): 4-530           [1, 28, 1, 1]        [1, 1]               [1, 672, 1, 1]       (recursive)
│    │    │    │    └─Identity (static_padding): 5-243                 [1, 28, 1, 1]        --                   [1, 28, 1, 1]        (recursive)
│    │    │    └─Conv2dStaticSamePadding (_project_conv): 4-531        [1, 672, 32, 32]     [1, 1]               [1, 160, 32, 32]     (recursive)
│    │    │    │    └─Identity (static_padding): 5-244                 [1, 672, 32, 32]     --                   [1, 672, 32, 32]     (recursive)
│    │    │    └─BatchNorm2d (_bn2): 4-532                             [1, 160, 32, 32]     --                   [1, 160, 32, 32]     (recursive)
│    │    └─MBConvBlock (16): 3-54                                     [1, 112, 32, 32]     --                   [1, 160, 32, 32]     (recursive)
│    │    │    └─Conv2dStaticSamePadding (_expand_conv): 4-533         [1, 112, 32, 32]     [1, 1]               [1, 672, 32, 32]     (recursive)
│    │    │    │    └─Identity (static_padding): 5-245                 [1, 112, 32, 32]     --                   [1, 112, 32, 32]     (recursive)
│    │    │    └─BatchNorm2d (_bn0): 4-534                             [1, 672, 32, 32]     --                   [1, 672, 32, 32]     (recursive)
│    │    │    └─MemoryEfficientSwish (_swish): 4-535                  [1, 672, 32, 32]     --                   [1, 672, 32, 32]     (recursive)
│    │    │    └─Conv2dStaticSamePadding (_depthwise_conv): 4-536      [1, 672, 32, 32]     [5, 5]               [1, 672, 32, 32]     (recursive)
│    │    │    │    └─ZeroPad2d (static_padding): 5-246                [1, 672, 32, 32]     --                   [1, 672, 36, 36]     (recursive)
│    │    │    └─BatchNorm2d (_bn1): 4-537                             [1, 672, 32, 32]     --                   [1, 672, 32, 32]     (recursive)
│    │    │    └─MemoryEfficientSwish (_swish): 4-538                  [1, 672, 32, 32]     --                   [1, 672, 32, 32]     (recursive)
│    │    │    └─Conv2dStaticSamePadding (_se_reduce): 4-539           [1, 672, 1, 1]       [1, 1]               [1, 28, 1, 1]        (recursive)
│    │    │    │    └─Identity (static_padding): 5-247                 [1, 672, 1, 1]       --                   [1, 672, 1, 1]       (recursive)
│    │    │    └─MemoryEfficientSwish (_swish): 4-540                  [1, 28, 1, 1]        --                   [1, 28, 1, 1]        (recursive)
│    │    │    └─Conv2dStaticSamePadding (_se_expand): 4-541           [1, 28, 1, 1]        [1, 1]               [1, 672, 1, 1]       (recursive)
│    │    │    │    └─Identity (static_padding): 5-248                 [1, 28, 1, 1]        --                   [1, 28, 1, 1]        (recursive)
│    │    │    └─Conv2dStaticSamePadding (_project_conv): 4-542        [1, 672, 32, 32]     [1, 1]               [1, 160, 32, 32]     (recursive)
│    │    │    │    └─Identity (static_padding): 5-249                 [1, 672, 32, 32]     --                   [1, 672, 32, 32]     (recursive)
│    │    │    └─BatchNorm2d (_bn2): 4-543                             [1, 160, 32, 32]     --                   [1, 160, 32, 32]     (recursive)
│    │    └─MBConvBlock (17): 3-55                                     [1, 160, 32, 32]     --                   [1, 160, 32, 32]          --
│    │    │    └─Conv2dStaticSamePadding (_expand_conv): 4-544         [1, 160, 32, 32]     [1, 1]               [1, 960, 32, 32]       0.58%
│    │    │    │    └─Identity (static_padding): 5-250                 [1, 160, 32, 32]     --                   [1, 160, 32, 32]          --
│    │    │    └─BatchNorm2d (_bn0): 4-545                             [1, 960, 32, 32]     --                   [1, 960, 32, 32]       0.01%
│    │    │    └─MemoryEfficientSwish (_swish): 4-546                  [1, 960, 32, 32]     --                   [1, 960, 32, 32]          --
│    │    │    └─Conv2dStaticSamePadding (_depthwise_conv): 4-547      [1, 960, 32, 32]     [5, 5]               [1, 960, 32, 32]       0.09%
│    │    │    │    └─ZeroPad2d (static_padding): 5-251                [1, 960, 32, 32]     --                   [1, 960, 36, 36]          --
│    │    │    └─BatchNorm2d (_bn1): 4-548                             [1, 960, 32, 32]     --                   [1, 960, 32, 32]       0.01%
│    │    │    └─MemoryEfficientSwish (_swish): 4-549                  [1, 960, 32, 32]     --                   [1, 960, 32, 32]     (recursive)
│    │    │    └─Conv2dStaticSamePadding (_se_reduce): 4-550           [1, 960, 1, 1]       [1, 1]               [1, 40, 1, 1]          0.15%
│    │    │    │    └─Identity (static_padding): 5-252                 [1, 960, 1, 1]       --                   [1, 960, 1, 1]            --
│    │    │    └─MemoryEfficientSwish (_swish): 4-551                  [1, 40, 1, 1]        --                   [1, 40, 1, 1]        (recursive)
│    │    │    └─Conv2dStaticSamePadding (_se_expand): 4-552           [1, 40, 1, 1]        [1, 1]               [1, 960, 1, 1]         0.15%
│    │    │    │    └─Identity (static_padding): 5-253                 [1, 40, 1, 1]        --                   [1, 40, 1, 1]             --
│    │    │    └─Conv2dStaticSamePadding (_project_conv): 4-553        [1, 960, 32, 32]     [1, 1]               [1, 160, 32, 32]       0.58%
│    │    │    │    └─Identity (static_padding): 5-254                 [1, 960, 32, 32]     --                   [1, 960, 32, 32]          --
│    │    │    └─BatchNorm2d (_bn2): 4-554                             [1, 160, 32, 32]     --                   [1, 160, 32, 32]       0.00%
│    │    └─MBConvBlock (17): 3-56                                     [1, 160, 32, 32]     --                   [1, 160, 32, 32]     (recursive)
│    │    │    └─Conv2dStaticSamePadding (_expand_conv): 4-555         [1, 160, 32, 32]     [1, 1]               [1, 960, 32, 32]     (recursive)
│    │    │    │    └─Identity (static_padding): 5-255                 [1, 160, 32, 32]     --                   [1, 160, 32, 32]     (recursive)
│    │    │    └─BatchNorm2d (_bn0): 4-556                             [1, 960, 32, 32]     --                   [1, 960, 32, 32]     (recursive)
│    │    │    └─MemoryEfficientSwish (_swish): 4-557                  [1, 960, 32, 32]     --                   [1, 960, 32, 32]     (recursive)
│    │    │    └─Conv2dStaticSamePadding (_depthwise_conv): 4-558      [1, 960, 32, 32]     [5, 5]               [1, 960, 32, 32]     (recursive)
│    │    │    │    └─ZeroPad2d (static_padding): 5-256                [1, 960, 32, 32]     --                   [1, 960, 36, 36]     (recursive)
│    │    │    └─BatchNorm2d (_bn1): 4-559                             [1, 960, 32, 32]     --                   [1, 960, 32, 32]     (recursive)
│    │    │    └─MemoryEfficientSwish (_swish): 4-560                  [1, 960, 32, 32]     --                   [1, 960, 32, 32]     (recursive)
│    │    │    └─Conv2dStaticSamePadding (_se_reduce): 4-561           [1, 960, 1, 1]       [1, 1]               [1, 40, 1, 1]        (recursive)
│    │    │    │    └─Identity (static_padding): 5-257                 [1, 960, 1, 1]       --                   [1, 960, 1, 1]       (recursive)
│    │    │    └─MemoryEfficientSwish (_swish): 4-562                  [1, 40, 1, 1]        --                   [1, 40, 1, 1]        (recursive)
│    │    │    └─Conv2dStaticSamePadding (_se_expand): 4-563           [1, 40, 1, 1]        [1, 1]               [1, 960, 1, 1]       (recursive)
│    │    │    │    └─Identity (static_padding): 5-258                 [1, 40, 1, 1]        --                   [1, 40, 1, 1]        (recursive)
│    │    │    └─Conv2dStaticSamePadding (_project_conv): 4-564        [1, 960, 32, 32]     [1, 1]               [1, 160, 32, 32]     (recursive)
│    │    │    │    └─Identity (static_padding): 5-259                 [1, 960, 32, 32]     --                   [1, 960, 32, 32]     (recursive)
│    │    │    └─BatchNorm2d (_bn2): 4-565                             [1, 160, 32, 32]     --                   [1, 160, 32, 32]     (recursive)
│    │    └─MBConvBlock (17): 3-57                                     [1, 160, 32, 32]     --                   [1, 160, 32, 32]     (recursive)
│    │    │    └─Conv2dStaticSamePadding (_expand_conv): 4-566         [1, 160, 32, 32]     [1, 1]               [1, 960, 32, 32]     (recursive)
│    │    │    │    └─Identity (static_padding): 5-260                 [1, 160, 32, 32]     --                   [1, 160, 32, 32]     (recursive)
│    │    │    └─BatchNorm2d (_bn0): 4-567                             [1, 960, 32, 32]     --                   [1, 960, 32, 32]     (recursive)
│    │    │    └─MemoryEfficientSwish (_swish): 4-568                  [1, 960, 32, 32]     --                   [1, 960, 32, 32]     (recursive)
│    │    │    └─Conv2dStaticSamePadding (_depthwise_conv): 4-569      [1, 960, 32, 32]     [5, 5]               [1, 960, 32, 32]     (recursive)
│    │    │    │    └─ZeroPad2d (static_padding): 5-261                [1, 960, 32, 32]     --                   [1, 960, 36, 36]     (recursive)
│    │    │    └─BatchNorm2d (_bn1): 4-570                             [1, 960, 32, 32]     --                   [1, 960, 32, 32]     (recursive)
│    │    │    └─MemoryEfficientSwish (_swish): 4-571                  [1, 960, 32, 32]     --                   [1, 960, 32, 32]     (recursive)
│    │    │    └─Conv2dStaticSamePadding (_se_reduce): 4-572           [1, 960, 1, 1]       [1, 1]               [1, 40, 1, 1]        (recursive)
│    │    │    │    └─Identity (static_padding): 5-262                 [1, 960, 1, 1]       --                   [1, 960, 1, 1]       (recursive)
│    │    │    └─MemoryEfficientSwish (_swish): 4-573                  [1, 40, 1, 1]        --                   [1, 40, 1, 1]        (recursive)
│    │    │    └─Conv2dStaticSamePadding (_se_expand): 4-574           [1, 40, 1, 1]        [1, 1]               [1, 960, 1, 1]       (recursive)
│    │    │    │    └─Identity (static_padding): 5-263                 [1, 40, 1, 1]        --                   [1, 40, 1, 1]        (recursive)
│    │    │    └─Conv2dStaticSamePadding (_project_conv): 4-575        [1, 960, 32, 32]     [1, 1]               [1, 160, 32, 32]     (recursive)
│    │    │    │    └─Identity (static_padding): 5-264                 [1, 960, 32, 32]     --                   [1, 960, 32, 32]     (recursive)
│    │    │    └─BatchNorm2d (_bn2): 4-576                             [1, 160, 32, 32]     --                   [1, 160, 32, 32]     (recursive)
│    │    └─MBConvBlock (18): 3-58                                     [1, 160, 32, 32]     --                   [1, 160, 32, 32]          --
│    │    │    └─Conv2dStaticSamePadding (_expand_conv): 4-577         [1, 160, 32, 32]     [1, 1]               [1, 960, 32, 32]       0.58%
│    │    │    │    └─Identity (static_padding): 5-265                 [1, 160, 32, 32]     --                   [1, 160, 32, 32]          --
│    │    │    └─BatchNorm2d (_bn0): 4-578                             [1, 960, 32, 32]     --                   [1, 960, 32, 32]       0.01%
│    │    │    └─MemoryEfficientSwish (_swish): 4-579                  [1, 960, 32, 32]     --                   [1, 960, 32, 32]          --
│    │    │    └─Conv2dStaticSamePadding (_depthwise_conv): 4-580      [1, 960, 32, 32]     [5, 5]               [1, 960, 32, 32]       0.09%
│    │    │    │    └─ZeroPad2d (static_padding): 5-266                [1, 960, 32, 32]     --                   [1, 960, 36, 36]          --
│    │    │    └─BatchNorm2d (_bn1): 4-581                             [1, 960, 32, 32]     --                   [1, 960, 32, 32]       0.01%
│    │    │    └─MemoryEfficientSwish (_swish): 4-582                  [1, 960, 32, 32]     --                   [1, 960, 32, 32]     (recursive)
│    │    │    └─Conv2dStaticSamePadding (_se_reduce): 4-583           [1, 960, 1, 1]       [1, 1]               [1, 40, 1, 1]          0.15%
│    │    │    │    └─Identity (static_padding): 5-267                 [1, 960, 1, 1]       --                   [1, 960, 1, 1]            --
│    │    │    └─MemoryEfficientSwish (_swish): 4-584                  [1, 40, 1, 1]        --                   [1, 40, 1, 1]        (recursive)
│    │    │    └─Conv2dStaticSamePadding (_se_expand): 4-585           [1, 40, 1, 1]        [1, 1]               [1, 960, 1, 1]         0.15%
│    │    │    │    └─Identity (static_padding): 5-268                 [1, 40, 1, 1]        --                   [1, 40, 1, 1]             --
│    │    │    └─Conv2dStaticSamePadding (_project_conv): 4-586        [1, 960, 32, 32]     [1, 1]               [1, 160, 32, 32]       0.58%
│    │    │    │    └─Identity (static_padding): 5-269                 [1, 960, 32, 32]     --                   [1, 960, 32, 32]          --
│    │    │    └─BatchNorm2d (_bn2): 4-587                             [1, 160, 32, 32]     --                   [1, 160, 32, 32]       0.00%
│    │    └─MBConvBlock (18): 3-59                                     [1, 160, 32, 32]     --                   [1, 160, 32, 32]     (recursive)
│    │    │    └─Conv2dStaticSamePadding (_expand_conv): 4-588         [1, 160, 32, 32]     [1, 1]               [1, 960, 32, 32]     (recursive)
│    │    │    │    └─Identity (static_padding): 5-270                 [1, 160, 32, 32]     --                   [1, 160, 32, 32]     (recursive)
│    │    │    └─BatchNorm2d (_bn0): 4-589                             [1, 960, 32, 32]     --                   [1, 960, 32, 32]     (recursive)
│    │    │    └─MemoryEfficientSwish (_swish): 4-590                  [1, 960, 32, 32]     --                   [1, 960, 32, 32]     (recursive)
│    │    │    └─Conv2dStaticSamePadding (_depthwise_conv): 4-591      [1, 960, 32, 32]     [5, 5]               [1, 960, 32, 32]     (recursive)
│    │    │    │    └─ZeroPad2d (static_padding): 5-271                [1, 960, 32, 32]     --                   [1, 960, 36, 36]     (recursive)
│    │    │    └─BatchNorm2d (_bn1): 4-592                             [1, 960, 32, 32]     --                   [1, 960, 32, 32]     (recursive)
│    │    │    └─MemoryEfficientSwish (_swish): 4-593                  [1, 960, 32, 32]     --                   [1, 960, 32, 32]     (recursive)
│    │    │    └─Conv2dStaticSamePadding (_se_reduce): 4-594           [1, 960, 1, 1]       [1, 1]               [1, 40, 1, 1]        (recursive)
│    │    │    │    └─Identity (static_padding): 5-272                 [1, 960, 1, 1]       --                   [1, 960, 1, 1]       (recursive)
│    │    │    └─MemoryEfficientSwish (_swish): 4-595                  [1, 40, 1, 1]        --                   [1, 40, 1, 1]        (recursive)
│    │    │    └─Conv2dStaticSamePadding (_se_expand): 4-596           [1, 40, 1, 1]        [1, 1]               [1, 960, 1, 1]       (recursive)
│    │    │    │    └─Identity (static_padding): 5-273                 [1, 40, 1, 1]        --                   [1, 40, 1, 1]        (recursive)
│    │    │    └─Conv2dStaticSamePadding (_project_conv): 4-597        [1, 960, 32, 32]     [1, 1]               [1, 160, 32, 32]     (recursive)
│    │    │    │    └─Identity (static_padding): 5-274                 [1, 960, 32, 32]     --                   [1, 960, 32, 32]     (recursive)
│    │    │    └─BatchNorm2d (_bn2): 4-598                             [1, 160, 32, 32]     --                   [1, 160, 32, 32]     (recursive)
│    │    └─MBConvBlock (18): 3-60                                     [1, 160, 32, 32]     --                   [1, 160, 32, 32]     (recursive)
│    │    │    └─Conv2dStaticSamePadding (_expand_conv): 4-599         [1, 160, 32, 32]     [1, 1]               [1, 960, 32, 32]     (recursive)
│    │    │    │    └─Identity (static_padding): 5-275                 [1, 160, 32, 32]     --                   [1, 160, 32, 32]     (recursive)
│    │    │    └─BatchNorm2d (_bn0): 4-600                             [1, 960, 32, 32]     --                   [1, 960, 32, 32]     (recursive)
│    │    │    └─MemoryEfficientSwish (_swish): 4-601                  [1, 960, 32, 32]     --                   [1, 960, 32, 32]     (recursive)
│    │    │    └─Conv2dStaticSamePadding (_depthwise_conv): 4-602      [1, 960, 32, 32]     [5, 5]               [1, 960, 32, 32]     (recursive)
│    │    │    │    └─ZeroPad2d (static_padding): 5-276                [1, 960, 32, 32]     --                   [1, 960, 36, 36]     (recursive)
│    │    │    └─BatchNorm2d (_bn1): 4-603                             [1, 960, 32, 32]     --                   [1, 960, 32, 32]     (recursive)
│    │    │    └─MemoryEfficientSwish (_swish): 4-604                  [1, 960, 32, 32]     --                   [1, 960, 32, 32]     (recursive)
│    │    │    └─Conv2dStaticSamePadding (_se_reduce): 4-605           [1, 960, 1, 1]       [1, 1]               [1, 40, 1, 1]        (recursive)
│    │    │    │    └─Identity (static_padding): 5-277                 [1, 960, 1, 1]       --                   [1, 960, 1, 1]       (recursive)
│    │    │    └─MemoryEfficientSwish (_swish): 4-606                  [1, 40, 1, 1]        --                   [1, 40, 1, 1]        (recursive)
│    │    │    └─Conv2dStaticSamePadding (_se_expand): 4-607           [1, 40, 1, 1]        [1, 1]               [1, 960, 1, 1]       (recursive)
│    │    │    │    └─Identity (static_padding): 5-278                 [1, 40, 1, 1]        --                   [1, 40, 1, 1]        (recursive)
│    │    │    └─Conv2dStaticSamePadding (_project_conv): 4-608        [1, 960, 32, 32]     [1, 1]               [1, 160, 32, 32]     (recursive)
│    │    │    │    └─Identity (static_padding): 5-279                 [1, 960, 32, 32]     --                   [1, 960, 32, 32]     (recursive)
│    │    │    └─BatchNorm2d (_bn2): 4-609                             [1, 160, 32, 32]     --                   [1, 160, 32, 32]     (recursive)
│    │    └─MBConvBlock (19): 3-61                                     [1, 160, 32, 32]     --                   [1, 160, 32, 32]          --
│    │    │    └─Conv2dStaticSamePadding (_expand_conv): 4-610         [1, 160, 32, 32]     [1, 1]               [1, 960, 32, 32]       0.58%
│    │    │    │    └─Identity (static_padding): 5-280                 [1, 160, 32, 32]     --                   [1, 160, 32, 32]          --
│    │    │    └─BatchNorm2d (_bn0): 4-611                             [1, 960, 32, 32]     --                   [1, 960, 32, 32]       0.01%
│    │    │    └─MemoryEfficientSwish (_swish): 4-612                  [1, 960, 32, 32]     --                   [1, 960, 32, 32]          --
│    │    │    └─Conv2dStaticSamePadding (_depthwise_conv): 4-613      [1, 960, 32, 32]     [5, 5]               [1, 960, 32, 32]       0.09%
│    │    │    │    └─ZeroPad2d (static_padding): 5-281                [1, 960, 32, 32]     --                   [1, 960, 36, 36]          --
│    │    │    └─BatchNorm2d (_bn1): 4-614                             [1, 960, 32, 32]     --                   [1, 960, 32, 32]       0.01%
│    │    │    └─MemoryEfficientSwish (_swish): 4-615                  [1, 960, 32, 32]     --                   [1, 960, 32, 32]     (recursive)
│    │    │    └─Conv2dStaticSamePadding (_se_reduce): 4-616           [1, 960, 1, 1]       [1, 1]               [1, 40, 1, 1]          0.15%
│    │    │    │    └─Identity (static_padding): 5-282                 [1, 960, 1, 1]       --                   [1, 960, 1, 1]            --
│    │    │    └─MemoryEfficientSwish (_swish): 4-617                  [1, 40, 1, 1]        --                   [1, 40, 1, 1]        (recursive)
│    │    │    └─Conv2dStaticSamePadding (_se_expand): 4-618           [1, 40, 1, 1]        [1, 1]               [1, 960, 1, 1]         0.15%
│    │    │    │    └─Identity (static_padding): 5-283                 [1, 40, 1, 1]        --                   [1, 40, 1, 1]             --
│    │    │    └─Conv2dStaticSamePadding (_project_conv): 4-619        [1, 960, 32, 32]     [1, 1]               [1, 160, 32, 32]       0.58%
│    │    │    │    └─Identity (static_padding): 5-284                 [1, 960, 32, 32]     --                   [1, 960, 32, 32]          --
│    │    │    └─BatchNorm2d (_bn2): 4-620                             [1, 160, 32, 32]     --                   [1, 160, 32, 32]       0.00%
│    │    └─MBConvBlock (19): 3-62                                     [1, 160, 32, 32]     --                   [1, 160, 32, 32]     (recursive)
│    │    │    └─Conv2dStaticSamePadding (_expand_conv): 4-621         [1, 160, 32, 32]     [1, 1]               [1, 960, 32, 32]     (recursive)
│    │    │    │    └─Identity (static_padding): 5-285                 [1, 160, 32, 32]     --                   [1, 160, 32, 32]     (recursive)
│    │    │    └─BatchNorm2d (_bn0): 4-622                             [1, 960, 32, 32]     --                   [1, 960, 32, 32]     (recursive)
│    │    │    └─MemoryEfficientSwish (_swish): 4-623                  [1, 960, 32, 32]     --                   [1, 960, 32, 32]     (recursive)
│    │    │    └─Conv2dStaticSamePadding (_depthwise_conv): 4-624      [1, 960, 32, 32]     [5, 5]               [1, 960, 32, 32]     (recursive)
│    │    │    │    └─ZeroPad2d (static_padding): 5-286                [1, 960, 32, 32]     --                   [1, 960, 36, 36]     (recursive)
│    │    │    └─BatchNorm2d (_bn1): 4-625                             [1, 960, 32, 32]     --                   [1, 960, 32, 32]     (recursive)
│    │    │    └─MemoryEfficientSwish (_swish): 4-626                  [1, 960, 32, 32]     --                   [1, 960, 32, 32]     (recursive)
│    │    │    └─Conv2dStaticSamePadding (_se_reduce): 4-627           [1, 960, 1, 1]       [1, 1]               [1, 40, 1, 1]        (recursive)
│    │    │    │    └─Identity (static_padding): 5-287                 [1, 960, 1, 1]       --                   [1, 960, 1, 1]       (recursive)
│    │    │    └─MemoryEfficientSwish (_swish): 4-628                  [1, 40, 1, 1]        --                   [1, 40, 1, 1]        (recursive)
│    │    │    └─Conv2dStaticSamePadding (_se_expand): 4-629           [1, 40, 1, 1]        [1, 1]               [1, 960, 1, 1]       (recursive)
│    │    │    │    └─Identity (static_padding): 5-288                 [1, 40, 1, 1]        --                   [1, 40, 1, 1]        (recursive)
│    │    │    └─Conv2dStaticSamePadding (_project_conv): 4-630        [1, 960, 32, 32]     [1, 1]               [1, 160, 32, 32]     (recursive)
│    │    │    │    └─Identity (static_padding): 5-289                 [1, 960, 32, 32]     --                   [1, 960, 32, 32]     (recursive)
│    │    │    └─BatchNorm2d (_bn2): 4-631                             [1, 160, 32, 32]     --                   [1, 160, 32, 32]     (recursive)
│    │    └─MBConvBlock (19): 3-63                                     [1, 160, 32, 32]     --                   [1, 160, 32, 32]     (recursive)
│    │    │    └─Conv2dStaticSamePadding (_expand_conv): 4-632         [1, 160, 32, 32]     [1, 1]               [1, 960, 32, 32]     (recursive)
│    │    │    │    └─Identity (static_padding): 5-290                 [1, 160, 32, 32]     --                   [1, 160, 32, 32]     (recursive)
│    │    │    └─BatchNorm2d (_bn0): 4-633                             [1, 960, 32, 32]     --                   [1, 960, 32, 32]     (recursive)
│    │    │    └─MemoryEfficientSwish (_swish): 4-634                  [1, 960, 32, 32]     --                   [1, 960, 32, 32]     (recursive)
│    │    │    └─Conv2dStaticSamePadding (_depthwise_conv): 4-635      [1, 960, 32, 32]     [5, 5]               [1, 960, 32, 32]     (recursive)
│    │    │    │    └─ZeroPad2d (static_padding): 5-291                [1, 960, 32, 32]     --                   [1, 960, 36, 36]     (recursive)
│    │    │    └─BatchNorm2d (_bn1): 4-636                             [1, 960, 32, 32]     --                   [1, 960, 32, 32]     (recursive)
│    │    │    └─MemoryEfficientSwish (_swish): 4-637                  [1, 960, 32, 32]     --                   [1, 960, 32, 32]     (recursive)
│    │    │    └─Conv2dStaticSamePadding (_se_reduce): 4-638           [1, 960, 1, 1]       [1, 1]               [1, 40, 1, 1]        (recursive)
│    │    │    │    └─Identity (static_padding): 5-292                 [1, 960, 1, 1]       --                   [1, 960, 1, 1]       (recursive)
│    │    │    └─MemoryEfficientSwish (_swish): 4-639                  [1, 40, 1, 1]        --                   [1, 40, 1, 1]        (recursive)
│    │    │    └─Conv2dStaticSamePadding (_se_expand): 4-640           [1, 40, 1, 1]        [1, 1]               [1, 960, 1, 1]       (recursive)
│    │    │    │    └─Identity (static_padding): 5-293                 [1, 40, 1, 1]        --                   [1, 40, 1, 1]        (recursive)
│    │    │    └─Conv2dStaticSamePadding (_project_conv): 4-641        [1, 960, 32, 32]     [1, 1]               [1, 160, 32, 32]     (recursive)
│    │    │    │    └─Identity (static_padding): 5-294                 [1, 960, 32, 32]     --                   [1, 960, 32, 32]     (recursive)
│    │    │    └─BatchNorm2d (_bn2): 4-642                             [1, 160, 32, 32]     --                   [1, 160, 32, 32]     (recursive)
│    │    └─MBConvBlock (20): 3-64                                     [1, 160, 32, 32]     --                   [1, 160, 32, 32]          --
│    │    │    └─Conv2dStaticSamePadding (_expand_conv): 4-643         [1, 160, 32, 32]     [1, 1]               [1, 960, 32, 32]       0.58%
│    │    │    │    └─Identity (static_padding): 5-295                 [1, 160, 32, 32]     --                   [1, 160, 32, 32]          --
│    │    │    └─BatchNorm2d (_bn0): 4-644                             [1, 960, 32, 32]     --                   [1, 960, 32, 32]       0.01%
│    │    │    └─MemoryEfficientSwish (_swish): 4-645                  [1, 960, 32, 32]     --                   [1, 960, 32, 32]          --
│    │    │    └─Conv2dStaticSamePadding (_depthwise_conv): 4-646      [1, 960, 32, 32]     [5, 5]               [1, 960, 32, 32]       0.09%
│    │    │    │    └─ZeroPad2d (static_padding): 5-296                [1, 960, 32, 32]     --                   [1, 960, 36, 36]          --
│    │    │    └─BatchNorm2d (_bn1): 4-647                             [1, 960, 32, 32]     --                   [1, 960, 32, 32]       0.01%
│    │    │    └─MemoryEfficientSwish (_swish): 4-648                  [1, 960, 32, 32]     --                   [1, 960, 32, 32]     (recursive)
│    │    │    └─Conv2dStaticSamePadding (_se_reduce): 4-649           [1, 960, 1, 1]       [1, 1]               [1, 40, 1, 1]          0.15%
│    │    │    │    └─Identity (static_padding): 5-297                 [1, 960, 1, 1]       --                   [1, 960, 1, 1]            --
│    │    │    └─MemoryEfficientSwish (_swish): 4-650                  [1, 40, 1, 1]        --                   [1, 40, 1, 1]        (recursive)
│    │    │    └─Conv2dStaticSamePadding (_se_expand): 4-651           [1, 40, 1, 1]        [1, 1]               [1, 960, 1, 1]         0.15%
│    │    │    │    └─Identity (static_padding): 5-298                 [1, 40, 1, 1]        --                   [1, 40, 1, 1]             --
│    │    │    └─Conv2dStaticSamePadding (_project_conv): 4-652        [1, 960, 32, 32]     [1, 1]               [1, 160, 32, 32]       0.58%
│    │    │    │    └─Identity (static_padding): 5-299                 [1, 960, 32, 32]     --                   [1, 960, 32, 32]          --
│    │    │    └─BatchNorm2d (_bn2): 4-653                             [1, 160, 32, 32]     --                   [1, 160, 32, 32]       0.00%
│    │    └─MBConvBlock (20): 3-65                                     [1, 160, 32, 32]     --                   [1, 160, 32, 32]     (recursive)
│    │    │    └─Conv2dStaticSamePadding (_expand_conv): 4-654         [1, 160, 32, 32]     [1, 1]               [1, 960, 32, 32]     (recursive)
│    │    │    │    └─Identity (static_padding): 5-300                 [1, 160, 32, 32]     --                   [1, 160, 32, 32]     (recursive)
│    │    │    └─BatchNorm2d (_bn0): 4-655                             [1, 960, 32, 32]     --                   [1, 960, 32, 32]     (recursive)
…
│    │    │    └─MemoryEfficientSwish (_swish): 4-893                  [1, 68, 1, 1]        --                   [1, 68, 1, 1]        (recursive)
│    │    │    └─Conv2dStaticSamePadding (_se_expand): 4-894           [1, 68, 1, 1]        [1, 1]               [1, 1632, 1, 1]        0.43%
│    │    │    │    └─Identity (static_padding): 5-403                 [1, 68, 1, 1]        --                   [1, 68, 1, 1]             --
│    │    │    └─Conv2dStaticSamePadding (_project_conv): 4-895        [1, 1632, 16, 16]    [1, 1]               [1, 272, 16, 16]       1.68%
│    │    │    │    └─Identity (static_padding): 5-404                 [1, 1632, 16, 16]    --                   [1, 1632, 16, 16]         --
│    │    │    └─BatchNorm2d (_bn2): 4-896                             [1, 272, 16, 16]     --                   [1, 272, 16, 16]       0.00%
│    │    └─MBConvBlock (27): 3-99                                     [1, 272, 16, 16]     --                   [1, 272, 16, 16]     (recursive)
│    │    │    └─Conv2dStaticSamePadding (_expand_conv): 4-897         [1, 272, 16, 16]     [1, 1]               [1, 1632, 16, 16]    (recursive)
│    │    │    │    └─Identity (static_padding): 5-405                 [1, 272, 16, 16]     --                   [1, 272, 16, 16]     (recursive)
│    │    │    └─BatchNorm2d (_bn0): 4-898                             [1, 1632, 16, 16]    --                   [1, 1632, 16, 16]    (recursive)
│    │    │    └─MemoryEfficientSwish (_swish): 4-899                  [1, 1632, 16, 16]    --                   [1, 1632, 16, 16]    (recursive)
│    │    │    └─Conv2dStaticSamePadding (_depthwise_conv): 4-900      [1, 1632, 16, 16]    [5, 5]               [1, 1632, 16, 16]    (recursive)
│    │    │    │    └─ZeroPad2d (static_padding): 5-406                [1, 1632, 16, 16]    --                   [1, 1632, 20, 20]    (recursive)
│    │    │    └─BatchNorm2d (_bn1): 4-901                             [1, 1632, 16, 16]    --                   [1, 1632, 16, 16]    (recursive)
│    │    │    └─MemoryEfficientSwish (_swish): 4-902                  [1, 1632, 16, 16]    --                   [1, 1632, 16, 16]    (recursive)
│    │    │    └─Conv2dStaticSamePadding (_se_reduce): 4-903           [1, 1632, 1, 1]      [1, 1]               [1, 68, 1, 1]        (recursive)
│    │    │    │    └─Identity (static_padding): 5-407                 [1, 1632, 1, 1]      --                   [1, 1632, 1, 1]      (recursive)
│    │    │    └─MemoryEfficientSwish (_swish): 4-904                  [1, 68, 1, 1]        --                   [1, 68, 1, 1]        (recursive)
│    │    │    └─Conv2dStaticSamePadding (_se_expand): 4-905           [1, 68, 1, 1]        [1, 1]               [1, 1632, 1, 1]      (recursive)
│    │    │    │    └─Identity (static_padding): 5-408                 [1, 68, 1, 1]        --                   [1, 68, 1, 1]        (recursive)
│    │    │    └─Conv2dStaticSamePadding (_project_conv): 4-906        [1, 1632, 16, 16]    [1, 1]               [1, 272, 16, 16]     (recursive)
│    │    │    │    └─Identity (static_padding): 5-409                 [1, 1632, 16, 16]    --                   [1, 1632, 16, 16]    (recursive)
│    │    │    └─BatchNorm2d (_bn2): 4-907                             [1, 272, 16, 16]     --                   [1, 272, 16, 16]     (recursive)
│    │    └─MBConvBlock (27): 3-100                                    [1, 272, 16, 16]     --                   [1, 272, 16, 16]     (recursive)
│    │    │    └─Conv2dStaticSamePadding (_expand_conv): 4-908         [1, 272, 16, 16]     [1, 1]               [1, 1632, 16, 16]    (recursive)
│    │    │    │    └─Identity (static_padding): 5-410                 [1, 272, 16, 16]     --                   [1, 272, 16, 16]     (recursive)
│    │    │    └─BatchNorm2d (_bn0): 4-909                             [1, 1632, 16, 16]    --                   [1, 1632, 16, 16]    (recursive)
│    │    │    └─MemoryEfficientSwish (_swish): 4-910                  [1, 1632, 16, 16]    --                   [1, 1632, 16, 16]    (recursive)
│    │    │    └─Conv2dStaticSamePadding (_depthwise_conv): 4-911      [1, 1632, 16, 16]    [5, 5]               [1, 1632, 16, 16]    (recursive)
│    │    │    │    └─ZeroPad2d (static_padding): 5-411                [1, 1632, 16, 16]    --                   [1, 1632, 20, 20]    (recursive)
│    │    │    └─BatchNorm2d (_bn1): 4-912                             [1, 1632, 16, 16]    --                   [1, 1632, 16, 16]    (recursive)
│    │    │    └─MemoryEfficientSwish (_swish): 4-913                  [1, 1632, 16, 16]    --                   [1, 1632, 16, 16]    (recursive)
│    │    │    └─Conv2dStaticSamePadding (_se_reduce): 4-914           [1, 1632, 1, 1]      [1, 1]               [1, 68, 1, 1]        (recursive)
│    │    │    │    └─Identity (static_padding): 5-412                 [1, 1632, 1, 1]      --                   [1, 1632, 1, 1]      (recursive)
│    │    │    └─MemoryEfficientSwish (_swish): 4-915                  [1, 68, 1, 1]        --                   [1, 68, 1, 1]        (recursive)
│    │    │    └─Conv2dStaticSamePadding (_se_expand): 4-916           [1, 68, 1, 1]        [1, 1]               [1, 1632, 1, 1]      (recursive)
│    │    │    │    └─Identity (static_padding): 5-413                 [1, 68, 1, 1]        --                   [1, 68, 1, 1]        (recursive)
│    │    │    └─Conv2dStaticSamePadding (_project_conv): 4-917        [1, 1632, 16, 16]    [1, 1]               [1, 272, 16, 16]     (recursive)
│    │    │    │    └─Identity (static_padding): 5-414                 [1, 1632, 16, 16]    --                   [1, 1632, 16, 16]    (recursive)
│    │    │    └─BatchNorm2d (_bn2): 4-918                             [1, 272, 16, 16]     --                   [1, 272, 16, 16]     (recursive)
│    │    └─MBConvBlock (28): 3-101                                    [1, 272, 16, 16]     --                   [1, 272, 16, 16]          --
│    │    │    └─Conv2dStaticSamePadding (_expand_conv): 4-919         [1, 272, 16, 16]     [1, 1]               [1, 1632, 16, 16]      1.68%
│    │    │    │    └─Identity (static_padding): 5-415                 [1, 272, 16, 16]     --                   [1, 272, 16, 16]          --
│    │    │    └─BatchNorm2d (_bn0): 4-920                             [1, 1632, 16, 16]    --                   [1, 1632, 16, 16]      0.01%
│    │    │    └─MemoryEfficientSwish (_swish): 4-921                  [1, 1632, 16, 16]    --                   [1, 1632, 16, 16]         --
│    │    │    └─Conv2dStaticSamePadding (_depthwise_conv): 4-922      [1, 1632, 16, 16]    [5, 5]               [1, 1632, 16, 16]      0.15%
│    │    │    │    └─ZeroPad2d (static_padding): 5-416                [1, 1632, 16, 16]    --                   [1, 1632, 20, 20]         --
│    │    │    └─BatchNorm2d (_bn1): 4-923                             [1, 1632, 16, 16]    --                   [1, 1632, 16, 16]      0.01%
│    │    │    └─MemoryEfficientSwish (_swish): 4-924                  [1, 1632, 16, 16]    --                   [1, 1632, 16, 16]    (recursive)
│    │    │    └─Conv2dStaticSamePadding (_se_reduce): 4-925           [1, 1632, 1, 1]      [1, 1]               [1, 68, 1, 1]          0.42%
│    │    │    │    └─Identity (static_padding): 5-417                 [1, 1632, 1, 1]      --                   [1, 1632, 1, 1]           --
│    │    │    └─MemoryEfficientSwish (_swish): 4-926                  [1, 68, 1, 1]        --                   [1, 68, 1, 1]        (recursive)
│    │    │    └─Conv2dStaticSamePadding (_se_expand): 4-927           [1, 68, 1, 1]        [1, 1]               [1, 1632, 1, 1]        0.43%
│    │    │    │    └─Identity (static_padding): 5-418                 [1, 68, 1, 1]        --                   [1, 68, 1, 1]             --
│    │    │    └─Conv2dStaticSamePadding (_project_conv): 4-928        [1, 1632, 16, 16]    [1, 1]               [1, 272, 16, 16]       1.68%
│    │    │    │    └─Identity (static_padding): 5-419                 [1, 1632, 16, 16]    --                   [1, 1632, 16, 16]         --
│    │    │    └─BatchNorm2d (_bn2): 4-929                             [1, 272, 16, 16]     --                   [1, 272, 16, 16]       0.00%
│    │    └─MBConvBlock (28): 3-102                                    [1, 272, 16, 16]     --                   [1, 272, 16, 16]     (recursive)
│    │    │    └─Conv2dStaticSamePadding (_expand_conv): 4-930         [1, 272, 16, 16]     [1, 1]               [1, 1632, 16, 16]    (recursive)
│    │    │    │    └─Identity (static_padding): 5-420                 [1, 272, 16, 16]     --                   [1, 272, 16, 16]     (recursive)
│    │    │    └─BatchNorm2d (_bn0): 4-931                             [1, 1632, 16, 16]    --                   [1, 1632, 16, 16]    (recursive)
│    │    │    └─MemoryEfficientSwish (_swish): 4-932                  [1, 1632, 16, 16]    --                   [1, 1632, 16, 16]    (recursive)
│    │    │    └─Conv2dStaticSamePadding (_depthwise_conv): 4-933      [1, 1632, 16, 16]    [5, 5]               [1, 1632, 16, 16]    (recursive)
│    │    │    │    └─ZeroPad2d (static_padding): 5-421                [1, 1632, 16, 16]    --                   [1, 1632, 20, 20]    (recursive)
│    │    │    └─BatchNorm2d (_bn1): 4-934                             [1, 1632, 16, 16]    --                   [1, 1632, 16, 16]    (recursive)
│    │    │    └─MemoryEfficientSwish (_swish): 4-935                  [1, 1632, 16, 16]    --                   [1, 1632, 16, 16]    (recursive)
│    │    │    └─Conv2dStaticSamePadding (_se_reduce): 4-936           [1, 1632, 1, 1]      [1, 1]               [1, 68, 1, 1]        (recursive)
│    │    │    │    └─Identity (static_padding): 5-422                 [1, 1632, 1, 1]      --                   [1, 1632, 1, 1]      (recursive)
│    │    │    └─MemoryEfficientSwish (_swish): 4-937                  [1, 68, 1, 1]        --                   [1, 68, 1, 1]        (recursive)
│    │    │    └─Conv2dStaticSamePadding (_se_expand): 4-938           [1, 68, 1, 1]        [1, 1]               [1, 1632, 1, 1]      (recursive)
│    │    │    │    └─Identity (static_padding): 5-423                 [1, 68, 1, 1]        --                   [1, 68, 1, 1]        (recursive)
│    │    │    └─Conv2dStaticSamePadding (_project_conv): 4-939        [1, 1632, 16, 16]    [1, 1]               [1, 272, 16, 16]     (recursive)
│    │    │    │    └─Identity (static_padding): 5-424                 [1, 1632, 16, 16]    --                   [1, 1632, 16, 16]    (recursive)
│    │    │    └─BatchNorm2d (_bn2): 4-940                             [1, 272, 16, 16]     --                   [1, 272, 16, 16]     (recursive)
│    │    └─MBConvBlock (28): 3-103                                    [1, 272, 16, 16]     --                   [1, 272, 16, 16]     (recursive)
│    │    │    └─Conv2dStaticSamePadding (_expand_conv): 4-941         [1, 272, 16, 16]     [1, 1]               [1, 1632, 16, 16]    (recursive)
│    │    │    │    └─Identity (static_padding): 5-425                 [1, 272, 16, 16]     --                   [1, 272, 16, 16]     (recursive)
│    │    │    └─BatchNorm2d (_bn0): 4-942                             [1, 1632, 16, 16]    --                   [1, 1632, 16, 16]    (recursive)
│    │    │    └─MemoryEfficientSwish (_swish): 4-943                  [1, 1632, 16, 16]    --                   [1, 1632, 16, 16]    (recursive)
│    │    │    └─Conv2dStaticSamePadding (_depthwise_conv): 4-944      [1, 1632, 16, 16]    [5, 5]               [1, 1632, 16, 16]    (recursive)
│    │    │    │    └─ZeroPad2d (static_padding): 5-426                [1, 1632, 16, 16]    --                   [1, 1632, 20, 20]    (recursive)
│    │    │    └─BatchNorm2d (_bn1): 4-945                             [1, 1632, 16, 16]    --                   [1, 1632, 16, 16]    (recursive)
│    │    │    └─MemoryEfficientSwish (_swish): 4-946                  [1, 1632, 16, 16]    --                   [1, 1632, 16, 16]    (recursive)
│    │    │    └─Conv2dStaticSamePadding (_se_reduce): 4-947           [1, 1632, 1, 1]      [1, 1]               [1, 68, 1, 1]        (recursive)
│    │    │    │    └─Identity (static_padding): 5-427                 [1, 1632, 1, 1]      --                   [1, 1632, 1, 1]      (recursive)
│    │    │    └─MemoryEfficientSwish (_swish): 4-948                  [1, 68, 1, 1]        --                   [1, 68, 1, 1]        (recursive)
│    │    │    └─Conv2dStaticSamePadding (_se_expand): 4-949           [1, 68, 1, 1]        [1, 1]               [1, 1632, 1, 1]      (recursive)
│    │    │    │    └─Identity (static_padding): 5-428                 [1, 68, 1, 1]        --                   [1, 68, 1, 1]        (recursive)
│    │    │    └─Conv2dStaticSamePadding (_project_conv): 4-950        [1, 1632, 16, 16]    [1, 1]               [1, 272, 16, 16]     (recursive)
│    │    │    │    └─Identity (static_padding): 5-429                 [1, 1632, 16, 16]    --                   [1, 1632, 16, 16]    (recursive)
│    │    │    └─BatchNorm2d (_bn2): 4-951                             [1, 272, 16, 16]     --                   [1, 272, 16, 16]     (recursive)
│    │    └─MBConvBlock (29): 3-104                                    [1, 272, 16, 16]     --                   [1, 272, 16, 16]          --
│    │    │    └─Conv2dStaticSamePadding (_expand_conv): 4-952         [1, 272, 16, 16]     [1, 1]               [1, 1632, 16, 16]      1.68%
│    │    │    │    └─Identity (static_padding): 5-430                 [1, 272, 16, 16]     --                   [1, 272, 16, 16]          --
│    │    │    └─BatchNorm2d (_bn0): 4-953                             [1, 1632, 16, 16]    --                   [1, 1632, 16, 16]      0.01%
│    │    │    └─MemoryEfficientSwish (_swish): 4-954                  [1, 1632, 16, 16]    --                   [1, 1632, 16, 16]         --
│    │    │    └─Conv2dStaticSamePadding (_depthwise_conv): 4-955      [1, 1632, 16, 16]    [5, 5]               [1, 1632, 16, 16]      0.15%
│    │    │    │    └─ZeroPad2d (static_padding): 5-431                [1, 1632, 16, 16]    --                   [1, 1632, 20, 20]         --
│    │    │    └─BatchNorm2d (_bn1): 4-956                             [1, 1632, 16, 16]    --                   [1, 1632, 16, 16]      0.01%
│    │    │    └─MemoryEfficientSwish (_swish): 4-957                  [1, 1632, 16, 16]    --                   [1, 1632, 16, 16]    (recursive)
│    │    │    └─Conv2dStaticSamePadding (_se_reduce): 4-958           [1, 1632, 1, 1]      [1, 1]               [1, 68, 1, 1]          0.42%
│    │    │    │    └─Identity (static_padding): 5-432                 [1, 1632, 1, 1]      --                   [1, 1632, 1, 1]           --
│    │    │    └─MemoryEfficientSwish (_swish): 4-959                  [1, 68, 1, 1]        --                   [1, 68, 1, 1]        (recursive)
│    │    │    └─Conv2dStaticSamePadding (_se_expand): 4-960           [1, 68, 1, 1]        [1, 1]               [1, 1632, 1, 1]        0.43%
│    │    │    │    └─Identity (static_padding): 5-433                 [1, 68, 1, 1]        --                   [1, 68, 1, 1]             --
│    │    │    └─Conv2dStaticSamePadding (_project_conv): 4-961        [1, 1632, 16, 16]    [1, 1]               [1, 272, 16, 16]       1.68%
│    │    │    │    └─Identity (static_padding): 5-434                 [1, 1632, 16, 16]    --                   [1, 1632, 16, 16]         --
│    │    │    └─BatchNorm2d (_bn2): 4-962                             [1, 272, 16, 16]     --                   [1, 272, 16, 16]       0.00%
│    │    └─MBConvBlock (29): 3-105                                    [1, 272, 16, 16]     --                   [1, 272, 16, 16]     (recursive)
│    │    │    └─Conv2dStaticSamePadding (_expand_conv): 4-963         [1, 272, 16, 16]     [1, 1]               [1, 1632, 16, 16]    (recursive)
│    │    │    │    └─Identity (static_padding): 5-435                 [1, 272, 16, 16]     --                   [1, 272, 16, 16]     (recursive)
│    │    │    └─BatchNorm2d (_bn0): 4-964                             [1, 1632, 16, 16]    --                   [1, 1632, 16, 16]    (recursive)
│    │    │    └─MemoryEfficientSwish (_swish): 4-965                  [1, 1632, 16, 16]    --                   [1, 1632, 16, 16]    (recursive)
│    │    │    └─Conv2dStaticSamePadding (_depthwise_conv): 4-966      [1, 1632, 16, 16]    [5, 5]               [1, 1632, 16, 16]    (recursive)
│    │    │    │    └─ZeroPad2d (static_padding): 5-436                [1, 1632, 16, 16]    --                   [1, 1632, 20, 20]    (recursive)
│    │    │    └─BatchNorm2d (_bn1): 4-967                             [1, 1632, 16, 16]    --                   [1, 1632, 16, 16]    (recursive)
│    │    │    └─MemoryEfficientSwish (_swish): 4-968                  [1, 1632, 16, 16]    --                   [1, 1632, 16, 16]    (recursive)
│    │    │    └─Conv2dStaticSamePadding (_se_reduce): 4-969           [1, 1632, 1, 1]      [1, 1]               [1, 68, 1, 1]        (recursive)
│    │    │    │    └─Identity (static_padding): 5-437                 [1, 1632, 1, 1]      --                   [1, 1632, 1, 1]      (recursive)
│    │    │    └─MemoryEfficientSwish (_swish): 4-970                  [1, 68, 1, 1]        --                   [1, 68, 1, 1]        (recursive)
│    │    │    └─Conv2dStaticSamePadding (_se_expand): 4-971           [1, 68, 1, 1]        [1, 1]               [1, 1632, 1, 1]      (recursive)
│    │    │    │    └─Identity (static_padding): 5-438                 [1, 68, 1, 1]        --                   [1, 68, 1, 1]        (recursive)
│    │    │    └─Conv2dStaticSamePadding (_project_conv): 4-972        [1, 1632, 16, 16]    [1, 1]               [1, 272, 16, 16]     (recursive)
│    │    │    │    └─Identity (static_padding): 5-439                 [1, 1632, 16, 16]    --                   [1, 1632, 16, 16]    (recursive)
│    │    │    └─BatchNorm2d (_bn2): 4-973                             [1, 272, 16, 16]     --                   [1, 272, 16, 16]     (recursive)
│    │    └─MBConvBlock (29): 3-106                                    [1, 272, 16, 16]     --                   [1, 272, 16, 16]     (recursive)
│    │    │    └─Conv2dStaticSamePadding (_expand_conv): 4-974         [1, 272, 16, 16]     [1, 1]               [1, 1632, 16, 16]    (recursive)
│    │    │    │    └─Identity (static_padding): 5-440                 [1, 272, 16, 16]     --                   [1, 272, 16, 16]     (recursive)
│    │    │    └─BatchNorm2d (_bn0): 4-975                             [1, 1632, 16, 16]    --                   [1, 1632, 16, 16]    (recursive)
│    │    │    └─MemoryEfficientSwish (_swish): 4-976                  [1, 1632, 16, 16]    --                   [1, 1632, 16, 16]    (recursive)
│    │    │    └─Conv2dStaticSamePadding (_depthwise_conv): 4-977      [1, 1632, 16, 16]    [5, 5]               [1, 1632, 16, 16]    (recursive)
│    │    │    │    └─ZeroPad2d (static_padding): 5-441                [1, 1632, 16, 16]    --                   [1, 1632, 20, 20]    (recursive)
│    │    │    └─BatchNorm2d (_bn1): 4-978                             [1, 1632, 16, 16]    --                   [1, 1632, 16, 16]    (recursive)
│    │    │    └─MemoryEfficientSwish (_swish): 4-979                  [1, 1632, 16, 16]    --                   [1, 1632, 16, 16]    (recursive)
│    │    │    └─Conv2dStaticSamePadding (_se_reduce): 4-980           [1, 1632, 1, 1]      [1, 1]               [1, 68, 1, 1]        (recursive)
│    │    │    │    └─Identity (static_padding): 5-442                 [1, 1632, 1, 1]      --                   [1, 1632, 1, 1]      (recursive)
│    │    │    └─MemoryEfficientSwish (_swish): 4-981                  [1, 68, 1, 1]        --                   [1, 68, 1, 1]        (recursive)
│    │    │    └─Conv2dStaticSamePadding (_se_expand): 4-982           [1, 68, 1, 1]        [1, 1]               [1, 1632, 1, 1]      (recursive)
│    │    │    │    └─Identity (static_padding): 5-443                 [1, 68, 1, 1]        --                   [1, 68, 1, 1]        (recursive)
│    │    │    └─Conv2dStaticSamePadding (_project_conv): 4-983        [1, 1632, 16, 16]    [1, 1]               [1, 272, 16, 16]     (recursive)
│    │    │    │    └─Identity (static_padding): 5-444                 [1, 1632, 16, 16]    --                   [1, 1632, 16, 16]    (recursive)
│    │    │    └─BatchNorm2d (_bn2): 4-984                             [1, 272, 16, 16]     --                   [1, 272, 16, 16]     (recursive)
│    │    └─MBConvBlock (30): 3-107                                    [1, 272, 16, 16]     --                   [1, 448, 16, 16]          --
│    │    │    └─Conv2dStaticSamePadding (_expand_conv): 4-985         [1, 272, 16, 16]     [1, 1]               [1, 1632, 16, 16]      1.68%
│    │    │    │    └─Identity (static_padding): 5-445                 [1, 272, 16, 16]     --                   [1, 272, 16, 16]          --
│    │    │    └─BatchNorm2d (_bn0): 4-986                             [1, 1632, 16, 16]    --                   [1, 1632, 16, 16]      0.01%
│    │    │    └─MemoryEfficientSwish (_swish): 4-987                  [1, 1632, 16, 16]    --                   [1, 1632, 16, 16]         --
│    │    │    └─Conv2dStaticSamePadding (_depthwise_conv): 4-988      [1, 1632, 16, 16]    [3, 3]               [1, 1632, 16, 16]      0.06%
│    │    │    │    └─ZeroPad2d (static_padding): 5-446                [1, 1632, 16, 16]    --                   [1, 1632, 18, 18]         --
│    │    │    └─BatchNorm2d (_bn1): 4-989                             [1, 1632, 16, 16]    --                   [1, 1632, 16, 16]      0.01%
│    │    │    └─MemoryEfficientSwish (_swish): 4-990                  [1, 1632, 16, 16]    --                   [1, 1632, 16, 16]    (recursive)
│    │    │    └─Conv2dStaticSamePadding (_se_reduce): 4-991           [1, 1632, 1, 1]      [1, 1]               [1, 68, 1, 1]          0.42%
│    │    │    │    └─Identity (static_padding): 5-447                 [1, 1632, 1, 1]      --                   [1, 1632, 1, 1]           --
│    │    │    └─MemoryEfficientSwish (_swish): 4-992                  [1, 68, 1, 1]        --                   [1, 68, 1, 1]        (recursive)
│    │    │    └─Conv2dStaticSamePadding (_se_expand): 4-993           [1, 68, 1, 1]        [1, 1]               [1, 1632, 1, 1]        0.43%
│    │    │    │    └─Identity (static_padding): 5-448                 [1, 68, 1, 1]        --                   [1, 68, 1, 1]             --
│    │    │    └─Conv2dStaticSamePadding (_project_conv): 4-994        [1, 1632, 16, 16]    [1, 1]               [1, 448, 16, 16]       2.78%
│    │    │    │    └─Identity (static_padding): 5-449                 [1, 1632, 16, 16]    --                   [1, 1632, 16, 16]         --
│    │    │    └─BatchNorm2d (_bn2): 4-995                             [1, 448, 16, 16]     --                   [1, 448, 16, 16]       0.00%
│    │    └─MBConvBlock (30): 3-108                                    [1, 272, 16, 16]     --                   [1, 448, 16, 16]     (recursive)
│    │    │    └─Conv2dStaticSamePadding (_expand_conv): 4-996         [1, 272, 16, 16]     [1, 1]               [1, 1632, 16, 16]    (recursive)
│    │    │    │    └─Identity (static_padding): 5-450                 [1, 272, 16, 16]     --                   [1, 272, 16, 16]     (recursive)
│    │    │    └─BatchNorm2d (_bn0): 4-997                             [1, 1632, 16, 16]    --                   [1, 1632, 16, 16]    (recursive)
│    │    │    └─MemoryEfficientSwish (_swish): 4-998                  [1, 1632, 16, 16]    --                   [1, 1632, 16, 16]    (recursive)
│    │    │    └─Conv2dStaticSamePadding (_depthwise_conv): 4-999      [1, 1632, 16, 16]    [3, 3]               [1, 1632, 16, 16]    (recursive)
│    │    │    │    └─ZeroPad2d (static_padding): 5-451                [1, 1632, 16, 16]    --                   [1, 1632, 18, 18]    (recursive)
│    │    │    └─BatchNorm2d (_bn1): 4-1000                            [1, 1632, 16, 16]    --                   [1, 1632, 16, 16]    (recursive)
│    │    │    └─MemoryEfficientSwish (_swish): 4-1001                 [1, 1632, 16, 16]    --                   [1, 1632, 16, 16]    (recursive)
│    │    │    └─Conv2dStaticSamePadding (_se_reduce): 4-1002          [1, 1632, 1, 1]      [1, 1]               [1, 68, 1, 1]        (recursive)
│    │    │    │    └─Identity (static_padding): 5-452                 [1, 1632, 1, 1]      --                   [1, 1632, 1, 1]      (recursive)
│    │    │    └─MemoryEfficientSwish (_swish): 4-1003                 [1, 68, 1, 1]        --                   [1, 68, 1, 1]        (recursive)
│    │    │    └─Conv2dStaticSamePadding (_se_expand): 4-1004          [1, 68, 1, 1]        [1, 1]               [1, 1632, 1, 1]      (recursive)
│    │    │    │    └─Identity (static_padding): 5-453                 [1, 68, 1, 1]        --                   [1, 68, 1, 1]        (recursive)
│    │    │    └─Conv2dStaticSamePadding (_project_conv): 4-1005       [1, 1632, 16, 16]    [1, 1]               [1, 448, 16, 16]     (recursive)
│    │    │    │    └─Identity (static_padding): 5-454                 [1, 1632, 16, 16]    --                   [1, 1632, 16, 16]    (recursive)
│    │    │    └─BatchNorm2d (_bn2): 4-1006                            [1, 448, 16, 16]     --                   [1, 448, 16, 16]     (recursive)
│    │    └─MBConvBlock (30): 3-109                                    [1, 272, 16, 16]     --                   [1, 448, 16, 16]     (recursive)
│    │    │    └─Conv2dStaticSamePadding (_expand_conv): 4-1007        [1, 272, 16, 16]     [1, 1]               [1, 1632, 16, 16]    (recursive)
│    │    │    │    └─Identity (static_padding): 5-455                 [1, 272, 16, 16]     --                   [1, 272, 16, 16]     (recursive)
│    │    │    └─BatchNorm2d (_bn0): 4-1008                            [1, 1632, 16, 16]    --                   [1, 1632, 16, 16]    (recursive)
│    │    │    └─MemoryEfficientSwish (_swish): 4-1009                 [1, 1632, 16, 16]    --                   [1, 1632, 16, 16]    (recursive)
│    │    │    └─Conv2dStaticSamePadding (_depthwise_conv): 4-1010     [1, 1632, 16, 16]    [3, 3]               [1, 1632, 16, 16]    (recursive)
│    │    │    │    └─ZeroPad2d (static_padding): 5-456                [1, 1632, 16, 16]    --                   [1, 1632, 18, 18]    (recursive)
│    │    │    └─BatchNorm2d (_bn1): 4-1011                            [1, 1632, 16, 16]    --                   [1, 1632, 16, 16]    (recursive)
│    │    │    └─MemoryEfficientSwish (_swish): 4-1012                 [1, 1632, 16, 16]    --                   [1, 1632, 16, 16]    (recursive)
│    │    │    └─Conv2dStaticSamePadding (_se_reduce): 4-1013          [1, 1632, 1, 1]      [1, 1]               [1, 68, 1, 1]        (recursive)
│    │    │    │    └─Identity (static_padding): 5-457                 [1, 1632, 1, 1]      --                   [1, 1632, 1, 1]      (recursive)
│    │    │    └─MemoryEfficientSwish (_swish): 4-1014                 [1, 68, 1, 1]        --                   [1, 68, 1, 1]        (recursive)
│    │    │    └─Conv2dStaticSamePadding (_se_expand): 4-1015          [1, 68, 1, 1]        [1, 1]               [1, 1632, 1, 1]      (recursive)
│    │    │    │    └─Identity (static_padding): 5-458                 [1, 68, 1, 1]        --                   [1, 68, 1, 1]        (recursive)
│    │    │    └─Conv2dStaticSamePadding (_project_conv): 4-1016       [1, 1632, 16, 16]    [1, 1]               [1, 448, 16, 16]     (recursive)
│    │    │    │    └─Identity (static_padding): 5-459                 [1, 1632, 16, 16]    --                   [1, 1632, 16, 16]    (recursive)
│    │    │    └─BatchNorm2d (_bn2): 4-1017                            [1, 448, 16, 16]     --                   [1, 448, 16, 16]     (recursive)
│    │    └─MBConvBlock (31): 3-110                                    [1, 448, 16, 16]     --                   [1, 448, 16, 16]          --
│    │    │    └─Conv2dStaticSamePadding (_expand_conv): 4-1018        [1, 448, 16, 16]     [1, 1]               [1, 2688, 16, 16]      4.57%
│    │    │    │    └─Identity (static_padding): 5-460                 [1, 448, 16, 16]     --                   [1, 448, 16, 16]          --
│    │    │    └─BatchNorm2d (_bn0): 4-1019                            [1, 2688, 16, 16]    --                   [1, 2688, 16, 16]      0.02%
│    │    │    └─MemoryEfficientSwish (_swish): 4-1020                 [1, 2688, 16, 16]    --                   [1, 2688, 16, 16]         --
│    │    │    └─Conv2dStaticSamePadding (_depthwise_conv): 4-1021     [1, 2688, 16, 16]    [3, 3]               [1, 2688, 16, 16]      0.09%
│    │    │    │    └─ZeroPad2d (static_padding): 5-461                [1, 2688, 16, 16]    --                   [1, 2688, 18, 18]         --
│    │    │    └─BatchNorm2d (_bn1): 4-1022                            [1, 2688, 16, 16]    --                   [1, 2688, 16, 16]      0.02%
│    │    │    └─MemoryEfficientSwish (_swish): 4-1023                 [1, 2688, 16, 16]    --                   [1, 2688, 16, 16]    (recursive)
│    │    │    └─Conv2dStaticSamePadding (_se_reduce): 4-1024          [1, 2688, 1, 1]      [1, 1]               [1, 112, 1, 1]         1.14%
│    │    │    │    └─Identity (static_padding): 5-462                 [1, 2688, 1, 1]      --                   [1, 2688, 1, 1]           --
│    │    │    └─MemoryEfficientSwish (_swish): 4-1025                 [1, 112, 1, 1]       --                   [1, 112, 1, 1]       (recursive)
│    │    │    └─Conv2dStaticSamePadding (_se_expand): 4-1026          [1, 112, 1, 1]       [1, 1]               [1, 2688, 1, 1]        1.15%
│    │    │    │    └─Identity (static_padding): 5-463                 [1, 112, 1, 1]       --                   [1, 112, 1, 1]            --
│    │    │    └─Conv2dStaticSamePadding (_project_conv): 4-1027       [1, 2688, 16, 16]    [1, 1]               [1, 448, 16, 16]       4.57%
│    │    │    │    └─Identity (static_padding): 5-464                 [1, 2688, 16, 16]    --                   [1, 2688, 16, 16]         --
│    │    │    └─BatchNorm2d (_bn2): 4-1028                            [1, 448, 16, 16]     --                   [1, 448, 16, 16]       0.00%
│    │    └─MBConvBlock (31): 3-111                                    [1, 448, 16, 16]     --                   [1, 448, 16, 16]     (recursive)
│    │    │    └─Conv2dStaticSamePadding (_expand_conv): 4-1029        [1, 448, 16, 16]     [1, 1]               [1, 2688, 16, 16]    (recursive)
│    │    │    │    └─Identity (static_padding): 5-465                 [1, 448, 16, 16]     --                   [1, 448, 16, 16]     (recursive)
│    │    │    └─BatchNorm2d (_bn0): 4-1030                            [1, 2688, 16, 16]    --                   [1, 2688, 16, 16]    (recursive)
│    │    │    └─MemoryEfficientSwish (_swish): 4-1031                 [1, 2688, 16, 16]    --                   [1, 2688, 16, 16]    (recursive)
│    │    │    └─Conv2dStaticSamePadding (_depthwise_conv): 4-1032     [1, 2688, 16, 16]    [3, 3]               [1, 2688, 16, 16]    (recursive)
│    │    │    │    └─ZeroPad2d (static_padding): 5-466                [1, 2688, 16, 16]    --                   [1, 2688, 18, 18]    (recursive)
│    │    │    └─BatchNorm2d (_bn1): 4-1033                            [1, 2688, 16, 16]    --                   [1, 2688, 16, 16]    (recursive)
│    │    │    └─MemoryEfficientSwish (_swish): 4-1034                 [1, 2688, 16, 16]    --                   [1, 2688, 16, 16]    (recursive)
│    │    │    └─Conv2dStaticSamePadding (_se_reduce): 4-1035          [1, 2688, 1, 1]      [1, 1]               [1, 112, 1, 1]       (recursive)
│    │    │    │    └─Identity (static_padding): 5-467                 [1, 2688, 1, 1]      --                   [1, 2688, 1, 1]      (recursive)
│    │    │    └─MemoryEfficientSwish (_swish): 4-1036                 [1, 112, 1, 1]       --                   [1, 112, 1, 1]       (recursive)
│    │    │    └─Conv2dStaticSamePadding (_se_expand): 4-1037          [1, 112, 1, 1]       [1, 1]               [1, 2688, 1, 1]      (recursive)
│    │    │    │    └─Identity (static_padding): 5-468                 [1, 112, 1, 1]       --                   [1, 112, 1, 1]       (recursive)
│    │    │    └─Conv2dStaticSamePadding (_project_conv): 4-1038       [1, 2688, 16, 16]    [1, 1]               [1, 448, 16, 16]     (recursive)
│    │    │    │    └─Identity (static_padding): 5-469                 [1, 2688, 16, 16]    --                   [1, 2688, 16, 16]    (recursive)
│    │    │    └─BatchNorm2d (_bn2): 4-1039                            [1, 448, 16, 16]     --                   [1, 448, 16, 16]     (recursive)
│    │    └─MBConvBlock (31): 3-112                                    [1, 448, 16, 16]     --                   [1, 448, 16, 16]     (recursive)
│    │    │    └─Conv2dStaticSamePadding (_expand_conv): 4-1040        [1, 448, 16, 16]     [1, 1]               [1, 2688, 16, 16]    (recursive)
│    │    │    │    └─Identity (static_padding): 5-470                 [1, 448, 16, 16]     --                   [1, 448, 16, 16]     (recursive)
│    │    │    └─BatchNorm2d (_bn0): 4-1041                            [1, 2688, 16, 16]    --                   [1, 2688, 16, 16]    (recursive)
│    │    │    └─MemoryEfficientSwish (_swish): 4-1042                 [1, 2688, 16, 16]    --                   [1, 2688, 16, 16]    (recursive)
│    │    │    └─Conv2dStaticSamePadding (_depthwise_conv): 4-1043     [1, 2688, 16, 16]    [3, 3]               [1, 2688, 16, 16]    (recursive)
│    │    │    │    └─ZeroPad2d (static_padding): 5-471                [1, 2688, 16, 16]    --                   [1, 2688, 18, 18]    (recursive)
│    │    │    └─BatchNorm2d (_bn1): 4-1044                            [1, 2688, 16, 16]    --                   [1, 2688, 16, 16]    (recursive)
│    │    │    └─MemoryEfficientSwish (_swish): 4-1045                 [1, 2688, 16, 16]    --                   [1, 2688, 16, 16]    (recursive)
│    │    │    └─Conv2dStaticSamePadding (_se_reduce): 4-1046          [1, 2688, 1, 1]      [1, 1]               [1, 112, 1, 1]       (recursive)
│    │    │    │    └─Identity (static_padding): 5-472                 [1, 2688, 1, 1]      --                   [1, 2688, 1, 1]      (recursive)
│    │    │    └─MemoryEfficientSwish (_swish): 4-1047                 [1, 112, 1, 1]       --                   [1, 112, 1, 1]       (recursive)
│    │    │    └─Conv2dStaticSamePadding (_se_expand): 4-1048          [1, 112, 1, 1]       [1, 1]               [1, 2688, 1, 1]      (recursive)
│    │    │    │    └─Identity (static_padding): 5-473                 [1, 112, 1, 1]       --                   [1, 112, 1, 1]       (recursive)
│    │    │    └─Conv2dStaticSamePadding (_project_conv): 4-1049       [1, 2688, 16, 16]    [1, 1]               [1, 448, 16, 16]     (recursive)
│    │    │    │    └─Identity (static_padding): 5-474                 [1, 2688, 16, 16]    --                   [1, 2688, 16, 16]    (recursive)
│    │    │    └─BatchNorm2d (_bn2): 4-1050                            [1, 448, 16, 16]     --                   [1, 448, 16, 16]     (recursive)
│    └─NonLocalBlock (cross_attention_prev_5): 2-17                    [1, 448, 16, 16]     --                   [1, 448, 16, 16]       0.00%
│    │    └─Conv2d (query_conv): 3-113                                 [1, 448, 16, 16]     [1, 1]               [1, 224, 16, 16]       0.38%
│    │    └─Conv2d (key_conv): 3-114                                   [1, 448, 16, 16]     [1, 1]               [1, 224, 16, 16]       0.38%
│    │    └─Conv2d (value_conv): 3-115                                 [1, 448, 16, 16]     [1, 1]               [1, 224, 16, 16]       0.38%
│    │    └─Sequential (W_z): 3-116                                    [1, 224, 16, 16]     --                   [1, 448, 16, 16]          --
│    │    │    └─Conv2d (0): 4-1051                                    [1, 224, 16, 16]     [1, 1]               [1, 448, 16, 16]       0.38%
│    │    │    └─BatchNorm2d (1): 4-1052                               [1, 448, 16, 16]     --                   [1, 448, 16, 16]       0.00%
│    └─NonLocalBlock (cross_attention_self_5): 2-18                    [1, 448, 16, 16]     --                   [1, 448, 16, 16]       0.00%
│    │    └─Conv2d (query_conv): 3-117                                 [1, 448, 16, 16]     [1, 1]               [1, 224, 16, 16]       0.38%
│    │    └─Conv2d (key_conv): 3-118                                   [1, 448, 16, 16]     [1, 1]               [1, 224, 16, 16]       0.38%
│    │    └─Conv2d (value_conv): 3-119                                 [1, 448, 16, 16]     [1, 1]               [1, 224, 16, 16]       0.38%
│    │    └─Sequential (W_z): 3-120                                    [1, 224, 16, 16]     --                   [1, 448, 16, 16]          --
│    │    │    └─Conv2d (0): 4-1053                                    [1, 224, 16, 16]     [1, 1]               [1, 448, 16, 16]       0.38%
│    │    │    └─BatchNorm2d (1): 4-1054                               [1, 448, 16, 16]     --                   [1, 448, 16, 16]       0.00%
│    └─NonLocalBlock (cross_attention_next_5): 2-19                    [1, 448, 16, 16]     --                   [1, 448, 16, 16]       0.00%
│    │    └─Conv2d (query_conv): 3-121                                 [1, 448, 16, 16]     [1, 1]               [1, 224, 16, 16]       0.38%
│    │    └─Conv2d (key_conv): 3-122                                   [1, 448, 16, 16]     [1, 1]               [1, 224, 16, 16]       0.38%
│    │    └─Conv2d (value_conv): 3-123                                 [1, 448, 16, 16]     [1, 1]               [1, 224, 16, 16]       0.38%
│    │    └─Sequential (W_z): 3-124                                    [1, 224, 16, 16]     --                   [1, 448, 16, 16]          --
│    │    │    └─Conv2d (0): 4-1055                                    [1, 224, 16, 16]     [1, 1]               [1, 448, 16, 16]       0.38%
│    │    │    └─BatchNorm2d (1): 4-1056                               [1, 448, 16, 16]     --                   [1, 448, 16, 16]       0.00%
│    └─Conv2d (compress_5): 2-20                                       [1, 1344, 16, 16]    [1, 1]               [1, 448, 16, 16]       2.29%
│    └─DoubleConv (double_conv_5): 2-21                                [1, 448, 16, 16]     --                   [1, 448, 16, 16]          --
│    │    └─Sequential (double_conv): 3-125                            [1, 448, 16, 16]     --                   [1, 448, 16, 16]          --
│    │    │    └─Conv2d (0): 4-1057                                    [1, 448, 16, 16]     [3, 3]               [1, 448, 16, 16]       6.86%
│    │    │    └─BatchNorm2d (1): 4-1058                               [1, 448, 16, 16]     --                   [1, 448, 16, 16]       0.00%
│    │    │    └─ReLU (2): 4-1059                                      [1, 448, 16, 16]     --                   [1, 448, 16, 16]          --
│    │    │    └─Conv2d (3): 4-1060                                    [1, 448, 16, 16]     [3, 3]               [1, 448, 16, 16]       6.86%
│    │    │    └─BatchNorm2d (4): 4-1061                               [1, 448, 16, 16]     --                   [1, 448, 16, 16]       0.00%
│    │    │    └─ReLU (5): 4-1062                                      [1, 448, 16, 16]     --                   [1, 448, 16, 16]          --
├─UnetDecoder (decoder): 1-2                                           [1, 1, 512, 512]     --                   [1, 16, 512, 512]         --
│    └─Identity (center): 2-22                                         [1, 448, 16, 16]     --                   [1, 448, 16, 16]          --
│    └─ModuleList (blocks): 2-23                                       --                   --                   --                        --
│    │    └─DecoderBlock (0): 3-126                                    [1, 448, 16, 16]     --                   [1, 256, 32, 32]          --
│    │    │    └─Attention (attention1): 4-1063                        [1, 608, 32, 32]     --                   [1, 608, 32, 32]          --
│    │    │    │    └─Identity (attention): 5-475                      [1, 608, 32, 32]     --                   [1, 608, 32, 32]          --
│    │    │    └─Conv2dReLU (conv1): 4-1064                            [1, 608, 32, 32]     --                   [1, 256, 32, 32]          --
│    │    │    │    └─Conv2d (0): 5-476                                [1, 608, 32, 32]     [3, 3]               [1, 256, 32, 32]       5.32%
│    │    │    │    └─BatchNorm2d (1): 5-477                           [1, 256, 32, 32]     --                   [1, 256, 32, 32]       0.00%
│    │    │    │    └─ReLU (2): 5-478                                  [1, 256, 32, 32]     --                   [1, 256, 32, 32]          --
│    │    │    └─Conv2dReLU (conv2): 4-1065                            [1, 256, 32, 32]     --                   [1, 256, 32, 32]          --
│    │    │    │    └─Conv2d (0): 5-479                                [1, 256, 32, 32]     [3, 3]               [1, 256, 32, 32]       2.24%
│    │    │    │    └─BatchNorm2d (1): 5-480                           [1, 256, 32, 32]     --                   [1, 256, 32, 32]       0.00%
│    │    │    │    └─ReLU (2): 5-481                                  [1, 256, 32, 32]     --                   [1, 256, 32, 32]          --
│    │    │    └─Attention (attention2): 4-1066                        [1, 256, 32, 32]     --                   [1, 256, 32, 32]          --
│    │    │    │    └─Identity (attention): 5-482                      [1, 256, 32, 32]     --                   [1, 256, 32, 32]          --
│    │    └─DecoderBlock (1): 3-127                                    [1, 256, 32, 32]     --                   [1, 128, 64, 64]          --
│    │    │    └─Attention (attention1): 4-1067                        [1, 312, 64, 64]     --                   [1, 312, 64, 64]          --
│    │    │    │    └─Identity (attention): 5-483                      [1, 312, 64, 64]     --                   [1, 312, 64, 64]          --
│    │    │    └─Conv2dReLU (conv1): 4-1068                            [1, 312, 64, 64]     --                   [1, 128, 64, 64]          --
│    │    │    │    └─Conv2d (0): 5-484                                [1, 312, 64, 64]     [3, 3]               [1, 128, 64, 64]       1.36%
│    │    │    │    └─BatchNorm2d (1): 5-485                           [1, 128, 64, 64]     --                   [1, 128, 64, 64]       0.00%
│    │    │    │    └─ReLU (2): 5-486                                  [1, 128, 64, 64]     --                   [1, 128, 64, 64]          --
│    │    │    └─Conv2dReLU (conv2): 4-1069                            [1, 128, 64, 64]     --                   [1, 128, 64, 64]          --
│    │    │    │    └─Conv2d (0): 5-487                                [1, 128, 64, 64]     [3, 3]               [1, 128, 64, 64]       0.56%
│    │    │    │    └─BatchNorm2d (1): 5-488                           [1, 128, 64, 64]     --                   [1, 128, 64, 64]       0.00%
│    │    │    │    └─ReLU (2): 5-489                                  [1, 128, 64, 64]     --                   [1, 128, 64, 64]          --
│    │    │    └─Attention (attention2): 4-1070                        [1, 128, 64, 64]     --                   [1, 128, 64, 64]          --
│    │    │    │    └─Identity (attention): 5-490                      [1, 128, 64, 64]     --                   [1, 128, 64, 64]          --
│    │    └─DecoderBlock (2): 3-128                                    [1, 128, 64, 64]     --                   [1, 64, 128, 128]         --
│    │    │    └─Attention (attention1): 4-1071                        [1, 160, 128, 128]   --                   [1, 160, 128, 128]        --
│    │    │    │    └─Identity (attention): 5-491                      [1, 160, 128, 128]   --                   [1, 160, 128, 128]        --
│    │    │    └─Conv2dReLU (conv1): 4-1072                            [1, 160, 128, 128]   --                   [1, 64, 128, 128]         --
│    │    │    │    └─Conv2d (0): 5-492                                [1, 160, 128, 128]   [3, 3]               [1, 64, 128, 128]      0.35%
│    │    │    │    └─BatchNorm2d (1): 5-493                           [1, 64, 128, 128]    --                   [1, 64, 128, 128]      0.00%
│    │    │    │    └─ReLU (2): 5-494                                  [1, 64, 128, 128]    --                   [1, 64, 128, 128]         --
│    │    │    └─Conv2dReLU (conv2): 4-1073                            [1, 64, 128, 128]    --                   [1, 64, 128, 128]         --
│    │    │    │    └─Conv2d (0): 5-495                                [1, 64, 128, 128]    [3, 3]               [1, 64, 128, 128]      0.14%
│    │    │    │    └─BatchNorm2d (1): 5-496                           [1, 64, 128, 128]    --                   [1, 64, 128, 128]      0.00%
│    │    │    │    └─ReLU (2): 5-497                                  [1, 64, 128, 128]    --                   [1, 64, 128, 128]         --
│    │    │    └─Attention (attention2): 4-1074                        [1, 64, 128, 128]    --                   [1, 64, 128, 128]         --
│    │    │    │    └─Identity (attention): 5-498                      [1, 64, 128, 128]    --                   [1, 64, 128, 128]         --
│    │    └─DecoderBlock (3): 3-129                                    [1, 64, 128, 128]    --                   [1, 32, 256, 256]         --
│    │    │    └─Attention (attention1): 4-1075                        [1, 112, 256, 256]   --                   [1, 112, 256, 256]        --
│    │    │    │    └─Identity (attention): 5-499                      [1, 112, 256, 256]   --                   [1, 112, 256, 256]        --
│    │    │    └─Conv2dReLU (conv1): 4-1076                            [1, 112, 256, 256]   --                   [1, 32, 256, 256]         --
│    │    │    │    └─Conv2d (0): 5-500                                [1, 112, 256, 256]   [3, 3]               [1, 32, 256, 256]      0.12%
│    │    │    │    └─BatchNorm2d (1): 5-501                           [1, 32, 256, 256]    --                   [1, 32, 256, 256]      0.00%
│    │    │    │    └─ReLU (2): 5-502                                  [1, 32, 256, 256]    --                   [1, 32, 256, 256]         --
│    │    │    └─Conv2dReLU (conv2): 4-1077                            [1, 32, 256, 256]    --                   [1, 32, 256, 256]         --
│    │    │    │    └─Conv2d (0): 5-503                                [1, 32, 256, 256]    [3, 3]               [1, 32, 256, 256]      0.03%
│    │    │    │    └─BatchNorm2d (1): 5-504                           [1, 32, 256, 256]    --                   [1, 32, 256, 256]      0.00%
│    │    │    │    └─ReLU (2): 5-505                                  [1, 32, 256, 256]    --                   [1, 32, 256, 256]         --
│    │    │    └─Attention (attention2): 4-1078                        [1, 32, 256, 256]    --                   [1, 32, 256, 256]         --
│    │    │    │    └─Identity (attention): 5-506                      [1, 32, 256, 256]    --                   [1, 32, 256, 256]         --
│    │    └─DecoderBlock (4): 3-130                                    [1, 32, 256, 256]    --                   [1, 16, 512, 512]         --
│    │    │    └─Conv2dReLU (conv1): 4-1079                            [1, 32, 512, 512]    --                   [1, 16, 512, 512]         --
│    │    │    │    └─Conv2d (0): 5-507                                [1, 32, 512, 512]    [3, 3]               [1, 16, 512, 512]      0.02%
│    │    │    │    └─BatchNorm2d (1): 5-508                           [1, 16, 512, 512]    --                   [1, 16, 512, 512]      0.00%
│    │    │    │    └─ReLU (2): 5-509                                  [1, 16, 512, 512]    --                   [1, 16, 512, 512]         --
│    │    │    └─Conv2dReLU (conv2): 4-1080                            [1, 16, 512, 512]    --                   [1, 16, 512, 512]         --
│    │    │    │    └─Conv2d (0): 5-510                                [1, 16, 512, 512]    [3, 3]               [1, 16, 512, 512]      0.01%
│    │    │    │    └─BatchNorm2d (1): 5-511                           [1, 16, 512, 512]    --                   [1, 16, 512, 512]      0.00%
│    │    │    │    └─ReLU (2): 5-512                                  [1, 16, 512, 512]    --                   [1, 16, 512, 512]         --
│    │    │    └─Attention (attention2): 4-1081                        [1, 16, 512, 512]    --                   [1, 16, 512, 512]         --
│    │    │    │    └─Identity (attention): 5-513                      [1, 16, 512, 512]    --                   [1, 16, 512, 512]         --
├─SegmentationHead (segmentation_head): 1-3                            [1, 16, 512, 512]    --                   [1, 5, 512, 512]          --
│    └─Conv2d (0): 2-24                                                [1, 16, 512, 512]    [3, 3]               [1, 5, 512, 512]       0.00%
│    └─Identity (1): 2-25                                              [1, 5, 512, 512]     --                   [1, 5, 512, 512]          --
│    └─Activation (2): 2-26                                            [1, 5, 512, 512]     --                   [1, 5, 512, 512]          --
│    │    └─Identity (activation): 3-131                               [1, 5, 512, 512]     --                   [1, 5, 512, 512]          --
======================================================================================================================================================
Total params: 26,345,341
Trainable params: 26,345,341
Non-trainable params: 0
Total mult-adds (G): 13.05
======================================================================================================================================================
…
