=======================================================================================================================================
Layer (type (var_name):depth-idx)                       Input Shape          Kernel Shape         Output Shape         Param %
=======================================================================================================================================
Unet (Unet)                                             [16, 1, 512, 512]    --                   [16, 5, 512, 512]         --
├─DenseNetEncoder (encoder): 1-1                        [16, 1, 512, 512]    --                   [16, 1, 512, 512]         --
│    └─Sequential (features): 2-1                       --                   --                   --                        --
│    │    └─Conv2d (conv0): 3-1                         [16, 1, 512, 512]    [7, 7]               [16, 64, 256, 256]     0.01%
│    │    └─BatchNorm2d (norm0): 3-2                    [16, 64, 256, 256]   --                   [16, 64, 256, 256]     0.00%
│    │    └─ReLU (relu0): 3-3                           [16, 64, 256, 256]   --                   [16, 64, 256, 256]        --
│    │    └─MaxPool2d (pool0): 3-4                      [16, 64, 256, 256]   3                    [16, 64, 128, 128]        --
│    │    └─_DenseBlock (denseblock1): 3-5              [16, 64, 128, 128]   --                   [16, 256, 128, 128]       --
│    │    │    └─_DenseLayer (denselayer1): 4-1         [16, 64, 128, 128]   --                   [16, 32, 128, 128]        --
│    │    │    │    └─BatchNorm2d (norm1): 5-1          [16, 64, 128, 128]   --                   [16, 64, 128, 128]     0.00%
│    │    │    │    └─ReLU (relu1): 5-2                 [16, 64, 128, 128]   --                   [16, 64, 128, 128]        --
│    │    │    │    └─Conv2d (conv1): 5-3               [16, 64, 128, 128]   [1, 1]               [16, 128, 128, 128]    0.03%
│    │    │    │    └─BatchNorm2d (norm2): 5-4          [16, 128, 128, 128]  --                   [16, 128, 128, 128]    0.00%
│    │    │    │    └─ReLU (relu2): 5-5                 [16, 128, 128, 128]  --                   [16, 128, 128, 128]       --
│    │    │    │    └─Conv2d (conv2): 5-6               [16, 128, 128, 128]  [3, 3]               [16, 32, 128, 128]     0.13%
│    │    │    └─_DenseLayer (denselayer2): 4-2         [16, 64, 128, 128]   --                   [16, 32, 128, 128]        --
│    │    │    │    └─BatchNorm2d (norm1): 5-7          [16, 96, 128, 128]   --                   [16, 96, 128, 128]     0.00%
│    │    │    │    └─ReLU (relu1): 5-8                 [16, 96, 128, 128]   --                   [16, 96, 128, 128]        --
│    │    │    │    └─Conv2d (conv1): 5-9               [16, 96, 128, 128]   [1, 1]               [16, 128, 128, 128]    0.04%
│    │    │    │    └─BatchNorm2d (norm2): 5-10         [16, 128, 128, 128]  --                   [16, 128, 128, 128]    0.00%
│    │    │    │    └─ReLU (relu2): 5-11                [16, 128, 128, 128]  --                   [16, 128, 128, 128]       --
│    │    │    │    └─Conv2d (conv2): 5-12              [16, 128, 128, 128]  [3, 3]               [16, 32, 128, 128]     0.13%
│    │    │    └─_DenseLayer (denselayer3): 4-3         [16, 64, 128, 128]   --                   [16, 32, 128, 128]        --
│    │    │    │    └─BatchNorm2d (norm1): 5-13         [16, 128, 128, 128]  --                   [16, 128, 128, 128]    0.00%
│    │    │    │    └─ReLU (relu1): 5-14                [16, 128, 128, 128]  --                   [16, 128, 128, 128]       --
│    │    │    │    └─Conv2d (conv1): 5-15              [16, 128, 128, 128]  [1, 1]               [16, 128, 128, 128]    0.06%
│    │    │    │    └─BatchNorm2d (norm2): 5-16         [16, 128, 128, 128]  --                   [16, 128, 128, 128]    0.00%
│    │    │    │    └─ReLU (relu2): 5-17                [16, 128, 128, 128]  --                   [16, 128, 128, 128]       --
│    │    │    │    └─Conv2d (conv2): 5-18              [16, 128, 128, 128]  [3, 3]               [16, 32, 128, 128]     0.13%
│    │    │    └─_DenseLayer (denselayer4): 4-4         [16, 64, 128, 128]   --                   [16, 32, 128, 128]        --
│    │    │    │    └─BatchNorm2d (norm1): 5-19         [16, 160, 128, 128]  --                   [16, 160, 128, 128]    0.00%
│    │    │    │    └─ReLU (relu1): 5-20                [16, 160, 128, 128]  --                   [16, 160, 128, 128]       --
│    │    │    │    └─Conv2d (conv1): 5-21              [16, 160, 128, 128]  [1, 1]               [16, 128, 128, 128]    0.07%
│    │    │    │    └─BatchNorm2d (norm2): 5-22         [16, 128, 128, 128]  --                   [16, 128, 128, 128]    0.00%
│    │    │    │    └─ReLU (relu2): 5-23                [16, 128, 128, 128]  --                   [16, 128, 128, 128]       --
│    │    │    │    └─Conv2d (conv2): 5-24              [16, 128, 128, 128]  [3, 3]               [16, 32, 128, 128]     0.13%
│    │    │    └─_DenseLayer (denselayer5): 4-5         [16, 64, 128, 128]   --                   [16, 32, 128, 128]        --
│    │    │    │    └─BatchNorm2d (norm1): 5-25         [16, 192, 128, 128]  --                   [16, 192, 128, 128]    0.00%
│    │    │    │    └─ReLU (relu1): 5-26                [16, 192, 128, 128]  --                   [16, 192, 128, 128]       --
│    │    │    │    └─Conv2d (conv1): 5-27              [16, 192, 128, 128]  [1, 1]               [16, 128, 128, 128]    0.09%
│    │    │    │    └─BatchNorm2d (norm2): 5-28         [16, 128, 128, 128]  --                   [16, 128, 128, 128]    0.00%
│    │    │    │    └─ReLU (relu2): 5-29                [16, 128, 128, 128]  --                   [16, 128, 128, 128]       --
│    │    │    │    └─Conv2d (conv2): 5-30              [16, 128, 128, 128]  [3, 3]               [16, 32, 128, 128]     0.13%
│    │    │    └─_DenseLayer (denselayer6): 4-6         [16, 64, 128, 128]   --                   [16, 32, 128, 128]        --
│    │    │    │    └─BatchNorm2d (norm1): 5-31         [16, 224, 128, 128]  --                   [16, 224, 128, 128]    0.00%
│    │    │    │    └─ReLU (relu1): 5-32                [16, 224, 128, 128]  --                   [16, 224, 128, 128]       --
│    │    │    │    └─Conv2d (conv1): 5-33              [16, 224, 128, 128]  [1, 1]               [16, 128, 128, 128]    0.10%
│    │    │    │    └─BatchNorm2d (norm2): 5-34         [16, 128, 128, 128]  --                   [16, 128, 128, 128]    0.00%
│    │    │    │    └─ReLU (relu2): 5-35                [16, 128, 128, 128]  --                   [16, 128, 128, 128]       --
│    │    │    │    └─Conv2d (conv2): 5-36              [16, 128, 128, 128]  [3, 3]               [16, 32, 128, 128]     0.13%
│    │    └─_Transition (transition1): 3-6              --                   --                   --                        --
│    │    │    └─BatchNorm2d (norm): 4-7                [16, 256, 128, 128]  --                   [16, 256, 128, 128]    0.00%
│    │    │    └─ReLU (relu): 4-8                       [16, 256, 128, 128]  --                   [16, 256, 128, 128]       --
│    │    │    └─Conv2d (conv): 4-9                     [16, 256, 128, 128]  [1, 1]               [16, 128, 128, 128]    0.11%
│    │    │    └─AvgPool2d (pool): 4-10                 [16, 128, 128, 128]  2                    [16, 128, 64, 64]         --
│    │    └─_DenseBlock (denseblock2): 3-7              [16, 128, 64, 64]    --                   [16, 512, 64, 64]         --
│    │    │    └─_DenseLayer (denselayer1): 4-11        [16, 128, 64, 64]    --                   [16, 32, 64, 64]          --
│    │    │    │    └─BatchNorm2d (norm1): 5-37         [16, 128, 64, 64]    --                   [16, 128, 64, 64]      0.00%
│    │    │    │    └─ReLU (relu1): 5-38                [16, 128, 64, 64]    --                   [16, 128, 64, 64]         --
│    │    │    │    └─Conv2d (conv1): 5-39              [16, 128, 64, 64]    [1, 1]               [16, 128, 64, 64]      0.06%
│    │    │    │    └─BatchNorm2d (norm2): 5-40         [16, 128, 64, 64]    --                   [16, 128, 64, 64]      0.00%
│    │    │    │    └─ReLU (relu2): 5-41                [16, 128, 64, 64]    --                   [16, 128, 64, 64]         --
│    │    │    │    └─Conv2d (conv2): 5-42              [16, 128, 64, 64]    [3, 3]               [16, 32, 64, 64]       0.13%
│    │    │    └─_DenseLayer (denselayer2): 4-12        [16, 128, 64, 64]    --                   [16, 32, 64, 64]          --
│    │    │    │    └─BatchNorm2d (norm1): 5-43         [16, 160, 64, 64]    --                   [16, 160, 64, 64]      0.00%
│    │    │    │    └─ReLU (relu1): 5-44                [16, 160, 64, 64]    --                   [16, 160, 64, 64]         --
│    │    │    │    └─Conv2d (conv1): 5-45              [16, 160, 64, 64]    [1, 1]               [16, 128, 64, 64]      0.07%
│    │    │    │    └─BatchNorm2d (norm2): 5-46         [16, 128, 64, 64]    --                   [16, 128, 64, 64]      0.00%
│    │    │    │    └─ReLU (relu2): 5-47                [16, 128, 64, 64]    --                   [16, 128, 64, 64]         --
│    │    │    │    └─Conv2d (conv2): 5-48              [16, 128, 64, 64]    [3, 3]               [16, 32, 64, 64]       0.13%
│    │    │    └─_DenseLayer (denselayer3): 4-13        [16, 128, 64, 64]    --                   [16, 32, 64, 64]          --
│    │    │    │    └─BatchNorm2d (norm1): 5-49         [16, 192, 64, 64]    --                   [16, 192, 64, 64]      0.00%
│    │    │    │    └─ReLU (relu1): 5-50                [16, 192, 64, 64]    --                   [16, 192, 64, 64]         --
│    │    │    │    └─Conv2d (conv1): 5-51              [16, 192, 64, 64]    [1, 1]               [16, 128, 64, 64]      0.09%
│    │    │    │    └─BatchNorm2d (norm2): 5-52         [16, 128, 64, 64]    --                   [16, 128, 64, 64]      0.00%
│    │    │    │    └─ReLU (relu2): 5-53                [16, 128, 64, 64]    --                   [16, 128, 64, 64]         --
│    │    │    │    └─Conv2d (conv2): 5-54              [16, 128, 64, 64]    [3, 3]               [16, 32, 64, 64]       0.13%
│    │    │    └─_DenseLayer (denselayer4): 4-14        [16, 128, 64, 64]    --                   [16, 32, 64, 64]          --
│    │    │    │    └─BatchNorm2d (norm1): 5-55         [16, 224, 64, 64]    --                   [16, 224, 64, 64]      0.00%
│    │    │    │    └─ReLU (relu1): 5-56                [16, 224, 64, 64]    --                   [16, 224, 64, 64]         --
│    │    │    │    └─Conv2d (conv1): 5-57              [16, 224, 64, 64]    [1, 1]               [16, 128, 64, 64]      0.10%
│    │    │    │    └─BatchNorm2d (norm2): 5-58         [16, 128, 64, 64]    --                   [16, 128, 64, 64]      0.00%
│    │    │    │    └─ReLU (relu2): 5-59                [16, 128, 64, 64]    --                   [16, 128, 64, 64]         --
│    │    │    │    └─Conv2d (conv2): 5-60              [16, 128, 64, 64]    [3, 3]               [16, 32, 64, 64]       0.13%
│    │    │    └─_DenseLayer (denselayer5): 4-15        [16, 128, 64, 64]    --                   [16, 32, 64, 64]          --
│    │    │    │    └─BatchNorm2d (norm1): 5-61         [16, 256, 64, 64]    --                   [16, 256, 64, 64]      0.00%
│    │    │    │    └─ReLU (relu1): 5-62                [16, 256, 64, 64]    --                   [16, 256, 64, 64]         --
│    │    │    │    └─Conv2d (conv1): 5-63              [16, 256, 64, 64]    [1, 1]               [16, 128, 64, 64]      0.11%
│    │    │    │    └─BatchNorm2d (norm2): 5-64         [16, 128, 64, 64]    --                   [16, 128, 64, 64]      0.00%
│    │    │    │    └─ReLU (relu2): 5-65                [16, 128, 64, 64]    --                   [16, 128, 64, 64]         --
│    │    │    │    └─Conv2d (conv2): 5-66              [16, 128, 64, 64]    [3, 3]               [16, 32, 64, 64]       0.13%
│    │    │    └─_DenseLayer (denselayer6): 4-16        [16, 128, 64, 64]    --                   [16, 32, 64, 64]          --
│    │    │    │    └─BatchNorm2d (norm1): 5-67         [16, 288, 64, 64]    --                   [16, 288, 64, 64]      0.00%
│    │    │    │    └─ReLU (relu1): 5-68                [16, 288, 64, 64]    --                   [16, 288, 64, 64]         --
│    │    │    │    └─Conv2d (conv1): 5-69              [16, 288, 64, 64]    [1, 1]               [16, 128, 64, 64]      0.13%
│    │    │    │    └─BatchNorm2d (norm2): 5-70         [16, 128, 64, 64]    --                   [16, 128, 64, 64]      0.00%
│    │    │    │    └─ReLU (relu2): 5-71                [16, 128, 64, 64]    --                   [16, 128, 64, 64]         --
│    │    │    │    └─Conv2d (conv2): 5-72              [16, 128, 64, 64]    [3, 3]               [16, 32, 64, 64]       0.13%
│    │    │    └─_DenseLayer (denselayer7): 4-17        [16, 128, 64, 64]    --                   [16, 32, 64, 64]          --
│    │    │    │    └─BatchNorm2d (norm1): 5-73         [16, 320, 64, 64]    --                   [16, 320, 64, 64]      0.00%
│    │    │    │    └─ReLU (relu1): 5-74                [16, 320, 64, 64]    --                   [16, 320, 64, 64]         --
│    │    │    │    └─Conv2d (conv1): 5-75              [16, 320, 64, 64]    [1, 1]               [16, 128, 64, 64]      0.14%
│    │    │    │    └─BatchNorm2d (norm2): 5-76         [16, 128, 64, 64]    --                   [16, 128, 64, 64]      0.00%
│    │    │    │    └─ReLU (relu2): 5-77                [16, 128, 64, 64]    --                   [16, 128, 64, 64]         --
│    │    │    │    └─Conv2d (conv2): 5-78              [16, 128, 64, 64]    [3, 3]               [16, 32, 64, 64]       0.13%
│    │    │    └─_DenseLayer (denselayer8): 4-18        [16, 128, 64, 64]    --                   [16, 32, 64, 64]          --
│    │    │    │    └─BatchNorm2d (norm1): 5-79         [16, 352, 64, 64]    --                   [16, 352, 64, 64]      0.00%
│    │    │    │    └─ReLU (relu1): 5-80                [16, 352, 64, 64]    --                   [16, 352, 64, 64]         --
│    │    │    │    └─Conv2d (conv1): 5-81              [16, 352, 64, 64]    [1, 1]               [16, 128, 64, 64]      0.16%
│    │    │    │    └─BatchNorm2d (norm2): 5-82         [16, 128, 64, 64]    --                   [16, 128, 64, 64]      0.00%
│    │    │    │    └─ReLU (relu2): 5-83                [16, 128, 64, 64]    --                   [16, 128, 64, 64]         --
│    │    │    │    └─Conv2d (conv2): 5-84              [16, 128, 64, 64]    [3, 3]               [16, 32, 64, 64]       0.13%
│    │    │    └─_DenseLayer (denselayer9): 4-19        [16, 128, 64, 64]    --                   [16, 32, 64, 64]          --
│    │    │    │    └─BatchNorm2d (norm1): 5-85         [16, 384, 64, 64]    --                   [16, 384, 64, 64]      0.00%
│    │    │    │    └─ReLU (relu1): 5-86                [16, 384, 64, 64]    --                   [16, 384, 64, 64]         --
│    │    │    │    └─Conv2d (conv1): 5-87              [16, 384, 64, 64]    [1, 1]               [16, 128, 64, 64]      0.17%
│    │    │    │    └─BatchNorm2d (norm2): 5-88         [16, 128, 64, 64]    --                   [16, 128, 64, 64]      0.00%
│    │    │    │    └─ReLU (relu2): 5-89                [16, 128, 64, 64]    --                   [16, 128, 64, 64]         --
│    │    │    │    └─Conv2d (conv2): 5-90              [16, 128, 64, 64]    [3, 3]               [16, 32, 64, 64]       0.13%
│    │    │    └─_DenseLayer (denselayer10): 4-20       [16, 128, 64, 64]    --                   [16, 32, 64, 64]          --
│    │    │    │    └─BatchNorm2d (norm1): 5-91         [16, 416, 64, 64]    --                   [16, 416, 64, 64]      0.00%
│    │    │    │    └─ReLU (relu1): 5-92                [16, 416, 64, 64]    --                   [16, 416, 64, 64]         --
│    │    │    │    └─Conv2d (conv1): 5-93              [16, 416, 64, 64]    [1, 1]               [16, 128, 64, 64]      0.19%
│    │    │    │    └─BatchNorm2d (norm2): 5-94         [16, 128, 64, 64]    --                   [16, 128, 64, 64]      0.00%
│    │    │    │    └─ReLU (relu2): 5-95                [16, 128, 64, 64]    --                   [16, 128, 64, 64]         --
│    │    │    │    └─Conv2d (conv2): 5-96              [16, 128, 64, 64]    [3, 3]               [16, 32, 64, 64]       0.13%
│    │    │    └─_DenseLayer (denselayer11): 4-21       [16, 128, 64, 64]    --                   [16, 32, 64, 64]          --
│    │    │    │    └─BatchNorm2d (norm1): 5-97         [16, 448, 64, 64]    --                   [16, 448, 64, 64]      0.00%
│    │    │    │    └─ReLU (relu1): 5-98                [16, 448, 64, 64]    --                   [16, 448, 64, 64]         --
│    │    │    │    └─Conv2d (conv1): 5-99              [16, 448, 64, 64]    [1, 1]               [16, 128, 64, 64]      0.20%
│    │    │    │    └─BatchNorm2d (norm2): 5-100        [16, 128, 64, 64]    --                   [16, 128, 64, 64]      0.00%
│    │    │    │    └─ReLU (relu2): 5-101               [16, 128, 64, 64]    --                   [16, 128, 64, 64]         --
│    │    │    │    └─Conv2d (conv2): 5-102             [16, 128, 64, 64]    [3, 3]               [16, 32, 64, 64]       0.13%
│    │    │    └─_DenseLayer (denselayer12): 4-22       [16, 128, 64, 64]    --                   [16, 32, 64, 64]          --
│    │    │    │    └─BatchNorm2d (norm1): 5-103        [16, 480, 64, 64]    --                   [16, 480, 64, 64]      0.00%
│    │    │    │    └─ReLU (relu1): 5-104               [16, 480, 64, 64]    --                   [16, 480, 64, 64]         --
│    │    │    │    └─Conv2d (conv1): 5-105             [16, 480, 64, 64]    [1, 1]               [16, 128, 64, 64]      0.22%
│    │    │    │    └─BatchNorm2d (norm2): 5-106        [16, 128, 64, 64]    --                   [16, 128, 64, 64]      0.00%
│    │    │    │    └─ReLU (relu2): 5-107               [16, 128, 64, 64]    --                   [16, 128, 64, 64]         --
│    │    │    │    └─Conv2d (conv2): 5-108             [16, 128, 64, 64]    [3, 3]               [16, 32, 64, 64]       0.13%
│    │    └─_Transition (transition2): 3-8              --                   --                   --                        --
│    │    │    └─BatchNorm2d (norm): 4-23               [16, 512, 64, 64]    --                   [16, 512, 64, 64]      0.00%
│    │    │    └─ReLU (relu): 4-24                      [16, 512, 64, 64]    --                   [16, 512, 64, 64]         --
│    │    │    └─Conv2d (conv): 4-25                    [16, 512, 64, 64]    [1, 1]               [16, 256, 64, 64]      0.46%
│    │    │    └─AvgPool2d (pool): 4-26                 [16, 256, 64, 64]    2                    [16, 256, 32, 32]         --
│    │    └─_DenseBlock (denseblock3): 3-9              [16, 256, 32, 32]    --                   [16, 1792, 32, 32]        --
│    │    │    └─_DenseLayer (denselayer1): 4-27        [16, 256, 32, 32]    --                   [16, 32, 32, 32]          --
│    │    │    │    └─BatchNorm2d (norm1): 5-109        [16, 256, 32, 32]    --                   [16, 256, 32, 32]      0.00%
│    │    │    │    └─ReLU (relu1): 5-110               [16, 256, 32, 32]    --                   [16, 256, 32, 32]         --
│    │    │    │    └─Conv2d (conv1): 5-111             [16, 256, 32, 32]    [1, 1]               [16, 128, 32, 32]      0.11%
│    │    │    │    └─BatchNorm2d (norm2): 5-112        [16, 128, 32, 32]    --                   [16, 128, 32, 32]      0.00%
│    │    │    │    └─ReLU (relu2): 5-113               [16, 128, 32, 32]    --                   [16, 128, 32, 32]         --
│    │    │    │    └─Conv2d (conv2): 5-114             [16, 128, 32, 32]    [3, 3]               [16, 32, 32, 32]       0.13%
│    │    │    └─_DenseLayer (denselayer2): 4-28        [16, 256, 32, 32]    --                   [16, 32, 32, 32]          --
│    │    │    │    └─BatchNorm2d (norm1): 5-115        [16, 288, 32, 32]    --                   [16, 288, 32, 32]      0.00%
│    │    │    │    └─ReLU (relu1): 5-116               [16, 288, 32, 32]    --                   [16, 288, 32, 32]         --
│    │    │    │    └─Conv2d (conv1): 5-117             [16, 288, 32, 32]    [1, 1]               [16, 128, 32, 32]      0.13%
│    │    │    │    └─BatchNorm2d (norm2): 5-118        [16, 128, 32, 32]    --                   [16, 128, 32, 32]      0.00%
│    │    │    │    └─ReLU (relu2): 5-119               [16, 128, 32, 32]    --                   [16, 128, 32, 32]         --
│    │    │    │    └─Conv2d (conv2): 5-120             [16, 128, 32, 32]    [3, 3]               [16, 32, 32, 32]       0.13%
│    │    │    └─_DenseLayer (denselayer3): 4-29        [16, 256, 32, 32]    --                   [16, 32, 32, 32]          --
│    │    │    │    └─BatchNorm2d (norm1): 5-121        [16, 320, 32, 32]    --                   [16, 320, 32, 32]      0.00%
│    │    │    │    └─ReLU (relu1): 5-122               [16, 320, 32, 32]    --                   [16, 320, 32, 32]         --
│    │    │    │    └─Conv2d (conv1): 5-123             [16, 320, 32, 32]    [1, 1]               [16, 128, 32, 32]      0.14%
│    │    │    │    └─BatchNorm2d (norm2): 5-124        [16, 128, 32, 32]    --                   [16, 128, 32, 32]      0.00%
│    │    │    │    └─ReLU (relu2): 5-125               [16, 128, 32, 32]    --                   [16, 128, 32, 32]         --
│    │    │    │    └─Conv2d (conv2): 5-126             [16, 128, 32, 32]    [3, 3]               [16, 32, 32, 32]       0.13%
│    │    │    └─_DenseLayer (denselayer4): 4-30        [16, 256, 32, 32]    --                   [16, 32, 32, 32]          --
│    │    │    │    └─BatchNorm2d (norm1): 5-127        [16, 352, 32, 32]    --                   [16, 352, 32, 32]      0.00%
│    │    │    │    └─ReLU (relu1): 5-128               [16, 352, 32, 32]    --                   [16, 352, 32, 32]         --
│    │    │    │    └─Conv2d (conv1): 5-129             [16, 352, 32, 32]    [1, 1]               [16, 128, 32, 32]      0.16%
│    │    │    │    └─BatchNorm2d (norm2): 5-130        [16, 128, 32, 32]    --                   [16, 128, 32, 32]      0.00%
│    │    │    │    └─ReLU (relu2): 5-131               [16, 128, 32, 32]    --                   [16, 128, 32, 32]         --
│    │    │    │    └─Conv2d (conv2): 5-132             [16, 128, 32, 32]    [3, 3]               [16, 32, 32, 32]       0.13%
│    │    │    └─_DenseLayer (denselayer5): 4-31        [16, 256, 32, 32]    --                   [16, 32, 32, 32]          --
│    │    │    │    └─BatchNorm2d (norm1): 5-133        [16, 384, 32, 32]    --                   [16, 384, 32, 32]      0.00%
│    │    │    │    └─ReLU (relu1): 5-134               [16, 384, 32, 32]    --                   [16, 384, 32, 32]         --
│    │    │    │    └─Conv2d (conv1): 5-135             [16, 384, 32, 32]    [1, 1]               [16, 128, 32, 32]      0.17%
│    │    │    │    └─BatchNorm2d (norm2): 5-136        [16, 128, 32, 32]    --                   [16, 128, 32, 32]      0.00%
│    │    │    │    └─ReLU (relu2): 5-137               [16, 128, 32, 32]    --                   [16, 128, 32, 32]         --
│    │    │    │    └─Conv2d (conv2): 5-138             [16, 128, 32, 32]    [3, 3]               [16, 32, 32, 32]       0.13%
│    │    │    └─_DenseLayer (denselayer6): 4-32        [16, 256, 32, 32]    --                   [16, 32, 32, 32]          --
│    │    │    │    └─BatchNorm2d (norm1): 5-139        [16, 416, 32, 32]    --                   [16, 416, 32, 32]      0.00%
│    │    │    │    └─ReLU (relu1): 5-140               [16, 416, 32, 32]    --                   [16, 416, 32, 32]         --
│    │    │    │    └─Conv2d (conv1): 5-141             [16, 416, 32, 32]    [1, 1]               [16, 128, 32, 32]      0.19%
│    │    │    │    └─BatchNorm2d (norm2): 5-142        [16, 128, 32, 32]    --                   [16, 128, 32, 32]      0.00%
│    │    │    │    └─ReLU (relu2): 5-143               [16, 128, 32, 32]    --                   [16, 128, 32, 32]         --
│    │    │    │    └─Conv2d (conv2): 5-144             [16, 128, 32, 32]    [3, 3]               [16, 32, 32, 32]       0.13%
│    │    │    └─_DenseLayer (denselayer7): 4-33        [16, 256, 32, 32]    --                   [16, 32, 32, 32]          --
│    │    │    │    └─BatchNorm2d (norm1): 5-145        [16, 448, 32, 32]    --                   [16, 448, 32, 32]      0.00%
│    │    │    │    └─ReLU (relu1): 5-146               [16, 448, 32, 32]    --                   [16, 448, 32, 32]         --
│    │    │    │    └─Conv2d (conv1): 5-147             [16, 448, 32, 32]    [1, 1]               [16, 128, 32, 32]      0.20%
│    │    │    │    └─BatchNorm2d (norm2): 5-148        [16, 128, 32, 32]    --                   [16, 128, 32, 32]      0.00%
│    │    │    │    └─ReLU (relu2): 5-149               [16, 128, 32, 32]    --                   [16, 128, 32, 32]         --
│    │    │    │    └─Conv2d (conv2): 5-150             [16, 128, 32, 32]    [3, 3]               [16, 32, 32, 32]       0.13%
│    │    │    └─_DenseLayer (denselayer8): 4-34        [16, 256, 32, 32]    --                   [16, 32, 32, 32]          --
│    │    │    │    └─BatchNorm2d (norm1): 5-151        [16, 480, 32, 32]    --                   [16, 480, 32, 32]      0.00%
│    │    │    │    └─ReLU (relu1): 5-152               [16, 480, 32, 32]    --                   [16, 480, 32, 32]         --
│    │    │    │    └─Conv2d (conv1): 5-153             [16, 480, 32, 32]    [1, 1]               [16, 128, 32, 32]      0.22%
│    │    │    │    └─BatchNorm2d (norm2): 5-154        [16, 128, 32, 32]    --                   [16, 128, 32, 32]      0.00%
│    │    │    │    └─ReLU (relu2): 5-155               [16, 128, 32, 32]    --                   [16, 128, 32, 32]         --
│    │    │    │    └─Conv2d (conv2): 5-156             [16, 128, 32, 32]    [3, 3]               [16, 32, 32, 32]       0.13%
│    │    │    └─_DenseLayer (denselayer9): 4-35        [16, 256, 32, 32]    --                   [16, 32, 32, 32]          --
│    │    │    │    └─BatchNorm2d (norm1): 5-157        [16, 512, 32, 32]    --                   [16, 512, 32, 32]      0.00%
│    │    │    │    └─ReLU (relu1): 5-158               [16, 512, 32, 32]    --                   [16, 512, 32, 32]         --
│    │    │    │    └─Conv2d (conv1): 5-159             [16, 512, 32, 32]    [1, 1]               [16, 128, 32, 32]      0.23%
│    │    │    │    └─BatchNorm2d (norm2): 5-160        [16, 128, 32, 32]    --                   [16, 128, 32, 32]      0.00%
│    │    │    │    └─ReLU (relu2): 5-161               [16, 128, 32, 32]    --                   [16, 128, 32, 32]         --
│    │    │    │    └─Conv2d (conv2): 5-162             [16, 128, 32, 32]    [3, 3]               [16, 32, 32, 32]       0.13%
│    │    │    └─_DenseLayer (denselayer10): 4-36       [16, 256, 32, 32]    --                   [16, 32, 32, 32]          --
│    │    │    │    └─BatchNorm2d (norm1): 5-163        [16, 544, 32, 32]    --                   [16, 544, 32, 32]      0.00%
│    │    │    │    └─ReLU (relu1): 5-164               [16, 544, 32, 32]    --                   [16, 544, 32, 32]         --
│    │    │    │    └─Conv2d (conv1): 5-165             [16, 544, 32, 32]    [1, 1]               [16, 128, 32, 32]      0.24%
│    │    │    │    └─BatchNorm2d (norm2): 5-166        [16, 128, 32, 32]    --                   [16, 128, 32, 32]      0.00%
│    │    │    │    └─ReLU (relu2): 5-167               [16, 128, 32, 32]    --                   [16, 128, 32, 32]         --
│    │    │    │    └─Conv2d (conv2): 5-168             [16, 128, 32, 32]    [3, 3]               [16, 32, 32, 32]       0.13%
│    │    │    └─_DenseLayer (denselayer11): 4-37       [16, 256, 32, 32]    --                   [16, 32, 32, 32]          --
│    │    │    │    └─BatchNorm2d (norm1): 5-169        [16, 576, 32, 32]    --                   [16, 576, 32, 32]      0.00%
│    │    │    │    └─ReLU (relu1): 5-170               [16, 576, 32, 32]    --                   [16, 576, 32, 32]         --
│    │    │    │    └─Conv2d (conv1): 5-171             [16, 576, 32, 32]    [1, 1]               [16, 128, 32, 32]      0.26%
│    │    │    │    └─BatchNorm2d (norm2): 5-172        [16, 128, 32, 32]    --                   [16, 128, 32, 32]      0.00%
│    │    │    │    └─ReLU (relu2): 5-173               [16, 128, 32, 32]    --                   [16, 128, 32, 32]         --
│    │    │    │    └─Conv2d (conv2): 5-174             [16, 128, 32, 32]    [3, 3]               [16, 32, 32, 32]       0.13%
│    │    │    └─_DenseLayer (denselayer12): 4-38       [16, 256, 32, 32]    --                   [16, 32, 32, 32]          --
│    │    │    │    └─BatchNorm2d (norm1): 5-175        [16, 608, 32, 32]    --                   [16, 608, 32, 32]      0.00%
│    │    │    │    └─ReLU (relu1): 5-176               [16, 608, 32, 32]    --                   [16, 608, 32, 32]         --
│    │    │    │    └─Conv2d (conv1): 5-177             [16, 608, 32, 32]    [1, 1]               [16, 128, 32, 32]      0.27%
│    │    │    │    └─BatchNorm2d (norm2): 5-178        [16, 128, 32, 32]    --                   [16, 128, 32, 32]      0.00%
│    │    │    │    └─ReLU (relu2): 5-179               [16, 128, 32, 32]    --                   [16, 128, 32, 32]         --
│    │    │    │    └─Conv2d (conv2): 5-180             [16, 128, 32, 32]    [3, 3]               [16, 32, 32, 32]       0.13%
│    │    │    └─_DenseLayer (denselayer13): 4-39       [16, 256, 32, 32]    --                   [16, 32, 32, 32]          --
│    │    │    │    └─BatchNorm2d (norm1): 5-181        [16, 640, 32, 32]    --                   [16, 640, 32, 32]      0.00%
│    │    │    │    └─ReLU (relu1): 5-182               [16, 640, 32, 32]    --                   [16, 640, 32, 32]         --
│    │    │    │    └─Conv2d (conv1): 5-183             [16, 640, 32, 32]    [1, 1]               [16, 128, 32, 32]      0.29%
│    │    │    │    └─BatchNorm2d (norm2): 5-184        [16, 128, 32, 32]    --                   [16, 128, 32, 32]      0.00%
│    │    │    │    └─ReLU (relu2): 5-185               [16, 128, 32, 32]    --                   [16, 128, 32, 32]         --
│    │    │    │    └─Conv2d (conv2): 5-186             [16, 128, 32, 32]    [3, 3]               [16, 32, 32, 32]       0.13%
│    │    │    └─_DenseLayer (denselayer14): 4-40       [16, 256, 32, 32]    --                   [16, 32, 32, 32]          --
│    │    │    │    └─BatchNorm2d (norm1): 5-187        [16, 672, 32, 32]    --                   [16, 672, 32, 32]      0.00%
│    │    │    │    └─ReLU (relu1): 5-188               [16, 672, 32, 32]    --                   [16, 672, 32, 32]         --
│    │    │    │    └─Conv2d (conv1): 5-189             [16, 672, 32, 32]    [1, 1]               [16, 128, 32, 32]      0.30%
│    │    │    │    └─BatchNorm2d (norm2): 5-190        [16, 128, 32, 32]    --                   [16, 128, 32, 32]      0.00%
│    │    │    │    └─ReLU (relu2): 5-191               [16, 128, 32, 32]    --                   [16, 128, 32, 32]         --
│    │    │    │    └─Conv2d (conv2): 5-192             [16, 128, 32, 32]    [3, 3]               [16, 32, 32, 32]       0.13%
│    │    │    └─_DenseLayer (denselayer15): 4-41       [16, 256, 32, 32]    --                   [16, 32, 32, 32]          --
│    │    │    │    └─BatchNorm2d (norm1): 5-193        [16, 704, 32, 32]    --                   [16, 704, 32, 32]      0.00%
│    │    │    │    └─ReLU (relu1): 5-194               [16, 704, 32, 32]    --                   [16, 704, 32, 32]         --
│    │    │    │    └─Conv2d (conv1): 5-195             [16, 704, 32, 32]    [1, 1]               [16, 128, 32, 32]      0.32%
│    │    │    │    └─BatchNorm2d (norm2): 5-196        [16, 128, 32, 32]    --                   [16, 128, 32, 32]      0.00%
│    │    │    │    └─ReLU (relu2): 5-197               [16, 128, 32, 32]    --                   [16, 128, 32, 32]         --
│    │    │    │    └─Conv2d (conv2): 5-198             [16, 128, 32, 32]    [3, 3]               [16, 32, 32, 32]       0.13%
│    │    │    └─_DenseLayer (denselayer16): 4-42       [16, 256, 32, 32]    --                   [16, 32, 32, 32]          --
│    │    │    │    └─BatchNorm2d (norm1): 5-199        [16, 736, 32, 32]    --                   [16, 736, 32, 32]      0.01%
│    │    │    │    └─ReLU (relu1): 5-200               [16, 736, 32, 32]    --                   [16, 736, 32, 32]         --
│    │    │    │    └─Conv2d (conv1): 5-201             [16, 736, 32, 32]    [1, 1]               [16, 128, 32, 32]      0.33%
│    │    │    │    └─BatchNorm2d (norm2): 5-202        [16, 128, 32, 32]    --                   [16, 128, 32, 32]      0.00%
│    │    │    │    └─ReLU (relu2): 5-203               [16, 128, 32, 32]    --                   [16, 128, 32, 32]         --
│    │    │    │    └─Conv2d (conv2): 5-204             [16, 128, 32, 32]    [3, 3]               [16, 32, 32, 32]       0.13%
│    │    │    └─_DenseLayer (denselayer17): 4-43       [16, 256, 32, 32]    --                   [16, 32, 32, 32]          --
│    │    │    │    └─BatchNorm2d (norm1): 5-205        [16, 768, 32, 32]    --                   [16, 768, 32, 32]      0.01%
│    │    │    │    └─ReLU (relu1): 5-206               [16, 768, 32, 32]    --                   [16, 768, 32, 32]         --
│    │    │    │    └─Conv2d (conv1): 5-207             [16, 768, 32, 32]    [1, 1]               [16, 128, 32, 32]      0.34%
│    │    │    │    └─BatchNorm2d (norm2): 5-208        [16, 128, 32, 32]    --                   [16, 128, 32, 32]      0.00%
│    │    │    │    └─ReLU (relu2): 5-209               [16, 128, 32, 32]    --                   [16, 128, 32, 32]         --
│    │    │    │    └─Conv2d (conv2): 5-210             [16, 128, 32, 32]    [3, 3]               [16, 32, 32, 32]       0.13%
│    │    │    └─_DenseLayer (denselayer18): 4-44       [16, 256, 32, 32]    --                   [16, 32, 32, 32]          --
│    │    │    │    └─BatchNorm2d (norm1): 5-211        [16, 800, 32, 32]    --                   [16, 800, 32, 32]      0.01%
│    │    │    │    └─ReLU (relu1): 5-212               [16, 800, 32, 32]    --                   [16, 800, 32, 32]         --
│    │    │    │    └─Conv2d (conv1): 5-213             [16, 800, 32, 32]    [1, 1]               [16, 128, 32, 32]      0.36%
│    │    │    │    └─BatchNorm2d (norm2): 5-214        [16, 128, 32, 32]    --                   [16, 128, 32, 32]      0.00%
│    │    │    │    └─ReLU (relu2): 5-215               [16, 128, 32, 32]    --                   [16, 128, 32, 32]         --
│    │    │    │    └─Conv2d (conv2): 5-216             [16, 128, 32, 32]    [3, 3]               [16, 32, 32, 32]       0.13%
│    │    │    └─_DenseLayer (denselayer19): 4-45       [16, 256, 32, 32]    --                   [16, 32, 32, 32]          --
│    │    │    │    └─BatchNorm2d (norm1): 5-217        [16, 832, 32, 32]    --                   [16, 832, 32, 32]      0.01%
│    │    │    │    └─ReLU (relu1): 5-218               [16, 832, 32, 32]    --                   [16, 832, 32, 32]         --
│    │    │    │    └─Conv2d (conv1): 5-219             [16, 832, 32, 32]    [1, 1]               [16, 128, 32, 32]      0.37%
│    │    │    │    └─BatchNorm2d (norm2): 5-220        [16, 128, 32, 32]    --                   [16, 128, 32, 32]      0.00%
│    │    │    │    └─ReLU (relu2): 5-221               [16, 128, 32, 32]    --                   [16, 128, 32, 32]         --
│    │    │    │    └─Conv2d (conv2): 5-222             [16, 128, 32, 32]    [3, 3]               [16, 32, 32, 32]       0.13%
│    │    │    └─_DenseLayer (denselayer20): 4-46       [16, 256, 32, 32]    --                   [16, 32, 32, 32]          --
│    │    │    │    └─BatchNorm2d (norm1): 5-223        [16, 864, 32, 32]    --                   [16, 864, 32, 32]      0.01%
│    │    │    │    └─ReLU (relu1): 5-224               [16, 864, 32, 32]    --                   [16, 864, 32, 32]         --
│    │    │    │    └─Conv2d (conv1): 5-225             [16, 864, 32, 32]    [1, 1]               [16, 128, 32, 32]      0.39%
│    │    │    │    └─BatchNorm2d (norm2): 5-226        [16, 128, 32, 32]    --                   [16, 128, 32, 32]      0.00%
│    │    │    │    └─ReLU (relu2): 5-227               [16, 128, 32, 32]    --                   [16, 128, 32, 32]         --
│    │    │    │    └─Conv2d (conv2): 5-228             [16, 128, 32, 32]    [3, 3]               [16, 32, 32, 32]       0.13%
│    │    │    └─_DenseLayer (denselayer21): 4-47       [16, 256, 32, 32]    --                   [16, 32, 32, 32]          --
│    │    │    │    └─BatchNorm2d (norm1): 5-229        [16, 896, 32, 32]    --                   [16, 896, 32, 32]      0.01%
│    │    │    │    └─ReLU (relu1): 5-230               [16, 896, 32, 32]    --                   [16, 896, 32, 32]         --
│    │    │    │    └─Conv2d (conv1): 5-231             [16, 896, 32, 32]    [1, 1]               [16, 128, 32, 32]      0.40%
│    │    │    │    └─BatchNorm2d (norm2): 5-232        [16, 128, 32, 32]    --                   [16, 128, 32, 32]      0.00%
│    │    │    │    └─ReLU (relu2): 5-233               [16, 128, 32, 32]    --                   [16, 128, 32, 32]         --
│    │    │    │    └─Conv2d (conv2): 5-234             [16, 128, 32, 32]    [3, 3]               [16, 32, 32, 32]       0.13%
│    │    │    └─_DenseLayer (denselayer22): 4-48       [16, 256, 32, 32]    --                   [16, 32, 32, 32]          --
│    │    │    │    └─BatchNorm2d (norm1): 5-235        [16, 928, 32, 32]    --                   [16, 928, 32, 32]      0.01%
│    │    │    │    └─ReLU (relu1): 5-236               [16, 928, 32, 32]    --                   [16, 928, 32, 32]         --
│    │    │    │    └─Conv2d (conv1): 5-237             [16, 928, 32, 32]    [1, 1]               [16, 128, 32, 32]      0.42%
│    │    │    │    └─BatchNorm2d (norm2): 5-238        [16, 128, 32, 32]    --                   [16, 128, 32, 32]      0.00%
│    │    │    │    └─ReLU (relu2): 5-239               [16, 128, 32, 32]    --                   [16, 128, 32, 32]         --
│    │    │    │    └─Conv2d (conv2): 5-240             [16, 128, 32, 32]    [3, 3]               [16, 32, 32, 32]       0.13%
│    │    │    └─_DenseLayer (denselayer23): 4-49       [16, 256, 32, 32]    --                   [16, 32, 32, 32]          --
│    │    │    │    └─BatchNorm2d (norm1): 5-241        [16, 960, 32, 32]    --                   [16, 960, 32, 32]      0.01%
│    │    │    │    └─ReLU (relu1): 5-242               [16, 960, 32, 32]    --                   [16, 960, 32, 32]         --
│    │    │    │    └─Conv2d (conv1): 5-243             [16, 960, 32, 32]    [1, 1]               [16, 128, 32, 32]      0.43%
│    │    │    │    └─BatchNorm2d (norm2): 5-244        [16, 128, 32, 32]    --                   [16, 128, 32, 32]      0.00%
│    │    │    │    └─ReLU (relu2): 5-245               [16, 128, 32, 32]    --                   [16, 128, 32, 32]         --
│    │    │    │    └─Conv2d (conv2): 5-246             [16, 128, 32, 32]    [3, 3]               [16, 32, 32, 32]       0.13%
│    │    │    └─_DenseLayer (denselayer24): 4-50       [16, 256, 32, 32]    --                   [16, 32, 32, 32]          --
│    │    │    │    └─BatchNorm2d (norm1): 5-247        [16, 992, 32, 32]    --                   [16, 992, 32, 32]      0.01%
│    │    │    │    └─ReLU (relu1): 5-248               [16, 992, 32, 32]    --                   [16, 992, 32, 32]         --
│    │    │    │    └─Conv2d (conv1): 5-249             [16, 992, 32, 32]    [1, 1]               [16, 128, 32, 32]      0.44%
│    │    │    │    └─BatchNorm2d (norm2): 5-250        [16, 128, 32, 32]    --                   [16, 128, 32, 32]      0.00%
│    │    │    │    └─ReLU (relu2): 5-251               [16, 128, 32, 32]    --                   [16, 128, 32, 32]         --
│    │    │    │    └─Conv2d (conv2): 5-252             [16, 128, 32, 32]    [3, 3]               [16, 32, 32, 32]       0.13%
│    │    │    └─_DenseLayer (denselayer25): 4-51       [16, 256, 32, 32]    --                   [16, 32, 32, 32]          --
│    │    │    │    └─BatchNorm2d (norm1): 5-253        [16, 1024, 32, 32]   --                   [16, 1024, 32, 32]     0.01%
│    │    │    │    └─ReLU (relu1): 5-254               [16, 1024, 32, 32]   --                   [16, 1024, 32, 32]        --
│    │    │    │    └─Conv2d (conv1): 5-255             [16, 1024, 32, 32]   [1, 1]               [16, 128, 32, 32]      0.46%
│    │    │    │    └─BatchNorm2d (norm2): 5-256        [16, 128, 32, 32]    --                   [16, 128, 32, 32]      0.00%
│    │    │    │    └─ReLU (relu2): 5-257               [16, 128, 32, 32]    --                   [16, 128, 32, 32]         --
│    │    │    │    └─Conv2d (conv2): 5-258             [16, 128, 32, 32]    [3, 3]               [16, 32, 32, 32]       0.13%
│    │    │    └─_DenseLayer (denselayer26): 4-52       [16, 256, 32, 32]    --                   [16, 32, 32, 32]          --
│    │    │    │    └─BatchNorm2d (norm1): 5-259        [16, 1056, 32, 32]   --                   [16, 1056, 32, 32]     0.01%
│    │    │    │    └─ReLU (relu1): 5-260               [16, 1056, 32, 32]   --                   [16, 1056, 32, 32]        --
│    │    │    │    └─Conv2d (conv1): 5-261             [16, 1056, 32, 32]   [1, 1]               [16, 128, 32, 32]      0.47%
│    │    │    │    └─BatchNorm2d (norm2): 5-262        [16, 128, 32, 32]    --                   [16, 128, 32, 32]      0.00%
│    │    │    │    └─ReLU (relu2): 5-263               [16, 128, 32, 32]    --                   [16, 128, 32, 32]         --
│    │    │    │    └─Conv2d (conv2): 5-264             [16, 128, 32, 32]    [3, 3]               [16, 32, 32, 32]       0.13%
│    │    │    └─_DenseLayer (denselayer27): 4-53       [16, 256, 32, 32]    --                   [16, 32, 32, 32]          --
│    │    │    │    └─BatchNorm2d (norm1): 5-265        [16, 1088, 32, 32]   --                   [16, 1088, 32, 32]     0.01%
│    │    │    │    └─ReLU (relu1): 5-266               [16, 1088, 32, 32]   --                   [16, 1088, 32, 32]        --
│    │    │    │    └─Conv2d (conv1): 5-267             [16, 1088, 32, 32]   [1, 1]               [16, 128, 32, 32]      0.49%
│    │    │    │    └─BatchNorm2d (norm2): 5-268        [16, 128, 32, 32]    --                   [16, 128, 32, 32]      0.00%
│    │    │    │    └─ReLU (relu2): 5-269               [16, 128, 32, 32]    --                   [16, 128, 32, 32]         --
│    │    │    │    └─Conv2d (conv2): 5-270             [16, 128, 32, 32]    [3, 3]               [16, 32, 32, 32]       0.13%
│    │    │    └─_DenseLayer (denselayer28): 4-54       [16, 256, 32, 32]    --                   [16, 32, 32, 32]          --
│    │    │    │    └─BatchNorm2d (norm1): 5-271        [16, 1120, 32, 32]   --                   [16, 1120, 32, 32]     0.01%
│    │    │    │    └─ReLU (relu1): 5-272               [16, 1120, 32, 32]   --                   [16, 1120, 32, 32]        --
│    │    │    │    └─Conv2d (conv1): 5-273             [16, 1120, 32, 32]   [1, 1]               [16, 128, 32, 32]      0.50%
│    │    │    │    └─BatchNorm2d (norm2): 5-274        [16, 128, 32, 32]    --                   [16, 128, 32, 32]      0.00%
│    │    │    │    └─ReLU (relu2): 5-275               [16, 128, 32, 32]    --                   [16, 128, 32, 32]         --
│    │    │    │    └─Conv2d (conv2): 5-276             [16, 128, 32, 32]    [3, 3]               [16, 32, 32, 32]       0.13%
│    │    │    └─_DenseLayer (denselayer29): 4-55       [16, 256, 32, 32]    --                   [16, 32, 32, 32]          --
│    │    │    │    └─BatchNorm2d (norm1): 5-277        [16, 1152, 32, 32]   --                   [16, 1152, 32, 32]     0.01%
│    │    │    │    └─ReLU (relu1): 5-278               [16, 1152, 32, 32]   --                   [16, 1152, 32, 32]        --
│    │    │    │    └─Conv2d (conv1): 5-279             [16, 1152, 32, 32]   [1, 1]               [16, 128, 32, 32]      0.52%
│    │    │    │    └─BatchNorm2d (norm2): 5-280        [16, 128, 32, 32]    --                   [16, 128, 32, 32]      0.00%
│    │    │    │    └─ReLU (relu2): 5-281               [16, 128, 32, 32]    --                   [16, 128, 32, 32]         --
│    │    │    │    └─Conv2d (conv2): 5-282             [16, 128, 32, 32]    [3, 3]               [16, 32, 32, 32]       0.13%
│    │    │    └─_DenseLayer (denselayer30): 4-56       [16, 256, 32, 32]    --                   [16, 32, 32, 32]          --
│    │    │    │    └─BatchNorm2d (norm1): 5-283        [16, 1184, 32, 32]   --                   [16, 1184, 32, 32]     0.01%
│    │    │    │    └─ReLU (relu1): 5-284               [16, 1184, 32, 32]   --                   [16, 1184, 32, 32]        --
│    │    │    │    └─Conv2d (conv1): 5-285             [16, 1184, 32, 32]   [1, 1]               [16, 128, 32, 32]      0.53%
│    │    │    │    └─BatchNorm2d (norm2): 5-286        [16, 128, 32, 32]    --                   [16, 128, 32, 32]      0.00%
│    │    │    │    └─ReLU (relu2): 5-287               [16, 128, 32, 32]    --                   [16, 128, 32, 32]         --
│    │    │    │    └─Conv2d (conv2): 5-288             [16, 128, 32, 32]    [3, 3]               [16, 32, 32, 32]       0.13%
│    │    │    └─_DenseLayer (denselayer31): 4-57       [16, 256, 32, 32]    --                   [16, 32, 32, 32]          --
│    │    │    │    └─BatchNorm2d (norm1): 5-289        [16, 1216, 32, 32]   --                   [16, 1216, 32, 32]     0.01%
│    │    │    │    └─ReLU (relu1): 5-290               [16, 1216, 32, 32]   --                   [16, 1216, 32, 32]        --
│    │    │    │    └─Conv2d (conv1): 5-291             [16, 1216, 32, 32]   [1, 1]               [16, 128, 32, 32]      0.54%
│    │    │    │    └─BatchNorm2d (norm2): 5-292        [16, 128, 32, 32]    --                   [16, 128, 32, 32]      0.00%
│    │    │    │    └─ReLU (relu2): 5-293               [16, 128, 32, 32]    --                   [16, 128, 32, 32]         --
│    │    │    │    └─Conv2d (conv2): 5-294             [16, 128, 32, 32]    [3, 3]               [16, 32, 32, 32]       0.13%
│    │    │    └─_DenseLayer (denselayer32): 4-58       [16, 256, 32, 32]    --                   [16, 32, 32, 32]          --
│    │    │    │    └─BatchNorm2d (norm1): 5-295        [16, 1248, 32, 32]   --                   [16, 1248, 32, 32]     0.01%
│    │    │    │    └─ReLU (relu1): 5-296               [16, 1248, 32, 32]   --                   [16, 1248, 32, 32]        --
│    │    │    │    └─Conv2d (conv1): 5-297             [16, 1248, 32, 32]   [1, 1]               [16, 128, 32, 32]      0.56%
│    │    │    │    └─BatchNorm2d (norm2): 5-298        [16, 128, 32, 32]    --                   [16, 128, 32, 32]      0.00%
│    │    │    │    └─ReLU (relu2): 5-299               [16, 128, 32, 32]    --                   [16, 128, 32, 32]         --
│    │    │    │    └─Conv2d (conv2): 5-300             [16, 128, 32, 32]    [3, 3]               [16, 32, 32, 32]       0.13%
│    │    │    └─_DenseLayer (denselayer33): 4-59       [16, 256, 32, 32]    --                   [16, 32, 32, 32]          --
│    │    │    │    └─BatchNorm2d (norm1): 5-301        [16, 1280, 32, 32]   --                   [16, 1280, 32, 32]     0.01%
│    │    │    │    └─ReLU (relu1): 5-302               [16, 1280, 32, 32]   --                   [16, 1280, 32, 32]        --
│    │    │    │    └─Conv2d (conv1): 5-303             [16, 1280, 32, 32]   [1, 1]               [16, 128, 32, 32]      0.57%
│    │    │    │    └─BatchNorm2d (norm2): 5-304        [16, 128, 32, 32]    --                   [16, 128, 32, 32]      0.00%
│    │    │    │    └─ReLU (relu2): 5-305               [16, 128, 32, 32]    --                   [16, 128, 32, 32]         --
│    │    │    │    └─Conv2d (conv2): 5-306             [16, 128, 32, 32]    [3, 3]               [16, 32, 32, 32]       0.13%
│    │    │    └─_DenseLayer (denselayer34): 4-60       [16, 256, 32, 32]    --                   [16, 32, 32, 32]          --
│    │    │    │    └─BatchNorm2d (norm1): 5-307        [16, 1312, 32, 32]   --                   [16, 1312, 32, 32]     0.01%
│    │    │    │    └─ReLU (relu1): 5-308               [16, 1312, 32, 32]   --                   [16, 1312, 32, 32]        --
│    │    │    │    └─Conv2d (conv1): 5-309             [16, 1312, 32, 32]   [1, 1]               [16, 128, 32, 32]      0.59%
│    │    │    │    └─BatchNorm2d (norm2): 5-310        [16, 128, 32, 32]    --                   [16, 128, 32, 32]      0.00%
│    │    │    │    └─ReLU (relu2): 5-311               [16, 128, 32, 32]    --                   [16, 128, 32, 32]         --
│    │    │    │    └─Conv2d (conv2): 5-312             [16, 128, 32, 32]    [3, 3]               [16, 32, 32, 32]       0.13%
│    │    │    └─_DenseLayer (denselayer35): 4-61       [16, 256, 32, 32]    --                   [16, 32, 32, 32]          --
│    │    │    │    └─BatchNorm2d (norm1): 5-313        [16, 1344, 32, 32]   --                   [16, 1344, 32, 32]     0.01%
│    │    │    │    └─ReLU (relu1): 5-314               [16, 1344, 32, 32]   --                   [16, 1344, 32, 32]        --
│    │    │    │    └─Conv2d (conv1): 5-315             [16, 1344, 32, 32]   [1, 1]               [16, 128, 32, 32]      0.60%
│    │    │    │    └─BatchNorm2d (norm2): 5-316        [16, 128, 32, 32]    --                   [16, 128, 32, 32]      0.00%
│    │    │    │    └─ReLU (relu2): 5-317               [16, 128, 32, 32]    --                   [16, 128, 32, 32]         --
│    │    │    │    └─Conv2d (conv2): 5-318             [16, 128, 32, 32]    [3, 3]               [16, 32, 32, 32]       0.13%
│    │    │    └─_DenseLayer (denselayer36): 4-62       [16, 256, 32, 32]    --                   [16, 32, 32, 32]          --
│    │    │    │    └─BatchNorm2d (norm1): 5-319        [16, 1376, 32, 32]   --                   [16, 1376, 32, 32]     0.01%
│    │    │    │    └─ReLU (relu1): 5-320               [16, 1376, 32, 32]   --                   [16, 1376, 32, 32]        --
│    │    │    │    └─Conv2d (conv1): 5-321             [16, 1376, 32, 32]   [1, 1]               [16, 128, 32, 32]      0.62%
│    │    │    │    └─BatchNorm2d (norm2): 5-322        [16, 128, 32, 32]    --                   [16, 128, 32, 32]      0.00%
│    │    │    │    └─ReLU (relu2): 5-323               [16, 128, 32, 32]    --                   [16, 128, 32, 32]         --
│    │    │    │    └─Conv2d (conv2): 5-324             [16, 128, 32, 32]    [3, 3]               [16, 32, 32, 32]       0.13%
│    │    │    └─_DenseLayer (denselayer37): 4-63       [16, 256, 32, 32]    --                   [16, 32, 32, 32]          --
│    │    │    │    └─BatchNorm2d (norm1): 5-325        [16, 1408, 32, 32]   --                   [16, 1408, 32, 32]     0.01%
│    │    │    │    └─ReLU (relu1): 5-326               [16, 1408, 32, 32]   --                   [16, 1408, 32, 32]        --
│    │    │    │    └─Conv2d (conv1): 5-327             [16, 1408, 32, 32]   [1, 1]               [16, 128, 32, 32]      0.63%
│    │    │    │    └─BatchNorm2d (norm2): 5-328        [16, 128, 32, 32]    --                   [16, 128, 32, 32]      0.00%
│    │    │    │    └─ReLU (relu2): 5-329               [16, 128, 32, 32]    --                   [16, 128, 32, 32]         --
│    │    │    │    └─Conv2d (conv2): 5-330             [16, 128, 32, 32]    [3, 3]               [16, 32, 32, 32]       0.13%
│    │    │    └─_DenseLayer (denselayer38): 4-64       [16, 256, 32, 32]    --                   [16, 32, 32, 32]          --
│    │    │    │    └─BatchNorm2d (norm1): 5-331        [16, 1440, 32, 32]   --                   [16, 1440, 32, 32]     0.01%
│    │    │    │    └─ReLU (relu1): 5-332               [16, 1440, 32, 32]   --                   [16, 1440, 32, 32]        --
│    │    │    │    └─Conv2d (conv1): 5-333             [16, 1440, 32, 32]   [1, 1]               [16, 128, 32, 32]      0.65%
│    │    │    │    └─BatchNorm2d (norm2): 5-334        [16, 128, 32, 32]    --                   [16, 128, 32, 32]      0.00%
│    │    │    │    └─ReLU (relu2): 5-335               [16, 128, 32, 32]    --                   [16, 128, 32, 32]         --
│    │    │    │    └─Conv2d (conv2): 5-336             [16, 128, 32, 32]    [3, 3]               [16, 32, 32, 32]       0.13%
│    │    │    └─_DenseLayer (denselayer39): 4-65       [16, 256, 32, 32]    --                   [16, 32, 32, 32]          --
│    │    │    │    └─BatchNorm2d (norm1): 5-337        [16, 1472, 32, 32]   --                   [16, 1472, 32, 32]     0.01%
│    │    │    │    └─ReLU (relu1): 5-338               [16, 1472, 32, 32]   --                   [16, 1472, 32, 32]        --
│    │    │    │    └─Conv2d (conv1): 5-339             [16, 1472, 32, 32]   [1, 1]               [16, 128, 32, 32]      0.66%
│    │    │    │    └─BatchNorm2d (norm2): 5-340        [16, 128, 32, 32]    --                   [16, 128, 32, 32]      0.00%
│    │    │    │    └─ReLU (relu2): 5-341               [16, 128, 32, 32]    --                   [16, 128, 32, 32]         --
│    │    │    │    └─Conv2d (conv2): 5-342             [16, 128, 32, 32]    [3, 3]               [16, 32, 32, 32]       0.13%
│    │    │    └─_DenseLayer (denselayer40): 4-66       [16, 256, 32, 32]    --                   [16, 32, 32, 32]          --
│    │    │    │    └─BatchNorm2d (norm1): 5-343        [16, 1504, 32, 32]   --                   [16, 1504, 32, 32]     0.01%
│    │    │    │    └─ReLU (relu1): 5-344               [16, 1504, 32, 32]   --                   [16, 1504, 32, 32]        --
│    │    │    │    └─Conv2d (conv1): 5-345             [16, 1504, 32, 32]   [1, 1]               [16, 128, 32, 32]      0.67%
│    │    │    │    └─BatchNorm2d (norm2): 5-346        [16, 128, 32, 32]    --                   [16, 128, 32, 32]      0.00%
│    │    │    │    └─ReLU (relu2): 5-347               [16, 128, 32, 32]    --                   [16, 128, 32, 32]         --
│    │    │    │    └─Conv2d (conv2): 5-348             [16, 128, 32, 32]    [3, 3]               [16, 32, 32, 32]       0.13%
│    │    │    └─_DenseLayer (denselayer41): 4-67       [16, 256, 32, 32]    --                   [16, 32, 32, 32]          --
│    │    │    │    └─BatchNorm2d (norm1): 5-349        [16, 1536, 32, 32]   --                   [16, 1536, 32, 32]     0.01%
│    │    │    │    └─ReLU (relu1): 5-350               [16, 1536, 32, 32]   --                   [16, 1536, 32, 32]        --
│    │    │    │    └─Conv2d (conv1): 5-351             [16, 1536, 32, 32]   [1, 1]               [16, 128, 32, 32]      0.69%
│    │    │    │    └─BatchNorm2d (norm2): 5-352        [16, 128, 32, 32]    --                   [16, 128, 32, 32]      0.00%
│    │    │    │    └─ReLU (relu2): 5-353               [16, 128, 32, 32]    --                   [16, 128, 32, 32]         --
│    │    │    │    └─Conv2d (conv2): 5-354             [16, 128, 32, 32]    [3, 3]               [16, 32, 32, 32]       0.13%
│    │    │    └─_DenseLayer (denselayer42): 4-68       [16, 256, 32, 32]    --                   [16, 32, 32, 32]          --
│    │    │    │    └─BatchNorm2d (norm1): 5-355        [16, 1568, 32, 32]   --                   [16, 1568, 32, 32]     0.01%
│    │    │    │    └─ReLU (relu1): 5-356               [16, 1568, 32, 32]   --                   [16, 1568, 32, 32]        --
│    │    │    │    └─Conv2d (conv1): 5-357             [16, 1568, 32, 32]   [1, 1]               [16, 128, 32, 32]      0.70%
│    │    │    │    └─BatchNorm2d (norm2): 5-358        [16, 128, 32, 32]    --                   [16, 128, 32, 32]      0.00%
│    │    │    │    └─ReLU (relu2): 5-359               [16, 128, 32, 32]    --                   [16, 128, 32, 32]         --
│    │    │    │    └─Conv2d (conv2): 5-360             [16, 128, 32, 32]    [3, 3]               [16, 32, 32, 32]       0.13%
│    │    │    └─_DenseLayer (denselayer43): 4-69       [16, 256, 32, 32]    --                   [16, 32, 32, 32]          --
│    │    │    │    └─BatchNorm2d (norm1): 5-361        [16, 1600, 32, 32]   --                   [16, 1600, 32, 32]     0.01%
│    │    │    │    └─ReLU (relu1): 5-362               [16, 1600, 32, 32]   --                   [16, 1600, 32, 32]        --
│    │    │    │    └─Conv2d (conv1): 5-363             [16, 1600, 32, 32]   [1, 1]               [16, 128, 32, 32]      0.72%
│    │    │    │    └─BatchNorm2d (norm2): 5-364        [16, 128, 32, 32]    --                   [16, 128, 32, 32]      0.00%
│    │    │    │    └─ReLU (relu2): 5-365               [16, 128, 32, 32]    --                   [16, 128, 32, 32]         --
│    │    │    │    └─Conv2d (conv2): 5-366             [16, 128, 32, 32]    [3, 3]               [16, 32, 32, 32]       0.13%
│    │    │    └─_DenseLayer (denselayer44): 4-70       [16, 256, 32, 32]    --                   [16, 32, 32, 32]          --
│    │    │    │    └─BatchNorm2d (norm1): 5-367        [16, 1632, 32, 32]   --                   [16, 1632, 32, 32]     0.01%
│    │    │    │    └─ReLU (relu1): 5-368               [16, 1632, 32, 32]   --                   [16, 1632, 32, 32]        --
│    │    │    │    └─Conv2d (conv1): 5-369             [16, 1632, 32, 32]   [1, 1]               [16, 128, 32, 32]      0.73%
│    │    │    │    └─BatchNorm2d (norm2): 5-370        [16, 128, 32, 32]    --                   [16, 128, 32, 32]      0.00%
│    │    │    │    └─ReLU (relu2): 5-371               [16, 128, 32, 32]    --                   [16, 128, 32, 32]         --
│    │    │    │    └─Conv2d (conv2): 5-372             [16, 128, 32, 32]    [3, 3]               [16, 32, 32, 32]       0.13%
│    │    │    └─_DenseLayer (denselayer45): 4-71       [16, 256, 32, 32]    --                   [16, 32, 32, 32]          --
│    │    │    │    └─BatchNorm2d (norm1): 5-373        [16, 1664, 32, 32]   --                   [16, 1664, 32, 32]     0.01%
│    │    │    │    └─ReLU (relu1): 5-374               [16, 1664, 32, 32]   --                   [16, 1664, 32, 32]        --
│    │    │    │    └─Conv2d (conv1): 5-375             [16, 1664, 32, 32]   [1, 1]               [16, 128, 32, 32]      0.75%
│    │    │    │    └─BatchNorm2d (norm2): 5-376        [16, 128, 32, 32]    --                   [16, 128, 32, 32]      0.00%
│    │    │    │    └─ReLU (relu2): 5-377               [16, 128, 32, 32]    --                   [16, 128, 32, 32]         --
│    │    │    │    └─Conv2d (conv2): 5-378             [16, 128, 32, 32]    [3, 3]               [16, 32, 32, 32]       0.13%
│    │    │    └─_DenseLayer (denselayer46): 4-72       [16, 256, 32, 32]    --                   [16, 32, 32, 32]          --
│    │    │    │    └─BatchNorm2d (norm1): 5-379        [16, 1696, 32, 32]   --                   [16, 1696, 32, 32]     0.01%
│    │    │    │    └─ReLU (relu1): 5-380               [16, 1696, 32, 32]   --                   [16, 1696, 32, 32]        --
│    │    │    │    └─Conv2d (conv1): 5-381             [16, 1696, 32, 32]   [1, 1]               [16, 128, 32, 32]      0.76%
│    │    │    │    └─BatchNorm2d (norm2): 5-382        [16, 128, 32, 32]    --                   [16, 128, 32, 32]      0.00%
│    │    │    │    └─ReLU (relu2): 5-383               [16, 128, 32, 32]    --                   [16, 128, 32, 32]         --
│    │    │    │    └─Conv2d (conv2): 5-384             [16, 128, 32, 32]    [3, 3]               [16, 32, 32, 32]       0.13%
│    │    │    └─_DenseLayer (denselayer47): 4-73       [16, 256, 32, 32]    --                   [16, 32, 32, 32]          --
│    │    │    │    └─BatchNorm2d (norm1): 5-385        [16, 1728, 32, 32]   --                   [16, 1728, 32, 32]     0.01%
│    │    │    │    └─ReLU (relu1): 5-386               [16, 1728, 32, 32]   --                   [16, 1728, 32, 32]        --
│    │    │    │    └─Conv2d (conv1): 5-387             [16, 1728, 32, 32]   [1, 1]               [16, 128, 32, 32]      0.77%
│    │    │    │    └─BatchNorm2d (norm2): 5-388        [16, 128, 32, 32]    --                   [16, 128, 32, 32]      0.00%
│    │    │    │    └─ReLU (relu2): 5-389               [16, 128, 32, 32]    --                   [16, 128, 32, 32]         --
│    │    │    │    └─Conv2d (conv2): 5-390             [16, 128, 32, 32]    [3, 3]               [16, 32, 32, 32]       0.13%
│    │    │    └─_DenseLayer (denselayer48): 4-74       [16, 256, 32, 32]    --                   [16, 32, 32, 32]          --
│    │    │    │    └─BatchNorm2d (norm1): 5-391        [16, 1760, 32, 32]   --                   [16, 1760, 32, 32]     0.01%
│    │    │    │    └─ReLU (relu1): 5-392               [16, 1760, 32, 32]   --                   [16, 1760, 32, 32]        --
│    │    │    │    └─Conv2d (conv1): 5-393             [16, 1760, 32, 32]   [1, 1]               [16, 128, 32, 32]      0.79%
│    │    │    │    └─BatchNorm2d (norm2): 5-394        [16, 128, 32, 32]    --                   [16, 128, 32, 32]      0.00%
│    │    │    │    └─ReLU (relu2): 5-395               [16, 128, 32, 32]    --                   [16, 128, 32, 32]         --
│    │    │    │    └─Conv2d (conv2): 5-396             [16, 128, 32, 32]    [3, 3]               [16, 32, 32, 32]       0.13%
│    │    └─_Transition (transition3): 3-10             --                   --                   --                        --
│    │    │    └─BatchNorm2d (norm): 4-75               [16, 1792, 32, 32]   --                   [16, 1792, 32, 32]     0.01%
│    │    │    └─ReLU (relu): 4-76                      [16, 1792, 32, 32]   --                   [16, 1792, 32, 32]        --
│    │    │    └─Conv2d (conv): 4-77                    [16, 1792, 32, 32]   [1, 1]               [16, 896, 32, 32]      5.62%
│    │    │    └─AvgPool2d (pool): 4-78                 [16, 896, 32, 32]    2                    [16, 896, 16, 16]         --
│    │    └─_DenseBlock (denseblock4): 3-11             [16, 896, 16, 16]    --                   [16, 1920, 16, 16]        --
│    │    │    └─_DenseLayer (denselayer1): 4-79        [16, 896, 16, 16]    --                   [16, 32, 16, 16]          --
│    │    │    │    └─BatchNorm2d (norm1): 5-397        [16, 896, 16, 16]    --                   [16, 896, 16, 16]      0.01%
│    │    │    │    └─ReLU (relu1): 5-398               [16, 896, 16, 16]    --                   [16, 896, 16, 16]         --
│    │    │    │    └─Conv2d (conv1): 5-399             [16, 896, 16, 16]    [1, 1]               [16, 128, 16, 16]      0.40%
│    │    │    │    └─BatchNorm2d (norm2): 5-400        [16, 128, 16, 16]    --                   [16, 128, 16, 16]      0.00%
│    │    │    │    └─ReLU (relu2): 5-401               [16, 128, 16, 16]    --                   [16, 128, 16, 16]         --
│    │    │    │    └─Conv2d (conv2): 5-402             [16, 128, 16, 16]    [3, 3]               [16, 32, 16, 16]       0.13%
│    │    │    └─_DenseLayer (denselayer2): 4-80        [16, 896, 16, 16]    --                   [16, 32, 16, 16]          --
│    │    │    │    └─BatchNorm2d (norm1): 5-403        [16, 928, 16, 16]    --                   [16, 928, 16, 16]      0.01%
│    │    │    │    └─ReLU (relu1): 5-404               [16, 928, 16, 16]    --                   [16, 928, 16, 16]         --
│    │    │    │    └─Conv2d (conv1): 5-405             [16, 928, 16, 16]    [1, 1]               [16, 128, 16, 16]      0.42%
│    │    │    │    └─BatchNorm2d (norm2): 5-406        [16, 128, 16, 16]    --                   [16, 128, 16, 16]      0.00%
│    │    │    │    └─ReLU (relu2): 5-407               [16, 128, 16, 16]    --                   [16, 128, 16, 16]         --
│    │    │    │    └─Conv2d (conv2): 5-408             [16, 128, 16, 16]    [3, 3]               [16, 32, 16, 16]       0.13%
│    │    │    └─_DenseLayer (denselayer3): 4-81        [16, 896, 16, 16]    --                   [16, 32, 16, 16]          --
│    │    │    │    └─BatchNorm2d (norm1): 5-409        [16, 960, 16, 16]    --                   [16, 960, 16, 16]      0.01%
│    │    │    │    └─ReLU (relu1): 5-410               [16, 960, 16, 16]    --                   [16, 960, 16, 16]         --
│    │    │    │    └─Conv2d (conv1): 5-411             [16, 960, 16, 16]    [1, 1]               [16, 128, 16, 16]      0.43%
│    │    │    │    └─BatchNorm2d (norm2): 5-412        [16, 128, 16, 16]    --                   [16, 128, 16, 16]      0.00%
│    │    │    │    └─ReLU (relu2): 5-413               [16, 128, 16, 16]    --                   [16, 128, 16, 16]         --
│    │    │    │    └─Conv2d (conv2): 5-414             [16, 128, 16, 16]    [3, 3]               [16, 32, 16, 16]       0.13%
│    │    │    └─_DenseLayer (denselayer4): 4-82        [16, 896, 16, 16]    --                   [16, 32, 16, 16]          --
│    │    │    │    └─BatchNorm2d (norm1): 5-415        [16, 992, 16, 16]    --                   [16, 992, 16, 16]      0.01%
│    │    │    │    └─ReLU (relu1): 5-416               [16, 992, 16, 16]    --                   [16, 992, 16, 16]         --
│    │    │    │    └─Conv2d (conv1): 5-417             [16, 992, 16, 16]    [1, 1]               [16, 128, 16, 16]      0.44%
│    │    │    │    └─BatchNorm2d (norm2): 5-418        [16, 128, 16, 16]    --                   [16, 128, 16, 16]      0.00%
│    │    │    │    └─ReLU (relu2): 5-419               [16, 128, 16, 16]    --                   [16, 128, 16, 16]         --
│    │    │    │    └─Conv2d (conv2): 5-420             [16, 128, 16, 16]    [3, 3]               [16, 32, 16, 16]       0.13%
│    │    │    └─_DenseLayer (denselayer5): 4-83        [16, 896, 16, 16]    --                   [16, 32, 16, 16]          --
│    │    │    │    └─BatchNorm2d (norm1): 5-421        [16, 1024, 16, 16]   --                   [16, 1024, 16, 16]     0.01%
│    │    │    │    └─ReLU (relu1): 5-422               [16, 1024, 16, 16]   --                   [16, 1024, 16, 16]        --
│    │    │    │    └─Conv2d (conv1): 5-423             [16, 1024, 16, 16]   [1, 1]               [16, 128, 16, 16]      0.46%
│    │    │    │    └─BatchNorm2d (norm2): 5-424        [16, 128, 16, 16]    --                   [16, 128, 16, 16]      0.00%
│    │    │    │    └─ReLU (relu2): 5-425               [16, 128, 16, 16]    --                   [16, 128, 16, 16]         --
│    │    │    │    └─Conv2d (conv2): 5-426             [16, 128, 16, 16]    [3, 3]               [16, 32, 16, 16]       0.13%
│    │    │    └─_DenseLayer (denselayer6): 4-84        [16, 896, 16, 16]    --                   [16, 32, 16, 16]          --
│    │    │    │    └─BatchNorm2d (norm1): 5-427        [16, 1056, 16, 16]   --                   [16, 1056, 16, 16]     0.01%
│    │    │    │    └─ReLU (relu1): 5-428               [16, 1056, 16, 16]   --                   [16, 1056, 16, 16]        --
│    │    │    │    └─Conv2d (conv1): 5-429             [16, 1056, 16, 16]   [1, 1]               [16, 128, 16, 16]      0.47%
│    │    │    │    └─BatchNorm2d (norm2): 5-430        [16, 128, 16, 16]    --                   [16, 128, 16, 16]      0.00%
│    │    │    │    └─ReLU (relu2): 5-431               [16, 128, 16, 16]    --                   [16, 128, 16, 16]         --
│    │    │    │    └─Conv2d (conv2): 5-432             [16, 128, 16, 16]    [3, 3]               [16, 32, 16, 16]       0.13%
│    │    │    └─_DenseLayer (denselayer7): 4-85        [16, 896, 16, 16]    --                   [16, 32, 16, 16]          --
│    │    │    │    └─BatchNorm2d (norm1): 5-433        [16, 1088, 16, 16]   --                   [16, 1088, 16, 16]     0.01%
│    │    │    │    └─ReLU (relu1): 5-434               [16, 1088, 16, 16]   --                   [16, 1088, 16, 16]        --
│    │    │    │    └─Conv2d (conv1): 5-435             [16, 1088, 16, 16]   [1, 1]               [16, 128, 16, 16]      0.49%
│    │    │    │    └─BatchNorm2d (norm2): 5-436        [16, 128, 16, 16]    --                   [16, 128, 16, 16]      0.00%
│    │    │    │    └─ReLU (relu2): 5-437               [16, 128, 16, 16]    --                   [16, 128, 16, 16]         --
│    │    │    │    └─Conv2d (conv2): 5-438             [16, 128, 16, 16]    [3, 3]               [16, 32, 16, 16]       0.13%
│    │    │    └─_DenseLayer (denselayer8): 4-86        [16, 896, 16, 16]    --                   [16, 32, 16, 16]          --
│    │    │    │    └─BatchNorm2d (norm1): 5-439        [16, 1120, 16, 16]   --                   [16, 1120, 16, 16]     0.01%
│    │    │    │    └─ReLU (relu1): 5-440               [16, 1120, 16, 16]   --                   [16, 1120, 16, 16]        --
│    │    │    │    └─Conv2d (conv1): 5-441             [16, 1120, 16, 16]   [1, 1]               [16, 128, 16, 16]      0.50%
│    │    │    │    └─BatchNorm2d (norm2): 5-442        [16, 128, 16, 16]    --                   [16, 128, 16, 16]      0.00%
│    │    │    │    └─ReLU (relu2): 5-443               [16, 128, 16, 16]    --                   [16, 128, 16, 16]         --
│    │    │    │    └─Conv2d (conv2): 5-444             [16, 128, 16, 16]    [3, 3]               [16, 32, 16, 16]       0.13%
│    │    │    └─_DenseLayer (denselayer9): 4-87        [16, 896, 16, 16]    --                   [16, 32, 16, 16]          --
│    │    │    │    └─BatchNorm2d (norm1): 5-445        [16, 1152, 16, 16]   --                   [16, 1152, 16, 16]     0.01%
│    │    │    │    └─ReLU (relu1): 5-446               [16, 1152, 16, 16]   --                   [16, 1152, 16, 16]        --
│    │    │    │    └─Conv2d (conv1): 5-447             [16, 1152, 16, 16]   [1, 1]               [16, 128, 16, 16]      0.52%
│    │    │    │    └─BatchNorm2d (norm2): 5-448        [16, 128, 16, 16]    --                   [16, 128, 16, 16]      0.00%
│    │    │    │    └─ReLU (relu2): 5-449               [16, 128, 16, 16]    --                   [16, 128, 16, 16]         --
│    │    │    │    └─Conv2d (conv2): 5-450             [16, 128, 16, 16]    [3, 3]               [16, 32, 16, 16]       0.13%
│    │    │    └─_DenseLayer (denselayer10): 4-88       [16, 896, 16, 16]    --                   [16, 32, 16, 16]          --
│    │    │    │    └─BatchNorm2d (norm1): 5-451        [16, 1184, 16, 16]   --                   [16, 1184, 16, 16]     0.01%
│    │    │    │    └─ReLU (relu1): 5-452               [16, 1184, 16, 16]   --                   [16, 1184, 16, 16]        --
│    │    │    │    └─Conv2d (conv1): 5-453             [16, 1184, 16, 16]   [1, 1]               [16, 128, 16, 16]      0.53%
│    │    │    │    └─BatchNorm2d (norm2): 5-454        [16, 128, 16, 16]    --                   [16, 128, 16, 16]      0.00%
│    │    │    │    └─ReLU (relu2): 5-455               [16, 128, 16, 16]    --                   [16, 128, 16, 16]         --
│    │    │    │    └─Conv2d (conv2): 5-456             [16, 128, 16, 16]    [3, 3]               [16, 32, 16, 16]       0.13%
│    │    │    └─_DenseLayer (denselayer11): 4-89       [16, 896, 16, 16]    --                   [16, 32, 16, 16]          --
│    │    │    │    └─BatchNorm2d (norm1): 5-457        [16, 1216, 16, 16]   --                   [16, 1216, 16, 16]     0.01%
│    │    │    │    └─ReLU (relu1): 5-458               [16, 1216, 16, 16]   --                   [16, 1216, 16, 16]        --
│    │    │    │    └─Conv2d (conv1): 5-459             [16, 1216, 16, 16]   [1, 1]               [16, 128, 16, 16]      0.54%
│    │    │    │    └─BatchNorm2d (norm2): 5-460        [16, 128, 16, 16]    --                   [16, 128, 16, 16]      0.00%
│    │    │    │    └─ReLU (relu2): 5-461               [16, 128, 16, 16]    --                   [16, 128, 16, 16]         --
│    │    │    │    └─Conv2d (conv2): 5-462             [16, 128, 16, 16]    [3, 3]               [16, 32, 16, 16]       0.13%
│    │    │    └─_DenseLayer (denselayer12): 4-90       [16, 896, 16, 16]    --                   [16, 32, 16, 16]          --
│    │    │    │    └─BatchNorm2d (norm1): 5-463        [16, 1248, 16, 16]   --                   [16, 1248, 16, 16]     0.01%
│    │    │    │    └─ReLU (relu1): 5-464               [16, 1248, 16, 16]   --                   [16, 1248, 16, 16]        --
│    │    │    │    └─Conv2d (conv1): 5-465             [16, 1248, 16, 16]   [1, 1]               [16, 128, 16, 16]      0.56%
│    │    │    │    └─BatchNorm2d (norm2): 5-466        [16, 128, 16, 16]    --                   [16, 128, 16, 16]      0.00%
│    │    │    │    └─ReLU (relu2): 5-467               [16, 128, 16, 16]    --                   [16, 128, 16, 16]         --
│    │    │    │    └─Conv2d (conv2): 5-468             [16, 128, 16, 16]    [3, 3]               [16, 32, 16, 16]       0.13%
│    │    │    └─_DenseLayer (denselayer13): 4-91       [16, 896, 16, 16]    --                   [16, 32, 16, 16]          --
│    │    │    │    └─BatchNorm2d (norm1): 5-469        [16, 1280, 16, 16]   --                   [16, 1280, 16, 16]     0.01%
│    │    │    │    └─ReLU (relu1): 5-470               [16, 1280, 16, 16]   --                   [16, 1280, 16, 16]        --
│    │    │    │    └─Conv2d (conv1): 5-471             [16, 1280, 16, 16]   [1, 1]               [16, 128, 16, 16]      0.57%
│    │    │    │    └─BatchNorm2d (norm2): 5-472        [16, 128, 16, 16]    --                   [16, 128, 16, 16]      0.00%
│    │    │    │    └─ReLU (relu2): 5-473               [16, 128, 16, 16]    --                   [16, 128, 16, 16]         --
│    │    │    │    └─Conv2d (conv2): 5-474             [16, 128, 16, 16]    [3, 3]               [16, 32, 16, 16]       0.13%
│    │    │    └─_DenseLayer (denselayer14): 4-92       [16, 896, 16, 16]    --                   [16, 32, 16, 16]          --
│    │    │    │    └─BatchNorm2d (norm1): 5-475        [16, 1312, 16, 16]   --                   [16, 1312, 16, 16]     0.01%
│    │    │    │    └─ReLU (relu1): 5-476               [16, 1312, 16, 16]   --                   [16, 1312, 16, 16]        --
│    │    │    │    └─Conv2d (conv1): 5-477             [16, 1312, 16, 16]   [1, 1]               [16, 128, 16, 16]      0.59%
│    │    │    │    └─BatchNorm2d (norm2): 5-478        [16, 128, 16, 16]    --                   [16, 128, 16, 16]      0.00%
│    │    │    │    └─ReLU (relu2): 5-479               [16, 128, 16, 16]    --                   [16, 128, 16, 16]         --
│    │    │    │    └─Conv2d (conv2): 5-480             [16, 128, 16, 16]    [3, 3]               [16, 32, 16, 16]       0.13%
│    │    │    └─_DenseLayer (denselayer15): 4-93       [16, 896, 16, 16]    --                   [16, 32, 16, 16]          --
│    │    │    │    └─BatchNorm2d (norm1): 5-481        [16, 1344, 16, 16]   --                   [16, 1344, 16, 16]     0.01%
│    │    │    │    └─ReLU (relu1): 5-482               [16, 1344, 16, 16]   --                   [16, 1344, 16, 16]        --
│    │    │    │    └─Conv2d (conv1): 5-483             [16, 1344, 16, 16]   [1, 1]               [16, 128, 16, 16]      0.60%
│    │    │    │    └─BatchNorm2d (norm2): 5-484        [16, 128, 16, 16]    --                   [16, 128, 16, 16]      0.00%
│    │    │    │    └─ReLU (relu2): 5-485               [16, 128, 16, 16]    --                   [16, 128, 16, 16]         --
│    │    │    │    └─Conv2d (conv2): 5-486             [16, 128, 16, 16]    [3, 3]               [16, 32, 16, 16]       0.13%
│    │    │    └─_DenseLayer (denselayer16): 4-94       [16, 896, 16, 16]    --                   [16, 32, 16, 16]          --
│    │    │    │    └─BatchNorm2d (norm1): 5-487        [16, 1376, 16, 16]   --                   [16, 1376, 16, 16]     0.01%
│    │    │    │    └─ReLU (relu1): 5-488               [16, 1376, 16, 16]   --                   [16, 1376, 16, 16]        --
│    │    │    │    └─Conv2d (conv1): 5-489             [16, 1376, 16, 16]   [1, 1]               [16, 128, 16, 16]      0.62%
│    │    │    │    └─BatchNorm2d (norm2): 5-490        [16, 128, 16, 16]    --                   [16, 128, 16, 16]      0.00%
│    │    │    │    └─ReLU (relu2): 5-491               [16, 128, 16, 16]    --                   [16, 128, 16, 16]         --
│    │    │    │    └─Conv2d (conv2): 5-492             [16, 128, 16, 16]    [3, 3]               [16, 32, 16, 16]       0.13%
│    │    │    └─_DenseLayer (denselayer17): 4-95       [16, 896, 16, 16]    --                   [16, 32, 16, 16]          --
│    │    │    │    └─BatchNorm2d (norm1): 5-493        [16, 1408, 16, 16]   --                   [16, 1408, 16, 16]     0.01%
│    │    │    │    └─ReLU (relu1): 5-494               [16, 1408, 16, 16]   --                   [16, 1408, 16, 16]        --
│    │    │    │    └─Conv2d (conv1): 5-495             [16, 1408, 16, 16]   [1, 1]               [16, 128, 16, 16]      0.63%
│    │    │    │    └─BatchNorm2d (norm2): 5-496        [16, 128, 16, 16]    --                   [16, 128, 16, 16]      0.00%
│    │    │    │    └─ReLU (relu2): 5-497               [16, 128, 16, 16]    --                   [16, 128, 16, 16]         --
│    │    │    │    └─Conv2d (conv2): 5-498             [16, 128, 16, 16]    [3, 3]               [16, 32, 16, 16]       0.13%
│    │    │    └─_DenseLayer (denselayer18): 4-96       [16, 896, 16, 16]    --                   [16, 32, 16, 16]          --
│    │    │    │    └─BatchNorm2d (norm1): 5-499        [16, 1440, 16, 16]   --                   [16, 1440, 16, 16]     0.01%
│    │    │    │    └─ReLU (relu1): 5-500               [16, 1440, 16, 16]   --                   [16, 1440, 16, 16]        --
│    │    │    │    └─Conv2d (conv1): 5-501             [16, 1440, 16, 16]   [1, 1]               [16, 128, 16, 16]      0.65%
│    │    │    │    └─BatchNorm2d (norm2): 5-502        [16, 128, 16, 16]    --                   [16, 128, 16, 16]      0.00%
│    │    │    │    └─ReLU (relu2): 5-503               [16, 128, 16, 16]    --                   [16, 128, 16, 16]         --
│    │    │    │    └─Conv2d (conv2): 5-504             [16, 128, 16, 16]    [3, 3]               [16, 32, 16, 16]       0.13%
│    │    │    └─_DenseLayer (denselayer19): 4-97       [16, 896, 16, 16]    --                   [16, 32, 16, 16]          --
│    │    │    │    └─BatchNorm2d (norm1): 5-505        [16, 1472, 16, 16]   --                   [16, 1472, 16, 16]     0.01%
│    │    │    │    └─ReLU (relu1): 5-506               [16, 1472, 16, 16]   --                   [16, 1472, 16, 16]        --
│    │    │    │    └─Conv2d (conv1): 5-507             [16, 1472, 16, 16]   [1, 1]               [16, 128, 16, 16]      0.66%
│    │    │    │    └─BatchNorm2d (norm2): 5-508        [16, 128, 16, 16]    --                   [16, 128, 16, 16]      0.00%
│    │    │    │    └─ReLU (relu2): 5-509               [16, 128, 16, 16]    --                   [16, 128, 16, 16]         --
│    │    │    │    └─Conv2d (conv2): 5-510             [16, 128, 16, 16]    [3, 3]               [16, 32, 16, 16]       0.13%
│    │    │    └─_DenseLayer (denselayer20): 4-98       [16, 896, 16, 16]    --                   [16, 32, 16, 16]          --
│    │    │    │    └─BatchNorm2d (norm1): 5-511        [16, 1504, 16, 16]   --                   [16, 1504, 16, 16]     0.01%
│    │    │    │    └─ReLU (relu1): 5-512               [16, 1504, 16, 16]   --                   [16, 1504, 16, 16]        --
│    │    │    │    └─Conv2d (conv1): 5-513             [16, 1504, 16, 16]   [1, 1]               [16, 128, 16, 16]      0.67%
│    │    │    │    └─BatchNorm2d (norm2): 5-514        [16, 128, 16, 16]    --                   [16, 128, 16, 16]      0.00%
│    │    │    │    └─ReLU (relu2): 5-515               [16, 128, 16, 16]    --                   [16, 128, 16, 16]         --
│    │    │    │    └─Conv2d (conv2): 5-516             [16, 128, 16, 16]    [3, 3]               [16, 32, 16, 16]       0.13%
│    │    │    └─_DenseLayer (denselayer21): 4-99       [16, 896, 16, 16]    --                   [16, 32, 16, 16]          --
│    │    │    │    └─BatchNorm2d (norm1): 5-517        [16, 1536, 16, 16]   --                   [16, 1536, 16, 16]     0.01%
│    │    │    │    └─ReLU (relu1): 5-518               [16, 1536, 16, 16]   --                   [16, 1536, 16, 16]        --
│    │    │    │    └─Conv2d (conv1): 5-519             [16, 1536, 16, 16]   [1, 1]               [16, 128, 16, 16]      0.69%
│    │    │    │    └─BatchNorm2d (norm2): 5-520        [16, 128, 16, 16]    --                   [16, 128, 16, 16]      0.00%
│    │    │    │    └─ReLU (relu2): 5-521               [16, 128, 16, 16]    --                   [16, 128, 16, 16]         --
│    │    │    │    └─Conv2d (conv2): 5-522             [16, 128, 16, 16]    [3, 3]               [16, 32, 16, 16]       0.13%
│    │    │    └─_DenseLayer (denselayer22): 4-100      [16, 896, 16, 16]    --                   [16, 32, 16, 16]          --
│    │    │    │    └─BatchNorm2d (norm1): 5-523        [16, 1568, 16, 16]   --                   [16, 1568, 16, 16]     0.01%
│    │    │    │    └─ReLU (relu1): 5-524               [16, 1568, 16, 16]   --                   [16, 1568, 16, 16]        --
│    │    │    │    └─Conv2d (conv1): 5-525             [16, 1568, 16, 16]   [1, 1]               [16, 128, 16, 16]      0.70%
│    │    │    │    └─BatchNorm2d (norm2): 5-526        [16, 128, 16, 16]    --                   [16, 128, 16, 16]      0.00%
│    │    │    │    └─ReLU (relu2): 5-527               [16, 128, 16, 16]    --                   [16, 128, 16, 16]         --
│    │    │    │    └─Conv2d (conv2): 5-528             [16, 128, 16, 16]    [3, 3]               [16, 32, 16, 16]       0.13%
│    │    │    └─_DenseLayer (denselayer23): 4-101      [16, 896, 16, 16]    --                   [16, 32, 16, 16]          --
│    │    │    │    └─BatchNorm2d (norm1): 5-529        [16, 1600, 16, 16]   --                   [16, 1600, 16, 16]     0.01%
│    │    │    │    └─ReLU (relu1): 5-530               [16, 1600, 16, 16]   --                   [16, 1600, 16, 16]        --
│    │    │    │    └─Conv2d (conv1): 5-531             [16, 1600, 16, 16]   [1, 1]               [16, 128, 16, 16]      0.72%
│    │    │    │    └─BatchNorm2d (norm2): 5-532        [16, 128, 16, 16]    --                   [16, 128, 16, 16]      0.00%
│    │    │    │    └─ReLU (relu2): 5-533               [16, 128, 16, 16]    --                   [16, 128, 16, 16]         --
│    │    │    │    └─Conv2d (conv2): 5-534             [16, 128, 16, 16]    [3, 3]               [16, 32, 16, 16]       0.13%
│    │    │    └─_DenseLayer (denselayer24): 4-102      [16, 896, 16, 16]    --                   [16, 32, 16, 16]          --
│    │    │    │    └─BatchNorm2d (norm1): 5-535        [16, 1632, 16, 16]   --                   [16, 1632, 16, 16]     0.01%
│    │    │    │    └─ReLU (relu1): 5-536               [16, 1632, 16, 16]   --                   [16, 1632, 16, 16]        --
│    │    │    │    └─Conv2d (conv1): 5-537             [16, 1632, 16, 16]   [1, 1]               [16, 128, 16, 16]      0.73%
│    │    │    │    └─BatchNorm2d (norm2): 5-538        [16, 128, 16, 16]    --                   [16, 128, 16, 16]      0.00%
│    │    │    │    └─ReLU (relu2): 5-539               [16, 128, 16, 16]    --                   [16, 128, 16, 16]         --
│    │    │    │    └─Conv2d (conv2): 5-540             [16, 128, 16, 16]    [3, 3]               [16, 32, 16, 16]       0.13%
│    │    │    └─_DenseLayer (denselayer25): 4-103      [16, 896, 16, 16]    --                   [16, 32, 16, 16]          --
│    │    │    │    └─BatchNorm2d (norm1): 5-541        [16, 1664, 16, 16]   --                   [16, 1664, 16, 16]     0.01%
│    │    │    │    └─ReLU (relu1): 5-542               [16, 1664, 16, 16]   --                   [16, 1664, 16, 16]        --
│    │    │    │    └─Conv2d (conv1): 5-543             [16, 1664, 16, 16]   [1, 1]               [16, 128, 16, 16]      0.75%
│    │    │    │    └─BatchNorm2d (norm2): 5-544        [16, 128, 16, 16]    --                   [16, 128, 16, 16]      0.00%
│    │    │    │    └─ReLU (relu2): 5-545               [16, 128, 16, 16]    --                   [16, 128, 16, 16]         --
│    │    │    │    └─Conv2d (conv2): 5-546             [16, 128, 16, 16]    [3, 3]               [16, 32, 16, 16]       0.13%
│    │    │    └─_DenseLayer (denselayer26): 4-104      [16, 896, 16, 16]    --                   [16, 32, 16, 16]          --
│    │    │    │    └─BatchNorm2d (norm1): 5-547        [16, 1696, 16, 16]   --                   [16, 1696, 16, 16]     0.01%
│    │    │    │    └─ReLU (relu1): 5-548               [16, 1696, 16, 16]   --                   [16, 1696, 16, 16]        --
│    │    │    │    └─Conv2d (conv1): 5-549             [16, 1696, 16, 16]   [1, 1]               [16, 128, 16, 16]      0.76%
│    │    │    │    └─BatchNorm2d (norm2): 5-550        [16, 128, 16, 16]    --                   [16, 128, 16, 16]      0.00%
│    │    │    │    └─ReLU (relu2): 5-551               [16, 128, 16, 16]    --                   [16, 128, 16, 16]         --
│    │    │    │    └─Conv2d (conv2): 5-552             [16, 128, 16, 16]    [3, 3]               [16, 32, 16, 16]       0.13%
│    │    │    └─_DenseLayer (denselayer27): 4-105      [16, 896, 16, 16]    --                   [16, 32, 16, 16]          --
│    │    │    │    └─BatchNorm2d (norm1): 5-553        [16, 1728, 16, 16]   --                   [16, 1728, 16, 16]     0.01%
│    │    │    │    └─ReLU (relu1): 5-554               [16, 1728, 16, 16]   --                   [16, 1728, 16, 16]        --
│    │    │    │    └─Conv2d (conv1): 5-555             [16, 1728, 16, 16]   [1, 1]               [16, 128, 16, 16]      0.77%
│    │    │    │    └─BatchNorm2d (norm2): 5-556        [16, 128, 16, 16]    --                   [16, 128, 16, 16]      0.00%
│    │    │    │    └─ReLU (relu2): 5-557               [16, 128, 16, 16]    --                   [16, 128, 16, 16]         --
│    │    │    │    └─Conv2d (conv2): 5-558             [16, 128, 16, 16]    [3, 3]               [16, 32, 16, 16]       0.13%
│    │    │    └─_DenseLayer (denselayer28): 4-106      [16, 896, 16, 16]    --                   [16, 32, 16, 16]          --
│    │    │    │    └─BatchNorm2d (norm1): 5-559        [16, 1760, 16, 16]   --                   [16, 1760, 16, 16]     0.01%
│    │    │    │    └─ReLU (relu1): 5-560               [16, 1760, 16, 16]   --                   [16, 1760, 16, 16]        --
│    │    │    │    └─Conv2d (conv1): 5-561             [16, 1760, 16, 16]   [1, 1]               [16, 128, 16, 16]      0.79%
│    │    │    │    └─BatchNorm2d (norm2): 5-562        [16, 128, 16, 16]    --                   [16, 128, 16, 16]      0.00%
│    │    │    │    └─ReLU (relu2): 5-563               [16, 128, 16, 16]    --                   [16, 128, 16, 16]         --
│    │    │    │    └─Conv2d (conv2): 5-564             [16, 128, 16, 16]    [3, 3]               [16, 32, 16, 16]       0.13%
│    │    │    └─_DenseLayer (denselayer29): 4-107      [16, 896, 16, 16]    --                   [16, 32, 16, 16]          --
│    │    │    │    └─BatchNorm2d (norm1): 5-565        [16, 1792, 16, 16]   --                   [16, 1792, 16, 16]     0.01%
│    │    │    │    └─ReLU (relu1): 5-566               [16, 1792, 16, 16]   --                   [16, 1792, 16, 16]        --
│    │    │    │    └─Conv2d (conv1): 5-567             [16, 1792, 16, 16]   [1, 1]               [16, 128, 16, 16]      0.80%
│    │    │    │    └─BatchNorm2d (norm2): 5-568        [16, 128, 16, 16]    --                   [16, 128, 16, 16]      0.00%
│    │    │    │    └─ReLU (relu2): 5-569               [16, 128, 16, 16]    --                   [16, 128, 16, 16]         --
│    │    │    │    └─Conv2d (conv2): 5-570             [16, 128, 16, 16]    [3, 3]               [16, 32, 16, 16]       0.13%
│    │    │    └─_DenseLayer (denselayer30): 4-108      [16, 896, 16, 16]    --                   [16, 32, 16, 16]          --
│    │    │    │    └─BatchNorm2d (norm1): 5-571        [16, 1824, 16, 16]   --                   [16, 1824, 16, 16]     0.01%
│    │    │    │    └─ReLU (relu1): 5-572               [16, 1824, 16, 16]   --                   [16, 1824, 16, 16]        --
│    │    │    │    └─Conv2d (conv1): 5-573             [16, 1824, 16, 16]   [1, 1]               [16, 128, 16, 16]      0.82%
│    │    │    │    └─BatchNorm2d (norm2): 5-574        [16, 128, 16, 16]    --                   [16, 128, 16, 16]      0.00%
│    │    │    │    └─ReLU (relu2): 5-575               [16, 128, 16, 16]    --                   [16, 128, 16, 16]         --
│    │    │    │    └─Conv2d (conv2): 5-576             [16, 128, 16, 16]    [3, 3]               [16, 32, 16, 16]       0.13%
│    │    │    └─_DenseLayer (denselayer31): 4-109      [16, 896, 16, 16]    --                   [16, 32, 16, 16]          --
│    │    │    │    └─BatchNorm2d (norm1): 5-577        [16, 1856, 16, 16]   --                   [16, 1856, 16, 16]     0.01%
│    │    │    │    └─ReLU (relu1): 5-578               [16, 1856, 16, 16]   --                   [16, 1856, 16, 16]        --
│    │    │    │    └─Conv2d (conv1): 5-579             [16, 1856, 16, 16]   [1, 1]               [16, 128, 16, 16]      0.83%
│    │    │    │    └─BatchNorm2d (norm2): 5-580        [16, 128, 16, 16]    --                   [16, 128, 16, 16]      0.00%
│    │    │    │    └─ReLU (relu2): 5-581               [16, 128, 16, 16]    --                   [16, 128, 16, 16]         --
│    │    │    │    └─Conv2d (conv2): 5-582             [16, 128, 16, 16]    [3, 3]               [16, 32, 16, 16]       0.13%
│    │    │    └─_DenseLayer (denselayer32): 4-110      [16, 896, 16, 16]    --                   [16, 32, 16, 16]          --
│    │    │    │    └─BatchNorm2d (norm1): 5-583        [16, 1888, 16, 16]   --                   [16, 1888, 16, 16]     0.01%
│    │    │    │    └─ReLU (relu1): 5-584               [16, 1888, 16, 16]   --                   [16, 1888, 16, 16]        --
│    │    │    │    └─Conv2d (conv1): 5-585             [16, 1888, 16, 16]   [1, 1]               [16, 128, 16, 16]      0.85%
│    │    │    │    └─BatchNorm2d (norm2): 5-586        [16, 128, 16, 16]    --                   [16, 128, 16, 16]      0.00%
│    │    │    │    └─ReLU (relu2): 5-587               [16, 128, 16, 16]    --                   [16, 128, 16, 16]         --
│    │    │    │    └─Conv2d (conv2): 5-588             [16, 128, 16, 16]    [3, 3]               [16, 32, 16, 16]       0.13%
│    │    └─BatchNorm2d (norm5): 3-12                   [16, 1920, 16, 16]   --                   [16, 1920, 16, 16]     0.01%
├─UnetDecoder (decoder): 1-2                            [16, 1, 512, 512]    --                   [16, 16, 512, 512]        --
│    └─Identity (center): 2-2                           [16, 1920, 16, 16]   --                   [16, 1920, 16, 16]        --
│    └─ModuleList (blocks): 2-3                         --                   --                   --                        --
│    │    └─DecoderBlock (0): 3-13                      [16, 1920, 16, 16]   --                   [16, 256, 32, 32]         --
│    │    │    └─Attention (attention1): 4-111          [16, 3712, 32, 32]   --                   [16, 3712, 32, 32]        --
│    │    │    │    └─Identity (attention): 5-589       [16, 3712, 32, 32]   --                   [16, 3712, 32, 32]        --
│    │    │    └─Conv2dReLU (conv1): 4-112              [16, 3712, 32, 32]   --                   [16, 256, 32, 32]         --
│    │    │    │    └─Conv2d (0): 5-590                 [16, 3712, 32, 32]   [3, 3]               [16, 256, 32, 32]     29.93%
│    │    │    │    └─BatchNorm2d (1): 5-591            [16, 256, 32, 32]    --                   [16, 256, 32, 32]      0.00%
│    │    │    │    └─ReLU (2): 5-592                   [16, 256, 32, 32]    --                   [16, 256, 32, 32]         --
│    │    │    └─Conv2dReLU (conv2): 4-113              [16, 256, 32, 32]    --                   [16, 256, 32, 32]         --
│    │    │    │    └─Conv2d (0): 5-593                 [16, 256, 32, 32]    [3, 3]               [16, 256, 32, 32]      2.06%
│    │    │    │    └─BatchNorm2d (1): 5-594            [16, 256, 32, 32]    --                   [16, 256, 32, 32]      0.00%
│    │    │    │    └─ReLU (2): 5-595                   [16, 256, 32, 32]    --                   [16, 256, 32, 32]         --
│    │    │    └─Attention (attention2): 4-114          [16, 256, 32, 32]    --                   [16, 256, 32, 32]         --
│    │    │    │    └─Identity (attention): 5-596       [16, 256, 32, 32]    --                   [16, 256, 32, 32]         --
│    │    └─DecoderBlock (1): 3-14                      [16, 256, 32, 32]    --                   [16, 128, 64, 64]         --
│    │    │    └─Attention (attention1): 4-115          [16, 768, 64, 64]    --                   [16, 768, 64, 64]         --
│    │    │    │    └─Identity (attention): 5-597       [16, 768, 64, 64]    --                   [16, 768, 64, 64]         --
│    │    │    └─Conv2dReLU (conv1): 4-116              [16, 768, 64, 64]    --                   [16, 128, 64, 64]         --
│    │    │    │    └─Conv2d (0): 5-598                 [16, 768, 64, 64]    [3, 3]               [16, 128, 64, 64]      3.10%
│    │    │    │    └─BatchNorm2d (1): 5-599            [16, 128, 64, 64]    --                   [16, 128, 64, 64]      0.00%
│    │    │    │    └─ReLU (2): 5-600                   [16, 128, 64, 64]    --                   [16, 128, 64, 64]         --
│    │    │    └─Conv2dReLU (conv2): 4-117              [16, 128, 64, 64]    --                   [16, 128, 64, 64]         --
│    │    │    │    └─Conv2d (0): 5-601                 [16, 128, 64, 64]    [3, 3]               [16, 128, 64, 64]      0.52%
│    │    │    │    └─BatchNorm2d (1): 5-602            [16, 128, 64, 64]    --                   [16, 128, 64, 64]      0.00%
│    │    │    │    └─ReLU (2): 5-603                   [16, 128, 64, 64]    --                   [16, 128, 64, 64]         --
│    │    │    └─Attention (attention2): 4-118          [16, 128, 64, 64]    --                   [16, 128, 64, 64]         --
│    │    │    │    └─Identity (attention): 5-604       [16, 128, 64, 64]    --                   [16, 128, 64, 64]         --
│    │    └─DecoderBlock (2): 3-15                      [16, 128, 64, 64]    --                   [16, 64, 128, 128]        --
│    │    │    └─Attention (attention1): 4-119          [16, 384, 128, 128]  --                   [16, 384, 128, 128]       --
│    │    │    │    └─Identity (attention): 5-605       [16, 384, 128, 128]  --                   [16, 384, 128, 128]       --
│    │    │    └─Conv2dReLU (conv1): 4-120              [16, 384, 128, 128]  --                   [16, 64, 128, 128]        --
│    │    │    │    └─Conv2d (0): 5-606                 [16, 384, 128, 128]  [3, 3]               [16, 64, 128, 128]     0.77%
│    │    │    │    └─BatchNorm2d (1): 5-607            [16, 64, 128, 128]   --                   [16, 64, 128, 128]     0.00%
│    │    │    │    └─ReLU (2): 5-608                   [16, 64, 128, 128]   --                   [16, 64, 128, 128]        --
│    │    │    └─Conv2dReLU (conv2): 4-121              [16, 64, 128, 128]   --                   [16, 64, 128, 128]        --
│    │    │    │    └─Conv2d (0): 5-609                 [16, 64, 128, 128]   [3, 3]               [16, 64, 128, 128]     0.13%
│    │    │    │    └─BatchNorm2d (1): 5-610            [16, 64, 128, 128]   --                   [16, 64, 128, 128]     0.00%
│    │    │    │    └─ReLU (2): 5-611                   [16, 64, 128, 128]   --                   [16, 64, 128, 128]        --
│    │    │    └─Attention (attention2): 4-122          [16, 64, 128, 128]   --                   [16, 64, 128, 128]        --
│    │    │    │    └─Identity (attention): 5-612       [16, 64, 128, 128]   --                   [16, 64, 128, 128]        --
│    │    └─DecoderBlock (3): 3-16                      [16, 64, 128, 128]   --                   [16, 32, 256, 256]        --
│    │    │    └─Attention (attention1): 4-123          [16, 128, 256, 256]  --                   [16, 128, 256, 256]       --
│    │    │    │    └─Identity (attention): 5-613       [16, 128, 256, 256]  --                   [16, 128, 256, 256]       --
│    │    │    └─Conv2dReLU (conv1): 4-124              [16, 128, 256, 256]  --                   [16, 32, 256, 256]        --
│    │    │    │    └─Conv2d (0): 5-614                 [16, 128, 256, 256]  [3, 3]               [16, 32, 256, 256]     0.13%
│    │    │    │    └─BatchNorm2d (1): 5-615            [16, 32, 256, 256]   --                   [16, 32, 256, 256]     0.00%
│    │    │    │    └─ReLU (2): 5-616                   [16, 32, 256, 256]   --                   [16, 32, 256, 256]        --
│    │    │    └─Conv2dReLU (conv2): 4-125              [16, 32, 256, 256]   --                   [16, 32, 256, 256]        --
│    │    │    │    └─Conv2d (0): 5-617                 [16, 32, 256, 256]   [3, 3]               [16, 32, 256, 256]     0.03%
│    │    │    │    └─BatchNorm2d (1): 5-618            [16, 32, 256, 256]   --                   [16, 32, 256, 256]     0.00%
│    │    │    │    └─ReLU (2): 5-619                   [16, 32, 256, 256]   --                   [16, 32, 256, 256]        --
│    │    │    └─Attention (attention2): 4-126          [16, 32, 256, 256]   --                   [16, 32, 256, 256]        --
│    │    │    │    └─Identity (attention): 5-620       [16, 32, 256, 256]   --                   [16, 32, 256, 256]        --
│    │    └─DecoderBlock (4): 3-17                      [16, 32, 256, 256]   --                   [16, 16, 512, 512]        --
│    │    │    └─Conv2dReLU (conv1): 4-127              [16, 32, 512, 512]   --                   [16, 16, 512, 512]        --
│    │    │    │    └─Conv2d (0): 5-621                 [16, 32, 512, 512]   [3, 3]               [16, 16, 512, 512]     0.02%
│    │    │    │    └─BatchNorm2d (1): 5-622            [16, 16, 512, 512]   --                   [16, 16, 512, 512]     0.00%
│    │    │    │    └─ReLU (2): 5-623                   [16, 16, 512, 512]   --                   [16, 16, 512, 512]        --
│    │    │    └─Conv2dReLU (conv2): 4-128              [16, 16, 512, 512]   --                   [16, 16, 512, 512]        --
│    │    │    │    └─Conv2d (0): 5-624                 [16, 16, 512, 512]   [3, 3]               [16, 16, 512, 512]     0.01%
│    │    │    │    └─BatchNorm2d (1): 5-625            [16, 16, 512, 512]   --                   [16, 16, 512, 512]     0.00%
│    │    │    │    └─ReLU (2): 5-626                   [16, 16, 512, 512]   --                   [16, 16, 512, 512]        --
│    │    │    └─Attention (attention2): 4-129          [16, 16, 512, 512]   --                   [16, 16, 512, 512]        --
│    │    │    │    └─Identity (attention): 5-627       [16, 16, 512, 512]   --                   [16, 16, 512, 512]        --
├─SegmentationHead (segmentation_head): 1-3             [16, 16, 512, 512]   --                   [16, 5, 512, 512]         --
│    └─Conv2d (0): 2-4                                  [16, 16, 512, 512]   [3, 3]               [16, 5, 512, 512]      0.00%
│    └─Identity (1): 2-5                                [16, 5, 512, 512]    --                   [16, 5, 512, 512]         --
│    └─Activation (2): 2-6                              [16, 5, 512, 512]    --                   [16, 5, 512, 512]         --
│    │    └─Identity (activation): 3-18                 [16, 5, 512, 512]    --                   [16, 5, 512, 512]         --
=======================================================================================================================================
Total params: 28,574,869
Trainable params: 28,574,869
Non-trainable params: 0
Total mult-adds (G): 717.42
=======================================================================================================================================
Input size (MB): 16.78
…
